tudui_0.pth (torch, 587399 bytes, 10 tensors)

weight f4 [32, 3, 5, 5]
000000 79 fd bb bd b9 b3 ae bd e2 64 b9 3d 3b 97 b4 3d
       -0.091792054 -0.08530373 0.09052445 0.088179074
000010 c5 e6 ef 3a 18 90 e4 bd f7 76 d5 bd 08 8b d2 3d
       0.0018303028 -0.11160296 -0.10423081 0.10280424
000020 a1 b3 49 bd 50 40 d0 bb 0f f9 94 3d a2 26 cb 3d
       -0.049243573 -0.006355323 0.07274067 0.09919478
000030 e6 1f 60 3c da 69 f1 bd f4 f3 af bd b4 51 56 3d
       0.01367948 -0.11787768 -0.08591452 0.052324012
000040 fd a2 90 3d 7a 50 f1 3c 26 55 b2 3d 24 43 ca 3c
       0.070623375 0.02945732 0.08707647 0.024690218
000050 61 8d 45 3d 34 f3 b2 3c 8a 4e e2 bd 34 ae ca bd
       0.048230533 0.021844484 -0.110501364 -0.09896508
000060 a3 b9 7a bc ef 12 df bd 4c 05 4e 3d 05 04 f8 bd
       -0.015303048 -0.10892283 0.05029802 -0.12110142
000070 8f 29 dd bc dc 1e c0 3d a2 6e 55 bd 43 58 a8 3d
       -0.026997356 0.09380886 -0.05210746 0.082199596
000080 6c 37 8b bd 97 c6 f8 bc 59 00 d7 3d fc f6 25 3a
       -0.0679768 -0.030368133 0.10498113 0.0006331054
000090 1a 81 70 bd 32 b7 e6 bd c2 20 ab bd 93 42 4e 3d
       -0.05871687 -0.112654105 -0.083558574 0.05035646
0000a0 50 14 a4 bd ef 94 2f 3b 70 0c cf 3d b8 dd e4 3b
       -0.08011687 0.0026791652 0.10109794 0.0069844387
0000b0 e6 21 a7 bd 1b ba ac bd 21 b4 6f bd 10 e0 6a bd
       -0.081607625 -0.08433934 -0.058521394 -0.05734259
0000c0 41 0b 93 3d d9 e7 86 3d 0c e2 a3 bd 58 a5 34 bb
       0.07179881 0.0658719 -0.080020994 -0.0027564373
0000d0 40 c2 96 3b 8b 0d c4 3d f1 a7 a3 3c f4 ae bf bd
       0.004600793 0.095728956 0.019977542 -0.093595415
0000e0 ca 5b 2f bd d5 99 47 3d 2c 1e a1 bd eb fd 07 3d
       -0.042812146 0.04873069 -0.07867083 0.03320114
0000f0 ec b0 d2 ba 9f 30 25 bd ec e1 0d 3d a4 3a ba 3b
       -0.0016074455 -0.04032957 0.034639284 0.00568326
000100 f7 2c d8 bd 33 11 75 bd 35 10 62 bd 99 e4 5c bd
       -0.10555451 -0.059830856 -0.055191237 -0.053928945
000110 1d 35 ed bd 32 a6 01 bd fc 01 c5 bd 4c c7 50 bd
       -0.11582396 -0.031652637 -0.09619519 -0.050971314
000120 a8 2c d4 3d 49 79 36 3d 2a f3 a4 3d e6 0d 8e 3c
       0.1036008 0.04454926 0.08054192 0.017340612
000130 14 ab 55 bd cd 03 d7 3c fc 4d 53 bd e6 e0 40 3d
       -0.052165106 0.02624693 -0.051588044 0.04708948
000140 71 b7 c6 3c 7a 05 c4 bd 01 3d ae 3d 8f 0d 88 3c
       0.024257394 -0.09571357 0.08507729 0.016608028
000150 ce 25 60 bd ee d2 c2 bd 06 0d 03 bd 17 de d0 3d
       -0.054723553 -0.09512888 -0.031994842 0.1019861
000160 8d 5a 8a bd 56 14 43 bd ad b8 ba 3c 04 1c be bd
       -0.067555524 -0.047626816 0.022793138 -0.09282687
000170 e9 53 7b bd 04 3e 55 bb 8e 25 d7 3d fc 8f 24 3b
       -0.06135932 -0.0032538185 0.1050521 0.0025110235
000180 4f 87 b6 bd 31 97 51 bd 1f ae a1 bd 85 2c c0 3d
       -0.08912527 -0.051169578 -0.07894539 0.093834914
000190 fc 9e a1 3d 09 47 f1 bd 64 98 85 3d 89 a8 aa 3d
       0.07891652 -0.11781127 0.06523207 0.08332927
0001a0 b5 24 8f bd 65 31 48 bd 84 98 af 3d 70 7c b8 bd
       -0.06989423 -0.04887523 0.08574012 -0.090081096
0001b0 5d e2 c9 bd 7c 1e e5 3a d4 b2 b8 bd 97 04 a6 bc
       -0.098576285 0.0017480399 -0.09018484 -0.02026586
0001c0 00 a9 26 3b 23 14 fd bd 1b fc 4d bb 93 d2 a3 bd
       0.0025430322 -0.123573564 -0.0031430784 -0.07999148
0001d0 7f 05 6a bb 90 06 30 bd be cb c6 3d 2d c6 98 bd
       -0.0035708842 -0.04297501 0.097068295 -0.07459674
0001e0 8a 4c a5 3d 4b dc d9 3d 38 b8 42 bd 0f 58 06 3c
       0.08071239 0.10637721 -0.047538966 0.008199706
0001f0 95 e2 bd bc c4 22 2a 3d 8f 5a 12 bd ab a1 98 bd
       -0.023179332 0.04153706 -0.035730895 -0.07452711
000200 af f9 0a be 91 51 80 3d 8d b7 88 bd 7f 57 af bd
       -0.13571809 0.062655576 -0.066756345 -0.085616104
000210 b3 00 05 be d4 b1 f7 bd 47 7e e1 bd d6 61 d8 3b
       -0.12988548 -0.12094465 -0.110104136 0.00660346
000220 b6 aa 7d bd 63 db e9 bc f9 e9 89 3c 8f 53 fa bd
       -0.06193038 -0.028546995 0.0168352 -0.12222969
000230 2a 70 63 bd 3f 89 a3 bd 5b b6 cc bd fe 45 96 3d
       -0.05552689 -0.07985162 -0.09995719 0.07337569
000240 74 74 cf 3b 68 be 3f bd af 47 72 3d d6 c2 13 bd
       0.006331021 -0.046812445 0.059150394 -0.036074482
000250 bd db 17 bd 8d d3 cc bb de 1d 3f bd 36 0f 43 bd
       -0.037074793 -0.0062508048 -0.046659343 -0.04762193
000260 5e 6d 8a 3d 27 bb 05 3d a0 77 b3 3d fb 5b 1e 3c
       0.067591414 0.032649186 0.08763051 0.009665485
000270 dd 16 d9 3d 7d f4 cf 3d ae 6b 83 3c 07 4f 9f 3d
       0.10600064 0.10154054 0.016042557 0.07778745
000280 7b 2a 0a bd 5c 9f 85 3d 79 4e ac bd 7b 2b 69 3d
       -0.03373192 0.06524536 -0.08413405 0.05692623
000290 9a b7 a3 3c 43 be d3 bd 96 e3 a8 bd 13 7e 1e 3d
       0.019985009 -0.10339024 -0.082465336 0.038694452
0002a0 fa c2 36 3c 74 2a 8e bd 41 42 a1 3c 7f d0 bf bd
       0.0111548845 -0.06941691 0.019684913 -0.09365939
0002b0 1b e7 e0 3d f6 b8 99 bd db 00 7e bd 60 01 08 3d
       0.1098158 -0.075059816 -0.062012535 0.033204436
0002c0 76 08 b4 bd 78 f1 e4 bd 64 be e0 bd 1f 62 7e 3d
       -0.08790676 -0.11178869 -0.10973814 0.062105294
0002d0 e9 bc bf 3d a5 ea 80 bd 3c 50 9e bd ee cc b4 bd
       0.09362204 -0.06294755 -0.07730147 -0.0882815
0002e0 6f 33 ea bd 15 8b e5 3d 3e 80 cd 3d 98 29 e2 3d
       -0.114355914 0.112081684 0.10034226 0.1104309
0002f0 a0 e7 9c 3d b2 f6 50 3b 45 99 07 3c f8 0d 9f 3b
       0.076613665 0.0031885323 0.008276288 0.00485396
000300 c6 df be bd 30 26 1b 3d b8 52 41 bd 2d 8e bd 3d
       -0.09320025 0.037878215 -0.047198027 0.092556335
000310 bb 7c a5 bd 5f ba bd bd 30 db ad 3d 9a 21 1c 3d
       -0.08080431 -0.09264063 0.08489072 0.038117982
000320 74 30 4f bd f8 67 9c bd 1a 41 bd 3c a3 df 53 bb
       -0.050583318 -0.07637018 0.023102332 -0.0032329343
000330 43 37 2d bd 76 e5 c2 bd 8f c0 56 3d 32 4a e9 bb
       -0.04228903 -0.095164225 0.052429732 -0.0071194405
000340 b5 d6 50 3a 1d 4d 2e 3d 39 00 f7 3d 87 24 9b 3d
       0.0007966564 0.04255401 0.12060589 0.075753264
000350 7c e2 62 3d 63 91 67 3d e2 e3 e6 3d 91 28 da 3c
       0.055391774 0.056535136 0.11273934 0.026630672
000360 ba c3 81 bd d0 b8 d7 bb 6c 19 ac bd f5 00 e4 bc
       -0.0633616 -0.0065833107 -0.08403286 -0.027832488
000370 7f 67 94 3d b7 3d a1 3d ca 91 3e bc f8 4e 05 bd
       0.07246303 0.07873099 -0.0116314385 -0.032546014
000380 3c 30 1d 3d 7d d5 fc 3c 04 5b 87 bd 72 48 88 3d
       0.038376078 0.030863518 -0.06609157 0.06654443
000390 7e 2b e4 bc 15 4c f4 3c 47 33 33 3d 48 5a 67 bd
       -0.02785277 0.029821435 0.043750074 -0.056482583
0003a0 d3 df cb bd 02 1a 8f bd 33 2b dd 3c 0f 1c b6 bd
       -0.099548005 -0.069873825 0.026998138 -0.088920705
0003b0 7c 6e 4e bc 25 11 18 bd 97 55 8c 3d 6d ac 35 bd
       -0.012599584 -0.037125725 0.068522625 -0.04435389
0003c0 fb 91 c6 bd 68 50 0a bd fc 77 9c 3d 3b c0 c0 bd
       -0.09695812 -0.033768088 0.07640073 -0.09411665
0003d0 a9 13 78 3d 56 d7 bb bd d6 01 ed bd 12 64 c8 bc
       0.060565624 -0.091719314 -0.11572616 -0.02446178
0003e0 50 4f 02 3d 42 a6 d7 bb 65 75 c8 3b ed f0 e9 3d
       0.03181392 -0.006581099 0.00611751 0.11422906
0003f0 65 47 91 bd 6e 9b 8b bd c3 e1 4a bc f5 9b 80 bd
       -0.070936956 -0.06816755 -0.012382927 -0.062797464

bias f4 [32]
000000 e0 b8 8f 3d 82 fc 92 bd 60 fb 5e bd ef 54 16 bd
       0.07017684 -0.07177068 -0.05443895 -0.036702093
000010 06 24 8a bd e3 88 ed bd ea d0 f5 bd 4b 88 9e bb
       -0.06745152 -0.11598375 -0.12002738 -0.0048380247
000020 b1 d1 8e 3d b7 9d 07 be 5c e3 d2 bd 48 ca 46 3d
       0.06973589 -0.13243757 -0.102972716 0.048532754
000030 2a 54 34 bb cd 35 ec 3d 01 4d 2e 3d 4e aa 21 bd
       -0.0027515986 0.11533699 0.042553905 -0.039469056
000040 c7 c7 e6 bd b6 ab e7 3d 59 9f 68 3d 90 59 fc bc
       -0.11268573 0.11312048 0.05679259 -0.030804425
000050 a8 b6 e1 3c 75 d4 09 3e b7 b8 82 3d f3 ae a2 bd
       0.027552918 0.13459952 0.06382888 -0.07943525
000060 7f a7 d8 bd c8 0a 67 bd 81 3d a3 bd 51 55 75 3d
       -0.10578822 -0.056406766 -0.07970715 0.059895817
000070 db 43 ef bd f7 e2 bf bd f8 66 c8 3d 0f 74 82 bd
       -0.11682864 -0.09369462 0.09785265 -0.06369793

weight f4 [32, 32, 5, 5]
000000 bb f2 5a 3c 0f 3f d8 3c c3 86 79 bc 66 e9 96 bc
       0.0133635355 0.026397256 -0.015229884 -0.01842184
000010 eb d7 aa 3c e6 bd dc bc 76 70 a0 bc d4 72 bb 3c
       0.02085491 -0.02694602 -0.019584876 0.022881903
000020 89 e6 1b 3b 2b 18 02 3c 4d d3 84 3b 49 19 ee 3c
       0.0023788533 0.007940332 0.0040535093 0.029064791
000030 e3 28 d6 3b 80 8f d7 3c 0a e0 05 3d b3 8b 4a bc
       0.006535636 0.026313543 0.032684363 -0.012362408
000040 e6 20 0f bd fe 9b 15 bd e1 18 14 3c 4e 85 31 bc
       -0.034943484 -0.03652572 0.009039135 -0.010835005
000050 7f d1 df bb ef 63 0b 3b 53 68 03 bd c5 bb b1 bc
       -0.006830394 0.0021269282 -0.032081913 -0.02169598
000060 aa 3d a0 bb d3 b8 8a 3c d3 d1 f3 3b 76 8b 34 bc
       -0.0048901634 0.016933834 0.0074407845 -0.011019578
000070 d2 e4 04 bd 2b 19 45 bc 07 ab 33 bc 7a 23 93 bc
       -0.032444783 -0.012029926 -0.010966069 -0.017961252
000080 89 ef f5 bc 82 0d e2 3c 9a 96 0a 3d 71 06 fb bc
       -0.030021446 0.027594332 0.03383503 -0.03064272
000090 62 7e 41 3b c3 c8 0f bd aa bb d9 3c fa db 6d 3c
       0.0029524793 -0.03510357 0.026578743 0.0145177785
0000a0 f2 b8 59 bc ad ec 1c bd 84 c8 88 bc e8 d1 cc 3a
       -0.013288723 -0.03831165 -0.016697176 0.0015626522
0000b0 5c 7d 71 3c 6d d7 cc 3c 52 04 bf 3a 4a 80 7f bc
       0.014739361 0.025005067 0.0014573431 -0.015594551
0000c0 8a bf f1 3c 7e 9a da 3b 1f 87 c3 3c 97 ff d1 3b
       0.029510278 0.006671249 0.023868142 0.0064086425
0000d0 5e 89 9a bc af 18 9f bc 56 9e 16 bd 46 1f eb 3c
       -0.01886433 -0.01942095 -0.036772095 0.028701436
0000e0 26 ce a3 3a 97 be 52 bc 5b d1 87 ba 23 38 cc bc
       0.001249735 -0.012862823 -0.0010362075 -0.024929112
0000f0 c8 ca 5e bc 34 f6 bd bc 60 b7 c4 3c 39 57 a5 bc
       -0.0135981515 -0.023188688 0.024013221 -0.020183193
000100 07 78 d0 3b 43 cb 14 bc 54 6c e5 3b b1 4a 9a bc
       0.0063619646 -0.0090816645 0.007001439 -0.018834444
000110 6d 5e a3 3c c6 ac a7 bc 5e 47 f4 bc 02 1f c2 3c
       0.019942487 -0.020468127 -0.029819187 0.023696426
000120 53 a1 90 bc 2b f3 ff b9 7c 54 32 3c c4 98 58 3c
       -0.01765505 -0.00048818564 0.0108844 0.013220016
000130 ed f5 18 3b 99 7c 47 bc f7 ee 92 bc a4 89 ba bb
       0.0023339943 -0.0121757025 -0.017936213 -0.0056926776
000140 db 03 04 3b 99 18 49 bc d6 e8 05 bb ed b5 fc 3c
       0.00201439 -0.012273931 -0.002043297 0.030848468
000150 82 ae c9 3c e9 fa 82 bc 93 4d 6c bb 4d 7a fa bc
       0.024619345 -0.015988784 -0.003605698 -0.030575896
000160 3f 80 31 3c fa 82 f5 bc 0a 99 22 3c cb 6e 04 3d
       0.010833799 -0.029969681 0.009924183 0.032332223
000170 a9 37 89 3c eb 0c 8a bc 29 76 92 3c 8a 52 41 bc
       0.016750174 -0.016851863 0.017878609 -0.011799464
000180 0c 64 11 bd 7b 01 26 bc 5f 58 3b 3c 04 75 b5 3c
       -0.035495803 -0.010132189 0.0114346435 0.022150524
000190 97 27 73 3c 82 d4 e0 bb cd e7 0c bc b5 8f e6 bc
       0.014840982 -0.0068612704 -0.0086001875 -0.028144697
0001a0 20 eb 1a 3d 02 13 d3 3c 8b 1e 02 bc 39 9b f0 3c
       0.03782189 0.0257659 -0.007941852 0.02937089
0001b0 fa b5 26 3c c9 6e de 3c fb 6c 68 ba 0f 05 b1 bc
       0.0101752225 0.027152436 -0.0008866337 -0.021608857
0001c0 95 46 c9 bc c0 57 32 bc 26 54 74 bc 2d 90 bf bc
       -0.024569789 -0.010885179 -0.014912641 -0.023384178
0001d0 24 e7 e2 ba 73 ab 23 3d 68 e9 81 bc 6d ae 11 bc
       -0.0017311317 0.03995843 -0.015858367 -0.008891684
0001e0 77 6a f3 3b c8 7d 2e bb b4 12 9f 3c aa 41 8b 3a
       0.007428463 -0.0026625264 0.019418098 0.0010624428
0001f0 80 95 89 3a 24 8d 02 bd a5 ef fa 3b 12 e3 ed 3b
       0.0010496825 -0.031872883 0.0076579624 0.007259735
000200 fb 63 1f bd cb 93 b4 3c d8 d6 15 3b ed b4 e6 bb
       -0.03891371 0.02204313 0.0022863653 -0.007040611
000210 59 80 ac 3c dc 53 cd 3c 0a 57 6f 3c 8e e9 a5 bc
       0.021057295 0.025064401 0.014608154 -0.02025297
000220 7b 75 2d bd ed 52 3b 3c 4f e0 45 bc f6 a1 1b bd
       -0.042348366 0.011433345 -0.012077405 -0.037996255
000230 b1 a9 b7 bc 77 5e 3e bd 48 1c 22 bd 13 b5 01 bc
       -0.022419782 -0.046476807 -0.039577752 -0.007916707
000240 7d fa 0b 3c 0b 69 fa bc c3 a5 90 bc 3c 0e 94 3c
       0.008543608 -0.030567667 -0.017657166 0.018073194
000250 e3 eb 1e 3c 1a b8 e5 bc 00 9a 33 bc f1 f6 d9 bc
       0.009699794 -0.028041888 -0.010962009 -0.026607009
000260 17 fa 17 3c c6 d7 03 bc 2f b5 fc bc 56 b2 9c bc
       0.009275935 -0.00804705 -0.030848114 -0.019128006
000270 9f 52 fd bc 25 db e2 bc f6 3b 6f bc b1 cf 35 bd
       -0.030923186 -0.027692387 -0.014601698 -0.044387523
000280 de b2 72 3b 2f 48 68 bc f0 01 0e bd b2 bf 14 bd
       0.0037032883 -0.014177366 -0.034669816 -0.036315627
000290 57 9c 70 bc 23 38 8b 3b b3 d5 ca 3b 0c 48 44 bd
       -0.014685712 0.0042486354 0.0061900257 -0.04792027
0002a0 fe 75 10 bd 7b 53 a8 3c 8d 70 93 bc d1 af 8f bb
       -0.035268776 0.02054762 -0.017998004 -0.0043849726
0002b0 25 5e 76 3b 6e b6 e5 bc 6f 67 98 3c dc d8 27 3c
       0.0037592736 -0.02804109 0.018604008 0.010244574
0002c0 18 a9 8c 3c 10 2b a1 bc 10 da 72 3a d9 10 4c 3c
       0.017170474 -0.019673854 0.0009264061 0.012455189
0002d0 22 02 e9 bc 16 c8 fc bc 28 c7 c8 3c 83 03 2a 3d
       -0.0284434 -0.030857127 0.024509028 0.041507255
0002e0 fa 76 cc bc 29 ba 1f 3d 32 2f 4c bc 34 ff f1 3b
       -0.024959076 0.038995896 -0.012462424 0.007385159
0002f0 d8 c4 00 bb c2 cf e3 3c 47 51 c6 bc e6 dd e7 3c
       -0.0019648578 0.027809028 -0.024208678 0.028304052
000300 e0 75 c6 3b ba 79 a3 3c 82 f2 ae 3b 26 46 96 3c
       0.0060565323 0.019955505 0.005338968 0.018343996
000310 c5 a1 a0 bb 2c c8 d7 bc f9 4b 16 3d ad 2c 97 bc
       -0.004902097 -0.026340567 0.036693547 -0.01845392
000320 bf 46 35 bc cc 4f c1 bc 14 b0 fb 3c 7e 4f 24 3b
       -0.01106423 -0.02359762 0.030723609 0.0025071795
000330 98 ad c9 3c ce 91 46 bc 10 53 ce bc 56 a6 b0 3c
       0.024618909 -0.0121197235 -0.025186092 0.02156369
000340 ff 2a ad 3b f9 2a f4 3c ce 8b 3f 3b ce c5 e5 3b
       0.0052846665 0.029805647 0.0029227617 0.0070121055
000350 ef 64 74 bb 80 1b 76 3c 18 80 55 3c 53 6d 53 ba
       -0.0037291606 0.015021205 0.013031028 -0.0008065302
000360 10 f3 4f 3b a3 e4 7c bc 73 05 b5 3c 7a 80 7c bc
       0.003173057 -0.015435371 0.022097325 -0.015411491
000370 c0 10 2b bc 48 9e d8 bc 12 06 bb bc 1e 9a e3 3c
       -0.010441005 -0.026442662 -0.022830043 0.02778345
000380 d1 8a c8 bb 84 99 49 bc ce 98 a8 bc 83 72 f3 bc
       -0.006120064 -0.012304667 -0.020580675 -0.02971769
000390 dc d5 0a bd 65 13 6b bc d0 4b 9c bc dc f5 b9 bc
       -0.03389536 -0.014347886 -0.019079119 -0.022700243
0003a0 10 7c 36 3c 3e 09 d3 3a 2a fb fd bc 79 88 92 3c
       0.011137977 0.0016100777 -0.031003553 0.01788734
0003b0 a6 e7 d8 3c d0 e9 c2 b9 0d 7c cb 3c 7d 75 f5 ba
       0.026477646 -0.00037176767 0.024839425 -0.0018727031
0003c0 59 7a 18 3c 36 3a b6 3c 0b 49 a3 3b d9 b0 b0 bc
       0.009306514 0.022244554 0.0049830726 -0.021568703
0003d0 c0 57 a7 bc 89 42 14 bc 7f a7 40 3c 07 00 02 bd
       -0.020427585 -0.009049066 0.011758684 -0.031738307
0003e0 9d c4 09 bc f8 02 0b 3d e3 01 e5 bc 3d fe 43 bc
       -0.008408693 0.033938378 -0.027955001 -0.011962471
0003f0 c4 33 8c 3c 1c 65 29 bc 77 7c e9 3b 0f 78 68 bb
       0.017114528 -0.010339048 0.007125433 -0.003547195

bias f4 [32]
000000 3f 2e 04 3d c5 9b 2e 3d 7d 45 02 bc 84 4e 1b 3d
       0.032270666 0.042629022 -0.007951138 0.037916675
000010 de 65 0f ba ad d1 9e bc c3 67 08 3d be 6f dd 3c
       -0.00054701965 -0.01938709 0.03330208 0.027030822
000020 c2 9c ef bc 8d e7 72 3d f3 15 de 3c 89 f2 b7 ba
       -0.029249553 0.059302855 0.027110076 -0.0014034073
000030 87 0e 3e bc 24 84 fe bc c6 f4 0d 3d 48 ce 42 3c
       -0.011600143 -0.031068869 0.034657262 0.011890002
000040 d8 ab 39 bd b8 d8 11 3d 68 7a b8 3a c4 84 c5 3b
       -0.0453299 0.03560707 0.0014074566 0.00602779
000050 93 b4 0d bd 43 5e f8 3b 41 df fb bb 01 15 04 3a
       -0.034596037 0.0075795962 -0.007686526 0.000503853
000060 3a 9c 35 3b cc 32 96 bc 7e 64 ac 3c 7c 69 24 3c
       0.0027711526 -0.018334769 0.021044012 0.010034915
000070 c1 62 f5 bb 45 e6 e7 bc d8 92 5e bc d4 ce b0 3c
       -0.007488579 -0.028308043 -0.013584815 0.021582998

weight f4 [64, 32, 5, 5]
000000 e1 5e d5 bb ff af 4b bc 34 f6 25 3c e7 7c cf bb
       -0.0065115546 -0.012432097 0.0101295 -0.006332028
000010 fa bf 83 3c 74 d4 ce 3c 9a f7 37 3c 19 99 5d bc
       0.016082752 0.02524779 0.011228466 -0.013525271
000020 b9 d9 cb bc 7f 16 99 bc 34 b6 81 bc 3f 12 99 3b
       -0.024884092 -0.018687485 -0.015833952 0.0046713646
000030 92 c9 88 3b 79 12 ff bb ab fd d5 3b 69 df b4 3a
       0.0041744197 -0.0077841845 0.0065304837 0.0013799492
000040 e1 5b e1 3c 19 be b4 3c a7 42 9b 3c 0d ad d3 bc
       0.027509632 0.022063302 0.01895268 -0.025839353
000050 38 1d cc bc b1 c2 22 3b ab e4 86 3c d4 e1 a6 bc
       -0.024916276 0.0024835283 0.01646646 -0.020371355
000060 a8 05 59 bc 0d f0 09 3d 8d 32 74 bc 20 98 47 bc
       -0.013245977 0.033676196 -0.01490463 -0.0121822655
000070 77 fe e2 3c 8b 18 db 3c 01 5f 03 bd 2d 33 a5 3c
       0.027709229 0.026745101 -0.032073025 0.020166004
000080 ca 03 b7 bc a6 01 00 3c 5d f1 a8 3c e3 e5 9b bc
       -0.022340674 0.007812893 0.020622903 -0.019030517
000090 b6 e4 6f bc 2b 9f 07 3c 4a 9e 09 3d 86 cb 0c bc
       -0.014641931 0.008277695 0.03359822 -0.008593446
0000a0 09 63 b4 3a 50 32 9b 3b df 42 0a 3c 0d 91 88 3b
       0.0013762425 0.0047362223 0.008438795 0.004167682
0000b0 f1 42 8b bc e3 0a 8c 3c f1 04 06 3d 6c ed 5b bb
       -0.016999694 0.017095035 0.032719556 -0.0033558263
0000c0 af 59 7a 3c 62 f6 91 3c 2c 64 8e bc ae 06 43 bc
       0.015280171 0.01781768 -0.01738175 -0.011903448
0000d0 9d ca b4 3b f7 21 d3 3c 71 c4 c1 bb 5a 06 0c bd
       0.0055173174 0.025773032 -0.00591331 -0.034185745
0000e0 96 14 02 bd 01 a5 9f bc f1 ac 93 bc 26 be e7 bc
       -0.031757914 -0.01948786 -0.0180268 -0.028288912
0000f0 16 4c 23 3c ee fb 88 3c 75 6c 74 3c d6 c1 2b 3c
       0.009966871 0.016721692 0.014918436 0.010483226
000100 cf 73 6a 3c 7b c1 36 bc c7 1a 26 bc 96 48 fc 3c
       0.0143098375 -0.011154528 -0.01013822 0.03079633
000110 5c 4b e7 bb ad 74 e6 bc 34 87 42 3c a0 0e a4 bc
       -0.007058544 -0.028131807 0.011873055 -0.020026505
000120 76 80 b4 3c 18 6d e8 bc 41 95 dd 3c 34 dc c8 3c
       0.022033911 -0.028372332 0.027048709 0.024519064
000130 bb 45 ec 3a 45 cf 5c bc ea 3e b6 bc 77 c5 f3 bc
       0.0018026152 -0.013477151 -0.022246797 -0.029757245
000140 dd e9 2b 3c 8e 24 9e bb f9 3a a4 bc bf df c4 bb
       0.010492769 -0.004826135 -0.020047652 -0.006008118
000150 2e 41 cc 3c 79 19 a2 3c 20 37 16 3d 7e c3 11 3d
       0.024933424 0.019787537 0.036673665 0.035586827
000160 42 aa 03 bc 2a f4 e6 3b 83 25 05 bb 41 86 88 3a
       -0.008036198 0.0070481496 -0.0020316548 0.0010415987
000170 33 ae e2 3c 03 87 27 bb 55 bf 41 bb 48 56 6a 3c
       0.027670955 -0.002556265 -0.0029563506 0.014302798
000180 ae 07 d2 3c b3 dc 7e 3b 2a 90 08 bd a5 22 d8 bc
       0.025638428 0.0038888871 -0.03334061 -0.026383707
000190 a6 22 d0 3c 26 b7 24 3c 8d 1d ee bc f2 06 9f 3c
       0.025407147 0.010053432 -0.029066825 0.019412491
0001a0 e3 d3 6e bc 94 cd f5 3c 04 6b 1d bc 78 4f c6 3c
       -0.014576885 0.030005254 -0.009608034 0.024207816
0001b0 dd 55 0e bd 20 b3 de bc 68 4d ae 3c 82 9d 3e bc
       -0.034749854 -0.027185023 0.021277145 -0.0116342325
0001c0 4a e6 f2 ba 3b 5d 6b 3c 26 0c 2b bb a2 6d 8d 3c
       -0.0018531766 0.01436549 -0.002609977 0.017264191
0001d0 fc 76 8d 3b f8 0c 1e 3c 16 0a f0 bc 63 72 16 3d
       0.0043171626 0.009646647 -0.029301684 0.03673018
0001e0 8b 9a 9d bc 3a 8b fc ba 27 1d ad 3c be 25 fe bc
       -0.01923873 -0.0019267567 0.021132065 -0.031023856
0001f0 35 3a 6b 3c 4a ba 40 3c 5a 10 58 bc 22 0d 78 3c
       0.014357139 0.011763165 -0.013187492 0.01513985
000200 aa 35 47 3c 1d 59 e6 39 f8 c7 52 bc 90 39 15 bd
       0.012158791 0.00043935413 -0.012865059 -0.03643185
000210 56 91 39 3c 40 1f e1 bb b7 5b 02 3d b4 65 b1 bc
       0.011326155 -0.0068701804 0.031825747 -0.021654941
000220 d7 b3 7d bc 33 f5 0e 3c a2 da c9 3c 0a 38 e4 bb
       -0.015484772 0.008725452 0.024640385 -0.006964688
000230 88 77 ae bb 01 60 a8 bc 38 c9 22 3c 88 ad 00 3d
       -0.005324308 -0.02055359 0.00993567 0.031415492
000240 20 dd 92 bc b9 10 a1 bc 3d 3a fb bc bf 2e 54 3b
       -0.017927706 -0.019661294 -0.030667419 0.0032376496
000250 e8 6d d4 bc 4f 98 70 bc a3 36 f7 3c ba 7b be 3c
       -0.025931314 -0.014684751 0.03017742 0.023252357
000260 27 e0 0d bd 94 7d d3 3c dc 16 da bc 14 8f 92 3c
       -0.034637596 0.025816716 -0.026622228 0.01789049
000270 c9 9b 26 bb ec fc e3 3b 4d 4c 04 bc 19 03 08 bd
       -0.0025422445 0.006957641 -0.008074832 -0.03320608
000280 3d 70 e7 bc a0 ff a4 bc 72 c4 9c 3c 6b 6a 1c 3c
       -0.028251762 -0.020141423 0.019136641 0.009546856
000290 33 e4 9b bc 9b e1 e1 3c 2c 5f 1f bb a6 70 08 3d
       -0.019029712 0.027573397 -0.0024318201 0.033310555
0002a0 32 68 c4 3c 9b a4 c6 3c 66 b0 c2 bc 9e 9d 1a ba
       0.023975465 0.024248412 -0.023765754 -0.00058981206
0002b0 36 d4 66 bc f3 fe 10 3c b2 b8 04 3c 87 50 a5 3b
       -0.014088681 0.008849847 0.008100675 0.005045
0002c0 d7 1b ba bc 48 4a 81 3c 64 d6 a0 3c ac 69 df 3c
       -0.022718353 0.01578249 0.01963348 0.027272068
0002d0 d6 1c 5f ba ce 47 c9 bc bd 6d 05 3d 73 b0 bb bc
       -0.0008511072 -0.024570372 0.032575358 -0.022911286
0002e0 b5 65 17 bd 39 6f e4 bc e8 9b bd 3b 40 6f f4 bc
       -0.03696223 -0.027885066 0.0057864077 -0.029838204
0002f0 ba b9 33 bc d8 2e 50 bc fc 43 00 3d 3f 19 12 bd
       -0.010969574 -0.012706481 0.031314835 -0.035668608
000300 82 d1 2a 3c 68 a4 90 bc 25 e4 be bc f5 5c 27 bc
       0.010425927 -0.01765652 -0.023302147 -0.010215034
000310 08 d2 1e bb 41 a4 b3 3c a8 b0 c7 ba 63 8a bf bc
       -0.0024234075 0.021928908 -0.0015235143 -0.023381418
000320 9f 70 ef bc bb 51 47 3b 6e 5f 18 bd 3d 84 b7 bc
       -0.029228507 0.0030413705 -0.037200384 -0.022401923
000330 df 4e fa bc 36 0a 61 3c 94 8f 23 bb 77 28 e5 bc
       -0.030555187 0.013735345 -0.0024957405 -0.027973397
000340 88 be 33 3c fa 14 94 bc 89 f4 e1 3c 27 5b 4a 3c
       0.010970719 -0.018076409 0.027582424 0.012350834
000350 b4 3e 11 bd 04 8b a0 3b f8 8b f5 3c c0 8d dc 3c
       -0.03546019 0.0048993845 0.029973969 0.02692306
000360 61 a1 e4 3c 5d ee bd bc f4 ed 82 3c df 1c 79 3c
       0.027908983 -0.02318495 0.015982606 0.015204637
000370 e2 40 ce 3c 96 87 fd 3b 0c 5c 7a 3b 22 b6 e1 3a
       0.025177423 0.0077371104 0.0038201837 0.0017220418
000380 0b af 80 bc b7 43 19 3d 16 0a 31 b9 9e c4 a4 bb
       -0.015708467 0.037418094 -0.00016883793 -0.0050283214
000390 06 06 81 bc 80 0d a0 bc be fb 0e 3d 42 fd 1d 3d
       -0.015749943 -0.019537687 0.03490805 0.038571604
0003a0 76 fb fe 3c 77 bc 8c bc 92 db c5 bc 2c d5 85 bb
       0.031125765 -0.01717971 -0.02415255 -0.00408425
0003b0 6c 09 6d bc d2 3e 07 3c 5a a4 57 3c 33 a7 81 bc
       -0.014467578 0.008254724 0.013161743 -0.015826797
0003c0 4b a3 f7 3c 1e f5 04 3d ca 79 16 3c 36 a3 c6 3c
       0.030229231 0.032460324 0.00918431 0.024247747
0003d0 50 33 12 bd d1 39 13 bd 4d be 05 3d b8 47 e0 bb
       -0.035693467 -0.03594381 0.032652188 -0.006844487
0003e0 ea 7c b7 bc f1 68 a7 bc 99 c8 47 3c da 18 db bc
       -0.02239843 -0.020435782 0.012193822 -0.026745249
0003f0 4e 96 98 3b 4d ff ba bb c0 9d 04 3d ee 23 23 3c
       0.0046565896 -0.0057067038 0.032377005 0.009957297

bias f4 [64]
000000 74 45 a5 bc 7a df cb 3c 31 d2 99 3c e0 33 ad bc
       -0.02017472 0.024886835 0.018776985 -0.0211429
000010 99 b7 73 bc 3c 3f 87 3c 7f 8b 28 bd 19 fd f0 3c
       -0.014875316 0.016509645 -0.04114866 0.029417561
000020 7d 20 b2 bc 01 9e f7 bb 0e 5a bc 3c d1 54 49 3b
       -0.021744007 -0.0075566773 0.02299216 0.003072072
000030 69 2d ae 3a 5c 1a c6 bc e6 fb f4 bc b8 3b fe 3a
       0.001328868 -0.024182491 -0.02990527 0.001939646
000040 58 41 e7 bc 35 13 79 bb 02 07 c0 3c ab 60 c9 3c
       -0.0282294 -0.0038005833 0.023440842 0.024582228
000050 32 b9 58 bc 94 b0 84 3c ea e7 ac 3c db 92 75 bc
       -0.013227748 0.01619748 0.021106679 -0.014988626
000060 15 d0 32 3b 1c 9c c5 bb 8c 6c 37 bc 9b 01 16 bd
       0.002728467 -0.0060305726 -0.011195313 -0.036622625
000070 1b 4e f0 bc bb 91 13 bc 0c 9c 0f bd e3 d1 7c 3c
       -0.029334119 -0.009006913 -0.035060927 0.0154309
000080 ad 49 db bc 31 93 00 bd bd e8 22 3d 47 28 6b bc
       -0.02676853 -0.031390373 0.039772738 -0.014352865
000090 17 41 17 3c f0 96 43 3c 07 25 4d 3d 14 ca d7 bc
       0.009231827 0.011937842 0.05008414 -0.026341476
0000a0 b2 e6 a4 bc 72 ff 4e 3a 5c b4 af ba b5 5b 0a 3c
       -0.020129535 0.00078963407 -0.0013405192 0.008444716
0000b0 40 0d 86 bc dd 87 ba 38 0e 8f 8b 3c 7a c4 f5 bc
       -0.01636374 8.894478e-05 0.017035987 -0.030000914
0000c0 92 29 23 bd 0d ff 14 bd 8a 5c e1 bc c6 23 21 bb
       -0.039834566 -0.036376048 -0.027509946 -0.0024587973
0000d0 73 3f 0a 3d b7 8d af 3c 06 76 e5 3c a4 6e 5b 3b
       0.033751916 0.02142988 0.02801038 0.0033482695
0000e0 10 6d 01 ba 34 87 11 bd 89 95 04 bd 98 fb e7 3c
       -0.0004937211 -0.03552933 -0.03236917 0.028318211
0000f0 3e 9b 94 3b af c6 e2 bc b7 49 7e bc 9e d1 be 3c
       0.004535108 -0.02768263 -0.015520505 0.023293313

weight f4 [64, 1024]
000000 18 64 04 bd e2 1c b9 3c 8c 86 dc bb c4 14 06 3c
       -0.03232202 0.02259678 -0.0067299064 0.008183662
000010 a2 af 31 bc ea cd e0 ba a2 33 bd bb cb 1c eb 3b
       -0.010845097 -0.0017151211 -0.0057739774 0.0071750632
000020 5a c1 4c 3c d4 b2 c9 bc 8d 0f bb 3c 7a dc 48 bc
       0.0124972705 -0.024621405 0.022834564 -0.012259597
000030 f0 96 8e bc f2 39 de 3c c4 78 fb 3c 49 b2 0d 3b
       -0.017405957 0.02712724 0.030697234 0.0021621159
000040 d7 2d 2d 3b 3b 57 95 3c c9 c9 71 3c 67 44 ea 3c
       0.0026425028 0.018230071 0.014757582 0.02859707
000050 ef bd db bc ae 1e e4 3c 5e c6 f2 3a b2 6f 83 3c
       -0.026823966 0.02784666 0.0018522253 0.016044471
000060 03 29 f8 bc 71 65 bc bc f6 64 f0 3b 2a 30 06 3b
       -0.030292993 -0.02299759 0.007336254 0.0020475485
000070 77 26 c0 3c 79 a1 c4 3c 94 d6 5f bc 8c ec 89 bc
       0.023455841 0.024002777 -0.013661999 -0.016836427
000080 1a 72 72 ba 9d 78 04 bc c9 79 86 3c 50 08 44 bc
       -0.000924857 -0.008085397 0.016415494 -0.0119648725
000090 05 4d b8 3c a9 1b 02 bd db d6 f5 bc 99 5c db 3b
       0.022497663 -0.03176466 -0.030009678 0.006694388
0000a0 1b 92 38 bc 5a 7d 0f bd 1b d8 69 bc 68 10 5f bb
       -0.011265303 -0.035031654 -0.014272715 -0.0034036878
0000b0 bb a6 72 bc 8a 1d 1c bd a6 f0 08 bd 76 9a f2 bc
       -0.014810259 -0.03811411 -0.033432625 -0.029614668
0000c0 96 ad d3 bc a2 92 aa 3c 2f 4d eb 3b 73 f7 87 3c
       -0.025839608 0.020821873 0.007180832 0.016597485
0000d0 8b 0b 8a 3b 56 80 55 bc ee 16 cd 3c 09 16 c7 bc
       0.004212802 -0.013031086 0.025035348 -0.0243025
0000e0 94 41 a1 bc b8 a6 22 3b 42 15 68 bc ee 41 16 3c
       -0.01968459 0.002481861 -0.0141652245 0.009170992
0000f0 5c c1 d3 bc 7b ca 17 bd 16 77 fc bb 18 37 0d bd
       -0.025849037 -0.037058335 -0.007704626 -0.03447637
000100 75 4f 6d 3c 1f ec 37 3b 73 ec c4 bc b3 21 5e 3c
       0.014484276 0.0028064323 -0.024038529 0.013557839
000110 c3 75 d5 3c a5 d3 6f bc 29 57 91 bc ff e1 e4 bc
       0.02605713 -0.014637862 -0.017741757 -0.027939795
000120 22 02 ab ba 47 40 86 bc fe 4a 23 3c 19 0f 95 bc
       -0.00130469 -0.016388072 0.00996661 -0.018195676
000130 10 d2 b3 bc 92 79 0d bc 38 04 48 3c 53 1f 8c 3b
       -0.021950752 -0.008634942 0.012208037 0.004276195
000140 f5 03 11 bc d9 70 9f 3b 61 30 35 bb 36 2c c8 bc
       -0.008851041 0.0048657474 -0.0027647244 -0.024435144
000150 0c 7d 1a bc af 24 13 3c bb 20 d1 3c 4d 10 d9 3c
       -0.009429228 0.008980914 0.025528302 0.02649703
000160 8b ea 85 bc 2c 3a 73 3b e3 3a 71 3c bc f2 28 3c
       -0.01634719 0.003711353 0.014723512 0.010311779
000170 01 19 76 3c ba 6e 5c bb 0d ca 90 3c 10 0b b6 bc
       0.01502061 -0.0033635334 0.01767447 -0.022222072
000180 8d 5c f4 3c 57 2b 99 3c 4b cf e4 3c 00 1c a0 bb
       0.029829288 0.018697424 0.027930876 -0.0048861504
000190 df e8 71 3c 51 f0 d7 bc ed d2 7f bc b1 e3 9c bc
       0.014764993 -0.026359709 -0.0156142535 -0.01915154
0001a0 cb 80 a0 3c 0f 1b 79 bc a8 42 2c bc 4d 1b b6 bc
       0.019592663 -0.015204205 -0.010513939 -0.022229815
0001b0 15 ee e5 3c 4d f2 c2 bb e6 2b 4c 3c a5 df 79 3c
       0.028067628 -0.0059492947 0.012461638 0.015251075
0001c0 c1 71 18 3c 1e b3 6b 3c c8 4d b3 3c 25 48 c0 3c
       0.009304465 0.014385967 0.021887675 0.023471901
0001d0 4e 11 ac 3c e5 48 44 bb c3 aa 4b 3c a6 60 9a bc
       0.021004345 -0.0029950675 0.0124308495 -0.018844914
0001e0 ec 89 ff 3b 15 21 9a 3c b2 92 c6 3b f9 f1 b5 3c
       0.007798424 0.018814603 0.006059968 0.022210108
0001f0 a1 a6 6f bc 7f 2c 97 bc 4d 79 a9 bc 83 a7 b7 3c
       -0.01462713 -0.018453835 -0.020687724 0.022418743
000200 74 24 05 3b db 8e 01 bc 3f 5d eb ba 9a c2 c5 3c
       0.0020315917 -0.007907595 -0.0017956867 0.024140645
000210 49 ec 76 bb 10 3a 05 3c 95 a7 f9 bc 4e 74 d7 3c
       -0.0037677458 0.008131519 -0.030475417 0.026300576
000220 87 52 c7 3c 86 44 ac 3c 50 86 82 3c db f0 c8 bc
       0.024331344 0.021028768 0.015933186 -0.024528911
000230 96 ca 27 3b 28 80 5a 39 e3 3f f3 3c 74 03 a6 3c
       0.0025602928 0.00020837842 0.02969355 0.020265318
000240 a3 54 46 3c b4 ed 90 bc 45 1b 8a 3c 9e b6 9a bc
       0.01210514 -0.01769147 0.016858706 -0.018885907
000250 2e a5 b5 3c db e1 03 bd a7 13 00 3c 3c 8e ba 3c
       0.02217349 -0.032197814 0.0078171855 0.0227729
000260 be 09 df 3c 90 bf 78 3c b3 c0 49 bc 79 ce 09 bd
       0.027226325 0.015182391 -0.0123140095 -0.033644173
000270 09 d4 0e bc 28 c6 93 bc ba 3c 9b 3c 7f ee 66 bc
       -0.008717545 -0.018038824 0.018949855 -0.014094948
000280 7a d4 19 3c 55 55 98 bb b3 42 0d 3c e2 22 ab bc
       0.009389037 -0.0046488442 0.008621859 -0.020890657
000290 4e 75 b6 bc ec 0f 1e bc b0 83 a7 bb 5f 6d bd bc
       -0.022272732 -0.009647351 -0.005112134 -0.023123441
0002a0 02 5e a7 3c 72 4a a4 bc be 44 b9 3c a8 32 c1 bc
       0.020430569 -0.02005503 0.022615787 -0.023583725
0002b0 67 cc d9 bc 08 ef a9 bc 4f cd ef 3c b4 78 f1 3c
       -0.026586724 -0.020743862 0.029272703 0.029476501
0002c0 8e 23 e6 3c cb 0f 7d bb 1a 58 af 3c 56 f3 90 bc
       0.028093126 -0.003861415 0.021404315 -0.017694157
0002d0 94 98 36 bc 9d be 93 bc ff de 01 3c db da 6b bb
       -0.011144776 -0.018035227 0.007926702 -0.0035988602
0002e0 d7 a9 fe bb e2 da 7d bc c9 bb 17 3c 9a 4d 0c bd
       -0.0077717113 -0.01549408 0.00926108 -0.034253694
0002f0 b0 3e d7 3b db f8 63 bc db a8 83 bb c3 b4 06 bc
       0.006568752 -0.013914312 -0.004017932 -0.008221808
000300 a6 c6 30 bb 45 e7 6c 3b f0 37 64 bc a8 7a c1 bc
       -0.0026973872 0.003614859 -0.013929352 -0.023618057
000310 dc 3b a3 3b a4 0e 17 bd f2 e7 9b ba 46 49 30 bc
       0.004981501 -0.036879197 -0.0011894687 -0.010759657
000320 f5 4a e1 3c be 22 4e bc d3 f9 9e bc b1 08 00 bc
       0.027501563 -0.012581525 -0.019406235 -0.007814572
000330 98 99 b9 3c 0f ff 8d bb 94 7e 1e 3a 64 62 54 bc
       0.022656247 -0.004333384 0.0006046083 -0.012962911
000340 f8 62 1e bc 5e 65 44 3b 9a 3e c0 3a 63 0b 52 bc
       -0.009667151 0.0029967646 0.0014667094 -0.012820098
000350 b2 52 8c bb 74 2e 89 3b cb 9f bf bc dd f3 86 3c
       -0.004282319 0.004186446 -0.023391625 0.016473705
000360 f4 8f d1 bc c0 f4 d9 bb cd 94 5f bb 60 3b 0b bd
       -0.025581338 -0.006651491 -0.0034115792 -0.03399217
000370 f2 3e b4 3c 54 7a e8 3c 1b c2 40 bc 76 9d c0 3c
       0.02200267 0.028378643 -0.011765028 0.023512583
000380 18 f6 8d 3b ee 45 03 bd ea 6c 17 3c 20 48 43 3c
       0.004332315 -0.032049112 0.009242276 0.011919051
000390 52 85 d5 bc 22 9f 95 bc 3b a1 86 bc a5 25 bd bc
       -0.026064549 -0.018264357 -0.016434303 -0.02308924
0003a0 fe a5 8c 3c 98 f6 03 bd 9b 38 03 bd f3 2a b8 bc
       0.017168995 -0.032217592 -0.032036405 -0.022481417
0003b0 06 09 c5 3b 26 be b2 3c 96 ba b7 bc b3 0e a9 bc
       0.0060130386 0.021819185 -0.022427838 -0.020636892
0003c0 6d 0f aa 3c da 24 fe bc e7 c4 d9 3b 09 60 a2 bc
       0.020759309 -0.031023432 0.006645787 -0.019821184
0003d0 bb 07 a9 3c 5e b7 96 3c 3d 08 49 3c 9a bc a4 bc
       0.020633569 0.018397983 0.012270031 -0.020109463
0003e0 25 86 cf 3c fb 65 d4 3c f3 31 5e bc 0f b4 0a 3b
       0.02533252 0.025927534 -0.0135617135 0.0021164452
0003f0 cb 0b 2b bc 2e 1b 97 3c 9a e2 a6 3c 8a c6 8b bc
       -0.010439823 0.018445577 0.020371724 -0.017062444

bias f4 [64]
000000 25 31 45 3c 7a 9f 14 bd a8 89 c7 3c 7f 02 d2 3c
       0.012035643 -0.0362849 0.024357632 0.025635956
000010 a0 8b ba bb 4b 36 ba 3c 09 12 b5 bb 06 d0 d9 3c
       -0.005692914 0.022730967 -0.0055258316 0.026588451
000020 fe bc aa bc cc 3b 0c 3c b8 d1 62 bc 1a a3 91 bc
       -0.020842072 0.008559179 -0.013843946 -0.017777968
000030 f1 87 d8 3b 52 2a bb 3c a0 99 09 bd 5b 6f 25 3c
       0.0066080024 0.022847328 -0.033593774 0.01009735
000040 17 b8 1d bc b8 32 4b 3c 64 6a e7 bb 3d 6d 30 3c
       -0.00962641 0.012402229 -0.0070622433 0.010768232
000050 49 eb d3 bc ea 1c d2 bc 74 d7 87 3c ec 61 aa bc
       -0.025869029 -0.025648553 0.016582228 -0.020798646
000060 3d 13 ef 3b 34 05 a4 bc e7 05 d3 3c b3 9b a2 3c
       0.0072959946 -0.020022012 0.02575965 0.019849634
000070 1c 60 17 bc 22 21 0d bd 36 57 ed bc 24 7a ba bc
       -0.009239223 -0.034455426 -0.02897225 -0.02276332
000080 9a 71 1e bc f5 6c d9 bc 00 5e ce bb 26 19 c2 3b
       -0.009670639 -0.026541213 -0.0062978268 0.005923408
000090 39 a1 dd bc 1a 25 5a 3c 6b ff 64 3b 93 a1 f6 bc
       -0.027054416 0.01331451 0.003494228 -0.030106341
0000a0 82 62 29 3c b6 a5 bb 3c 3c a2 d8 3c 17 05 96 3c
       0.0103384275 0.022906166 0.026444547 0.018312974
0000b0 c5 27 a6 3b f4 42 9e bb da 47 b8 bc ce 01 8c bb
       0.005070659 -0.004829759 -0.022495199 -0.004272676
0000c0 f1 f8 a5 bc 42 27 a0 bb bd d8 a3 3b 66 01 ad bc
       -0.020260306 -0.0048874924 0.0050002025 -0.02111883
0000d0 1f 88 ef bb 80 81 b8 bc 61 87 e4 bc 4f f2 bf bb
       -0.007309928 -0.022522688 -0.027896585 -0.005857743
0000e0 6a 11 ea 3c d4 51 49 3c 10 b3 95 bc b1 ff 2d bd
       0.028572757 0.012287576 -0.01827386 -0.042480174
0000f0 3c 8d 25 3c 1d 76 57 bc 4f f2 e5 bc 2e 0f 8a 3c
       0.010104474 -0.013150719 -0.028069643 0.016852941

weight f4 [10, 64]
000000 0f 68 dd 3d d6 14 01 3e ab a1 24 3d 06 f0 a7 bd
       0.10810863 0.12605605 0.04019324 -0.08200078
000010 bc 66 4c bd a3 47 52 3c e1 d5 cd 3d b3 ea 84 3d
       -0.049902663 0.012834462 0.1005056 0.06490078
000020 65 dd 84 bd ec 7e be 3d 12 be 10 bd 57 99 87 3b
       -0.0648754 0.09301552 -0.035337515 0.0041381526
000030 24 c0 3c 3c 3a 75 db bd 8a d5 98 bc 2d e0 0b bc
       0.011520419 -0.107157186 -0.01865651 -0.008537334
000040 5b 09 29 bd 01 1c e1 3c 52 e1 81 bb 22 e2 00 bd
       -0.041268688 0.027479174 -0.003963628 -0.031465657
000050 67 58 d9 3d ee 3a 0d 3e a4 3f 0a be 7e 3b a6 bd
       0.106125645 0.13792011 -0.1350084 -0.08116816
000060 eb 60 8b bd cc cc 62 bd 47 82 aa 3d a2 46 b7 3d
       -0.06805595 -0.05537109 0.0832563 0.08949019
000070 77 54 0d 3c 85 01 5c 3d f7 81 fa 3d f8 e6 82 3d
       0.008626095 0.053712387 0.1223182 0.0639171
000080 21 72 d9 3c 68 52 44 bd 71 fc 12 3c fc 92 3c 3b
       0.026543679 -0.04793015 0.0089713195 0.0028774133
000090 a9 4d 4a 3c c5 1d b6 bd 79 a8 da bc bb b8 8c 3d
       0.012347617 -0.08892397 -0.026691662 0.06871172
0000a0 02 00 13 ba de ce f9 bd 36 a7 5a bd aa ae 70 3c
       -0.0005607606 -0.1219766 -0.05338212 0.014690081
0000b0 a4 80 d0 bd 88 64 8a bc 15 09 0d be 67 08 55 bd
       -0.10180786 -0.01689364 -0.13772996 -0.052009966
0000c0 d3 e0 06 3e 90 7d b2 3d 10 de b9 bd db 5d ea 3d
       0.13171701 0.087153554 -0.09075558 0.11443683
0000d0 0c fd 0c bd 3f 93 93 bd 7c f8 85 3d ef 2e cf 3c
       -0.03442101 -0.07205819 0.06541535 0.025290934
0000e0 e5 e3 6e 3d 38 19 4d 3c 7e 63 93 3d 39 0e 8a 3d
       0.058322806 0.01251822 0.07196711 0.06740994
0000f0 b5 1e 15 3e 5f ee 8e 3d 51 8d 5f 3d 66 a6 31 bd
       0.14562495 0.069790594 0.05457813 -0.04337158
000100 00 64 83 bd a7 1c da bd 48 01 0b 3e 6f ea 37 3c
       -0.06415558 -0.10649996 0.13574708 0.011225327
000110 84 fc c1 3c 6f bd c0 bc df 45 b8 3d ba ba 8d 3c
       0.02367998 -0.023527829 0.08997702 0.017300952
000120 e7 7d 81 bd 2b 16 e1 3d 16 d4 c1 3d 75 03 f2 bd
       -0.06322842 0.10990556 0.0946428 -0.118170656
000130 1f e1 59 bd 3d 7a 8c 3d 91 22 05 bb 93 c2 ff bc
       -0.053193208 0.068592526 -0.0020314793 -0.03122071
000140 ba e3 14 bc 99 1f 9e 3c 58 6d a6 bd 23 af 81 3d
       -0.009087497 0.019302176 -0.081263244 0.06332233
000150 a8 47 1c bd 7a 31 b2 bd b2 ed ba bd 93 1d e5 3d
       -0.038154274 -0.08700843 -0.09127368 0.111872815
000160 a5 2d e1 bc ec 93 6f bc 1a ab ec 3d 0a 2a df bd
       -0.027487585 -0.01462267 0.115560725 -0.1089669
000170 d7 86 be 3b 38 38 f3 3d 0e 0e 4b bd 94 51 13 3e
       0.005814414 0.11875957 -0.04957395 0.14386588
000180 e6 f0 b7 bd 92 dc d3 bc a2 5d 95 3d 92 09 84 bc
       -0.089814946 -0.025862012 0.0729325 -0.016117845
000190 4b 90 8a bc 5b 69 db bd 7d 21 c7 bd 88 68 79 bd
       -0.016914507 -0.10713454 -0.09723184 -0.060890704
0001a0 52 bf 37 3d 36 30 1d bc 5e 9c af 3d cd 60 bb 3d
       0.04486019 -0.009594014 0.085747465 0.09149323
0001b0 e9 a3 a8 bd 3a 95 8c bc 5a f7 69 bc 5f 1a c9 3d
       -0.082343884 -0.017161 -0.014280165 0.09819483
0001c0 48 d0 fb 3d 8b 41 15 3d 82 09 11 3e 15 a8 82 3d
       0.12295586 0.03643946 0.14163783 0.06379715
0001d0 34 10 13 3e 6f 71 73 3d 21 b4 fb 3c 72 4f ae 3d
       0.1436165 0.05943435 0.03072554 0.08511247
0001e0 12 8d ae bd 0d 21 92 bd 06 25 4d bd 86 d2 16 bd
       -0.08523001 -0.0713521 -0.050084136 -0.036821865
0001f0 cf 62 f1 bd 46 5c 92 bc fe 5b ab bd 2c 2d 5c 3d
       -0.11786424 -0.017866265 -0.083671555 0.053754017
000200 92 58 c6 3d 54 60 83 bd 98 85 5d bc be ff 1a bc
       0.09684862 -0.064148575 -0.013520621 -0.009460388
000210 fa 84 7c 3d 5b 27 30 3b b9 3c ee bb df 3c a2 3d
       0.061650254 0.0026878926 -0.0072704223 0.079217665
000220 d2 75 92 bd 20 01 bc 3d fd 6c 88 bd bf b1 12 3d
       -0.07151379 0.09179902 -0.06661413 0.035814043
000230 f3 26 ca bc a7 bf 30 ba 2b fc 8f bd 05 73 fb 3d
       -0.024676776 -0.00067424256 -0.07030519 0.122777976
000240 3f 0b c2 bd 96 09 cf bd 09 16 d7 3b 4c a7 b7 bd
       -0.09474801 -0.1010925 0.006563906 -0.08967456
000250 2b 5b 82 bd a2 60 bd bc 07 db 03 3e 0d 93 4b 3c
       -0.06365045 -0.023117367 0.12876521 0.012425196
000260 c3 7c bf bd ab c6 24 bd ca 90 8c bb 8e cf 75 3d
       -0.09349968 -0.040228527 -0.004289721 0.060012393
000270 e9 88 b3 bd 5a df 0a 3d 32 aa ac bc e6 8d 96 bd
       -0.08766348 0.03390441 -0.02107725 -0.07351284
000280 ae a5 8f bd 19 e7 e4 3c 01 99 f1 3d b7 14 4e 3d
       -0.07014023 0.027942227 0.11796761 0.050312724
000290 75 30 6f bd 21 6f f7 3c 05 49 e3 bd 76 fb 26 3d
       -0.05839582 0.030204358 -0.11097912 0.040767156
0002a0 90 96 17 bd ba 3c 50 bd f2 4d 97 3d f7 22 fa 3c
       -0.037008822 -0.050839163 0.07387914 0.03053425
0002b0 d8 fe 18 3d 71 49 28 bd 92 b5 a7 3d 0f ed dd 3d
       0.037352413 -0.041085664 0.08188929 0.10836231
0002c0 37 b1 f7 3d 1c 2b 84 bd 7c e4 cd 3d 6c 05 bd bd
       0.12094348 -0.06453535 0.100533456 -0.0922955
0002d0 64 b1 86 bd 62 94 ce 3b 93 37 d5 3c e6 f2 31 bc
       -0.06576803 0.0063043097 0.026027476 -0.010861134
0002e0 26 a0 0f 3e 98 9b 11 3d b8 54 b4 bc bf e7 3f 3d
       0.14025936 0.035548776 -0.022013053 0.04685187
0002f0 46 b6 da bc aa 7c 98 3d 2e 88 42 bb 85 69 b6 bd
       -0.026698243 0.07445653 -0.002968322 -0.08906845
000300 fd e0 77 bd 9a f3 89 3d f4 5c ee bd 10 da eb 3d
       -0.0605173 0.067359164 -0.11638823 0.115162015
000310 6f 46 67 3d d5 e9 eb 3c 28 f8 c8 bd 4e a9 5c bd
       0.056463655 0.028798023 -0.09812957 -0.0538724
000320 17 fb 4d 3c 3e 90 ad bd 88 02 a3 bd 67 1c cc 3d
       0.0125720715 -0.08474778 -0.07959467 0.09966355
000330 7d cf ac bd f5 35 d5 3c 6f 8a 6f bd 72 60 e2 bd
       -0.08438013 0.026026705 -0.05848163 -0.11053552
000340 7d ac ae bd 95 c7 b5 3c 9c 44 c3 3c 4d 69 2c bc
       -0.08528993 0.022189895 0.023836426 -0.010523153
000350 b3 50 7a bc d2 07 04 be cf e3 6f 3d 72 df e5 3b
       -0.015278029 -0.12893608 0.058566865 0.007015162
000360 4c fb eb 3d 4d c4 8e bd c1 ad 8a 3d a5 6d cd bc
       0.115225405 -0.06971035 0.06771422 -0.025076697
000370 7b 7e 2c 3b ae 80 97 bc b1 af b0 bc 6b 53 0c bd
       0.0026320505 -0.018493976 -0.021568151 -0.03425924
000380 ed 67 e9 bd 2b 8b 93 3c ef c2 dd 3d 72 9f 44 3d
       -0.113967754 0.018010696 0.10828196 0.04800362
000390 36 9c 44 bd d0 89 9f 3d f1 93 e0 bd e5 39 84 3c
       -0.048000537 0.077899575 -0.109657176 0.016140888
0003a0 53 16 bd bd 9a 06 d3 bb 83 e7 06 be e0 2b f0 bd
       -0.09232774 -0.006439996 -0.13174252 -0.117271185
0003b0 74 19 d1 bd 2e f9 d8 3d 97 e8 b7 3d a8 38 67 bd
       -0.10209933 0.10594402 0.0897991 -0.056450516
0003c0 2e 03 62 b9 f8 5f 4e bd c8 a6 ab bd b4 e2 ed bd
       -0.00021554224 -0.05038449 -0.083814204 -0.11615506
0003d0 07 db 9c 3d 49 cd 02 3d 22 5b 1f bc 5a 62 af bd
       0.07658964 0.031934056 -0.009726318 -0.08563681
0003e0 0b d1 50 bd 37 fa 04 be 5c 0e 9e bc 9b 19 6e bd
       -0.05098061 -0.12986074 -0.019293956 -0.058129888
0003f0 31 a3 94 bd b4 2d be 3c 79 eb 3c 3d 0c b6 85 3d
       -0.07257689 0.023215152 0.046123 0.06528863

bias f4 [10]
000000 3d fb 02 bd 1d 79 8f bc 63 9b ce 3d 7f 57 91 3d
       -0.03197788 -0.017513806 0.100882314 0.07096767
000010 64 13 22 bd e5 d4 18 bc 7c 98 a6 3d 2c de 85 bd
       -0.039569274 -0.009328102 0.08134553 -0.065365165
000020 e8 20 e1 bd 78 5d 4b bd
       -0.109926045 -0.049649686
