tudui_5.pth (torch, 587399 bytes, 10 tensors)

weight f4 [32, 3, 5, 5]
0	0x3c9e2711	0.019305738
1	0x3c3d7cc6	0.011565393
2	0xbd5b382c	-0.053520367
3	0xbde8b036	-0.113617346
4	0xbb3defae	-0.0028981972
5	0x3ddc85d7	0.107677154
6	0x3ae98b6b	0.0017818039
7	0x3d6b5e2b	0.057462852
8	0x3e073e47	0.1320735
9	0xbca1c1df	-0.019745765
10	0xbbba7522	-0.005690233
11	0xbcafe6cc	-0.021472357
12	0xbc86c6bc	-0.016452186
13	0x3d801e3a	0.06255765
14	0xbd8361da	-0.06415148
15	0xbda92115	-0.08258263
16	0x3d8ee6fd	0.06977651
17	0xbd65221c	-0.055940732
18	0xbdcbc59b	-0.099497996
19	0xbde6352c	-0.112406105
20	0xbe06e825	-0.13174494
21	0xbcc5079b	-0.024051478
22	0xbe3d32d9	-0.18476428
23	0xbe3697d6	-0.17831358
24	0xbd01b77c	-0.031669125
25	0x3c05de64	0.008170698
26	0x3d8c26dc	0.06843349
27	0x3b919df1	0.004443877
28	0xbdd0bb2a	-0.10191949
29	0x3cec657c	0.028856985
30	0x3cba8e10	0.022772819
31	0xbd80edcb	-0.062953554
32	0x3dfd76b4	0.123761564
33	0x3e09fae2	0.1347461
34	0x3debedb8	0.11519951
35	0xbd9d52ba	-0.076817945
36	0x3dba38cb	0.09092864
37	0x3db6f440	0.08933306
38	0x3df3b0b7	0.1189894
39	0xba1218c3	-0.0005573148
40	0xbd9f444d	-0.07776699
41	0x3db259be	0.08708523
42	0x3d2edaa7	0.042688992
43	0xbd53a8fc	-0.051674828
44	0x3b209261	0.002450131
45	0x3caad28c	0.02085235
46	0xbdd569e0	-0.10420585
47	0xbc0e0e41	-0.008670391
48	0xbda46a33	-0.080280684
49	0xbd663647	-0.056204107
50	0xbc6e5c14	-0.01454832
51	0xbd88beca	-0.06677015
52	0xbdab044f	-0.08350431
53	0xbc3f2a95	-0.011667867
54	0x3dd832df	0.10556578
55	0x3e10e9e8	0.14151728
56	0x3e09f09b	0.1347069
57	0x3dcf7a24	0.10130718
58	0x3db8b8ce	0.09019624
59	0x3d558c16	0.05213555
60	0x3cf73fef	0.030181853
61	0x3d1c98fb	0.03823183
62	0xbc9ac80d	-0.01889422
63	0x3b237976	0.0024944223
64	0xbcef94a2	-0.029245678
65	0x3d870db8	0.065944135
66	0x3ddd1a50	0.10796034
67	0x3d71c277	0.059023347
68	0x3d48b8ec	0.04900448
69	0x3dd7d23d	0.10538147
70	0xbe0a2499	-0.13490523
71	0xbe18dcd8	-0.14927995
72	0xbd6c6006	-0.057708763
73	0xbcc3493b	-0.02383863
74	0x3d0e283f	0.03470635
75	0xbe11d50a	-0.14241424
76	0xbde541f1	-0.11194218
77	0xbe15d003	-0.14630131
78	0xbe192fff	-0.14959715
79	0xbe01bcc3	-0.12669663
80	0xbe05e176	-0.13074288
81	0xbce43f7c	-0.027862303
82	0xbd333968	-0.04375592
83	0xbd739e14	-0.059476927
84	0xbd64cc8f	-0.055859145
85	0x3d16d6bb	0.036825877
86	0x3da4ec85	0.08052925
87	0xbc2dbb17	-0.010603688
88	0xbdc49277	-0.095982485
89	0xbda3b7b9	-0.07994027
90	0xbddca923	-0.10774448
91	0x3c05853a	0.0081494395
92	0x3c3b0bed	0.011416418
93	0xbc8f0fda	-0.017463613
94	0x3d15fe3f	0.03661942
95	0xba02b52c	-0.0004986103
96	0xbc30d80a	-0.010793695
97	0xbce3fe47	-0.02783121
98	0x3de74121	0.11291719
99	0x3dc30f71	0.095244296
100	0xbdc4e81d	-0.096145846
101	0xbc7aba9a	-0.015303278
102	0xbe00a426	-0.12562618
103	0xbe2ca89a	-0.16861191
104	0xbe0e3a6e	-0.13889477
105	0xbdc6212c	-0.09674296
106	0xbe18a17e	-0.14905354
107	0xbe27af83	-0.16375546
108	0xbd26d900	-0.04073429
109	0x3d512573	0.051061105
110	0x3cf5d709	0.030009763
111	0x3d1ee4ab	0.038792294
112	0x3cf33376	0.029687624
113	0x3d71002b	0.05883805
114	0xbd00e3d7	-0.031467285
115	0x3d91ebe7	0.07125073
116	0xbd338d02	-0.043835647
117	0xbc11c933	-0.008898067
118	0x3d7561e0	0.059907794
119	0x3e059f99	0.13049163
120	0x3e0b63f5	0.1361235
121	0x3d46d06c	0.04853861
122	0x3de7dfaf	0.11321961
123	0xbcfa911d	-0.030586774
124	0xbc96ef1b	-0.018424561
125	0xbd8b976e	-0.06815992
126	0x3d28214c	0.04104738
127	0xbcce17b7	-0.025157792
128	0x3b0a4a80	0.0021101534
129	0xbdce1209	-0.10062034
130	0x3dcff3dc	0.10153934
131	0xbdde056b	-0.10840877
132	0x3c00bb44	0.007857148
133	0x3d802a1c	0.06258032
134	0xbd3c3f16	-0.0459586
135	0x3dcedc51	0.10100616
136	0x3e2c99a3	0.16855483
137	0xbc5ae323	-0.013359818
138	0x3e09d26c	0.13459176
139	0xbd19f5be	-0.037587874
140	0x3da084c7	0.07837825
141	0xbb81304b	-0.0039425245
142	0x3e39fe53	0.18163423
143	0x3d473cf9	0.048642132
144	0x3e2dd92f	0.1697738
145	0x3d097068	0.033554465
146	0x3e326e0e	0.17424795
147	0x3e40b30a	0.18818298
148	0x3d3e1175	0.046403367
149	0x3dcb4539	0.099253125
150	0x3bccde32	0.0062520737
151	0xbcebf614	-0.028803863
152	0xbe1bcf9d	-0.15215917
153	0x3ba4aacd	0.005025244
154	0xbd6d124d	-0.05787878
155	0x3c263318	0.010144018
156	0xbd670322	-0.056399472
157	0xbcd34473	-0.025789475
158	0x3cb67bb8	0.02227579
159	0x3da346a9	0.07972462
160	0xbe1276f9	-0.14303197
161	0xbd6d4b6e	-0.057933263
162	0x3d87da3e	0.06633423
163	0xbcd5b65f	-0.026087938
164	0x3de5cd48	0.11220795
165	0xbd8c4004	-0.068481475
166	0xbdc34ded	-0.095363475
167	0x3d2b0975	0.041757066
168	0xbd0795b5	-0.033101756
169	0xbd4bc722	-0.049750455
170	0xbc3e5bc3	-0.011618557
171	0xbdc1a183	-0.09454634
172	0xbdbc5ddf	-0.09197592
173	0x3dbf8a0b	0.093525015
174	0xbd464692	-0.048407145
175	0xbdc6b018	-0.09701556
176	0xbddc2df5	-0.10750953
177	0x3cc13e08	0.02358915
178	0xbd625b91	-0.055263106
179	0xbd3e82ff	-0.046511646
180	0xbd9a94ce	-0.075479135
181	0x3ddd5b00	0.108083725
182	0x3a2289b0	0.00062003266
183	0x3d983561	0.07432056
184	0x3e10214e	0.14075205
185	0x3c2bbf01	0.010482551
186	0x3cccc470	0.024996012
187	0xbd6fb359	-0.05852065
188	0x3d899691	0.067181714
189	0x3db0d0e6	0.08633594
190	0x3d037e8f	0.032103118
191	0xbd5ab620	-0.053396344
192	0x3dc985ef	0.09839999
193	0xbddbb3a6	-0.107276246
194	0xbd8b05aa	-0.0678819
195	0x3dae37f8	0.08506769
196	0x3dc4fad2	0.09618153
197	0x3de062d2	0.109563485
198	0x3db083b1	0.08618868
199	0x3dc73ce5	0.097284116
200	0xbba9f157	-0.0051862407
201	0xbdc469c4	-0.09590486
202	0xbdca7f27	-0.09887534
203	0xbd1c526f	-0.038164552
204	0x3d4bd344	0.049762025
205	0x3d643750	0.055716813
206	0xbd84d9a9	-0.06486828
207	0x3d96f3a0	0.073706865
208	0xbcab8c60	-0.02094096
209	0xbd9285d2	-0.071544304
210	0xbdbd737a	-0.09250541
211	0xbd8cb89f	-0.06871151
212	0x3da1c1f8	0.07898325
213	0x3dfa76a7	0.122296624
214	0x3e1c262c	0.15248936
215	0xbdb7a3a5	-0.089667596
216	0x3dc9e586	0.09858231
217	0x3dec0684	0.1152468
218	0xbda8e8e1	-0.08247543
219	0xbdb98acd	-0.09059677
220	0xbc9b7cb2	-0.018980358
221	0x3d3fa50c	0.04678826
222	0x3d275131	0.040848915
223	0x3dcd4663	0.10023191
224	0x3d285c7e	0.041103832
225	0xbdf12a71	-0.11775673
226	0x3c949630	0.018138021
227	0xbd6ed89f	-0.058312055
228	0xbd6323f8	-0.055454224
229	0x3dab4f86	0.08364777
230	0xbdb2d03d	-0.087311246
231	0xbb2b107a	-0.002610235
232	0xbe0d18c5	-0.1377898
233	0x3bf852d3	0.007578233
234	0xbe05a349	-0.1305057
235	0x3da7fc7e	0.08202456
236	0xbd327f20	-0.043578267
237	0xbdbfd9a2	-0.09367682
238	0xbe09c756	-0.13454947
239	0xbdd7a9d5	-0.1053044
240	0xbdea6666	-0.11445312
241	0xbdff3d5e	-0.12462877
242	0xbe1898ab	-0.14901988
243	0x3d95d3f7	0.0731582
244	0x3d832172	0.064028636
245	0xbdcf5ed2	-0.101255074
246	0x3d435536	0.047688685
247	0x3dc127c6	0.09431414
248	0xbd0edb44	-0.034877077
249	0xbdd68e73	-0.10476389
250	0xbd1b67f9	-0.037940953
251	0xbd8e056a	-0.069346264
252	0xbdbd11b0	-0.09231889
253	0x3d93382e	0.0718845
254	0xbd9e77b3	-0.077376746
255	0xbd640f8a	-0.05567888

bias f4 [32]
0	0x3d3e82de	0.046511523
1	0xbd3b5fb3	-0.045745563
2	0xbdc9cdf8	-0.098537385
3	0x3d7e7a96	0.062128626
4	0x3e0bc661	0.13649894
5	0xbcccbe8c	-0.024993204
6	0xbc695317	-0.014241002
7	0x3d939aa0	0.07207227
8	0xbdf8cef7	-0.121488504
9	0x3e35f810	0.1777041
10	0x3dcca1a8	0.09991771
11	0xbdf6dd78	-0.120539606
12	0x3de07808	0.10960394
13	0xbd912bf7	-0.07088464
14	0x3e60f756	0.21969351
15	0x3e0f30cc	0.13983458
16	0xbe3373fc	-0.17524713
17	0x39b303ac	0.00034144276
18	0x3e2f1012	0.17095974
19	0x3b91c3de	0.004448398
20	0x3c86c854	0.016452946
21	0xbe83a70a	-0.25713378
22	0xbde4f703	-0.11179926
23	0xbd0736ec	-0.033011362
24	0xbe65d9b0	-0.22446322
25	0x3e03926e	0.12848827
26	0x3d9e0524	0.07715824
27	0xbe765d7f	-0.24059103
28	0xbe35a150	-0.17737317
29	0xbdd45dde	-0.10369466
30	0xbe4e7c5f	-0.20164631
31	0x3e08140b	0.13288896

weight f4 [32, 32, 5, 5]
0	0x3ca95076	0.02066825
1	0x3cd5aa5e	0.026082214
2	0xbbab74a5	-0.005232411
3	0x3cb9d6ab	0.02268537
4	0xbd0bd9c7	-0.034143236
5	0xbcadf493	-0.021234786
6	0x3d190adf	0.037363883
7	0xbc863b65	-0.016385743
8	0x3cc5a7ad	0.024127806
9	0x3d06e527	0.03293338
10	0x3c370ac7	0.011172003
11	0x3cc09ab0	0.02351126
12	0xbd00694d	-0.031350423
13	0xbd12590f	-0.035729464
14	0xbd03aeed	-0.032149244
15	0xbd1a64e5	-0.037693877
16	0x3cfd9a23	0.030957287
17	0x3c62c861	0.013841719
18	0x3cb1e961	0.021717729
19	0xbc150d80	-0.009097457
20	0x3b6836fd	0.0035433166
21	0x3cdab4c9	0.026697533
22	0xbc7f6ede	-0.015590398
23	0x3d146842	0.03623224
24	0x3cf5cfa9	0.030006247
25	0x3c7b0fa0	0.0153235495
26	0xbc0f2976	-0.008737912
27	0xbc865df2	-0.016402218
28	0x3d18e5fc	0.037328705
29	0xbc9e5dba	-0.019331802
30	0xbc5b3012	-0.01337816
31	0xbacd7e5c	-0.0015677917
32	0x3d2b14a9	0.04176775
33	0x3c800140	0.015625596
34	0x3d1d5a93	0.038416456
35	0xbc3b6e3a	-0.011439854
36	0xbcae3982	-0.021267656
37	0xbaef08c9	-0.0018236871
38	0x3cf5c9da	0.030003477
39	0xbc3ede2e	-0.011649651
40	0xbcabd710	-0.020976573
41	0x3cc7c63d	0.02438652
42	0x3cffce97	0.03122644
43	0x3d143865	0.036186595
44	0xba4059ff	-0.0007337629
45	0x3c02e988	0.0079902485
46	0x3c149d23	0.009070667
47	0x3c7c2e95	0.015391965
48	0xbd291cc9	-0.041287217
49	0xbcf8f872	-0.030391905
50	0xbc20ef1d	-0.009822634
51	0x3cacacb0	0.021078438
52	0x3c62e6df	0.013848989
53	0xbba56721	-0.0050476943
54	0xbc92dd66	-0.017927837
55	0x3d1af349	0.03782967
56	0x3d02c83e	0.031929247
57	0x3c30cff7	0.01079177
58	0xbc8f99f9	-0.017529475
59	0xbc5f2307	-0.013619191
60	0x3cfe03d8	0.031007692
61	0xbc9ac10b	-0.018890878
62	0xbca4c6f8	-0.020114407
63	0x3cd737e9	0.026271777
64	0x3b820047	0.003967318
65	0xbce89574	-0.028391577
66	0xbcef9a15	-0.029248277
67	0xbc692355	-0.014229615
68	0x3c73cf7f	0.014881014
69	0x3bab304a	0.0052242624
70	0x3c948bcf	0.018133072
71	0x3ccdda93	0.025128638
72	0x3cc147f0	0.023593873
73	0x3c211ef6	0.009834042
74	0xbd01bb4b	-0.031672757
75	0xbc856c10	-0.01628688
76	0xbc5c1255	-0.013432105
77	0x3ac528ce	0.0015042068
78	0xbcd9a1b7	-0.02656637
79	0x3c754259	0.014969432
80	0xbb92c26c	-0.0044787433
81	0xbb9a7f97	-0.004714917
82	0x3c22c26a	0.009934047
83	0x3c89545b	0.016763857
84	0xbc74a5a4	-0.01493207
85	0x3cc374bc	0.023859374
86	0x3c23d116	0.00999858
87	0x3d0e799c	0.034783944
88	0x3d244ac9	0.040110383
89	0xbcc63ded	-0.02419945
90	0xbca149b6	-0.019688468
91	0x3c201127	0.009769714
92	0x3cd64b90	0.026159078
93	0x3b834d02	0.004006983
94	0x3b7f27b1	0.003893357
95	0xbcdfa895	-0.027302066
96	0x3cb8c8a5	0.022556612
97	0xbd0d73de	-0.034534328
98	0xbcd29ca6	-0.025709461
99	0x3c902ab4	0.017598487
100	0x3c59944d	0.013279987
101	0x3c8f6e83	0.01750875
102	0xbc6a6532	-0.014306353
103	0xbcbae4c1	-0.022814156
104	0x3cb82124	0.02247674
105	0xbccfb6ae	-0.025355663
106	0x3c0444dc	0.008073058
107	0xbcecc463	-0.028902238
108	0x3c9b974d	0.018993044
109	0xbcbb68a8	-0.022877052
110	0x3c606048	0.01369483
111	0xbb27723d	-0.002555027
112	0x3c568f7b	0.013095732
113	0xbd129faf	-0.035796817
114	0xbb9d3213	-0.004797229
115	0x3cdf572a	0.027263243
116	0x3cc04106	0.023468506
117	0x3cfb8b16	0.03070597
118	0xbc0663ef	-0.008202537
119	0x3b1799b4	0.0023132386
120	0x3c6ae12e	0.014335914
121	0x3b323178	0.002719013
122	0x3b98e3ab	0.004665812
123	0x3ad9f9ed	0.001663027
124	0x3c28655e	0.010278074
125	0xbce185eb	-0.027529677
126	0x3ba95146	0.0051671593
127	0x3b8c83fe	0.0042881956
128	0xbca24423	-0.01980788
129	0x3cf1af05	0.029502401
130	0xbbb0a5bf	-0.005390852
131	0x3c3765ba	0.011193687
132	0x3c1ef5ea	0.009702185
133	0xbb83883d	-0.0040140436
134	0x3c8bf256	0.017083328
135	0xbcfef3fe	-0.031122204
136	0x3b2c747e	0.0026314552
137	0x3cd383cd	0.025819683
138	0x3c1e1f59	0.009651029
139	0x3cc25906	0.02372409
140	0xbb414eb9	-0.0029496385
141	0xbc73f100	-0.014889002
142	0x3d0464dc	0.03232275
143	0xbb79f828	-0.0038142297
144	0x3c95dd45	0.018293986
145	0xbccf7bfb	-0.025327673
146	0xbbfc2d57	-0.0076958346
147	0x3bf4e360	0.0074733943
148	0x3cfc7334	0.030816652
149	0x3d2756b5	0.040854175
150	0xbbc8af54	-0.0061244164
151	0xbca5848f	-0.02020481
152	0x3bdc3887	0.006720606
153	0x3c6ed788	0.014577754
154	0xbc575b4f	-0.013144328
155	0x3c87f668	0.016596988
156	0x3c111995	0.008856197
157	0x3c881fa0	0.016616642
158	0xbbd76c49	-0.006574188
159	0xbc9774f4	-0.018488385
160	0x3ce832ae	0.028344478
161	0x3d0672d1	0.03282434
162	0x3c3d58f6	0.0115568545
163	0x3cf9b4cf	0.030481724
164	0x3cc7f55a	0.024408985
165	0xbc9232e0	-0.017846525
166	0x3c086435	0.0083246725
167	0xbcdeba00	-0.027188301
168	0x3ae642e8	0.0017567547
169	0xbc90499e	-0.017613228
170	0x3c2667ac	0.010156553
171	0x398305ee	0.00024990685
172	0xbc007628	-0.007840671
173	0x3c737247	0.014858789
174	0xbcbe9435	-0.02326403
175	0x3cfb375e	0.03066605
176	0x3c20b656	0.009809097
177	0x3c2ed502	0.010670902
178	0x3c3fc715	0.01170518
179	0xbd1a12c0	-0.037615538
180	0xbc6844bd	-0.014176545
181	0x3c270667	0.0101943975
182	0x3cf83f17	0.030303521
183	0x3c8762db	0.01652663
184	0xbd299ad1	-0.04140741
185	0x3c9a345a	0.018823791
186	0x3ceaf0d8	0.028679296
187	0xbb803589	-0.003912632
188	0x3d114026	0.035461567
189	0xbc91f007	-0.01781465
190	0x3cdb8b06	0.02679969
191	0xbb2c8598	-0.0026324745
192	0x3c957c4e	0.01824775
193	0x3d2362c2	0.039889105
194	0xbcef8ce6	-0.02924199
195	0xbb9bd9eb	-0.0047562025
196	0x3c961cca	0.018324275
197	0x3ce246d6	0.027621668
198	0xbc76c3e7	-0.015061355
199	0xbcbe0d85	-0.023199806
200	0x3cc11f84	0.023574598
201	0xbcd78940	-0.026310563
202	0xbcfb56ee	-0.0306811
203	0xbcba9163	-0.022774404
204	0xbc1da7f4	-0.009622563
205	0xbcba9053	-0.022773897
206	0x3ce9d7e5	0.02854533
207	0xbcea2bf1	-0.028585406
208	0xbbcc7fb0	-0.0062408075
209	0x3cbcbfcd	0.023040676
210	0xbc1183b4	-0.008881498
211	0x3c52d9c7	0.012869305
212	0x3c6927c2	0.01423067
213	0x3c598a5c	0.013277616
214	0x3c0ecf51	0.00871642
215	0xbcbf9291	-0.023385318
216	0xbcf17e4e	-0.029479172
217	0xbc8c2db1	-0.017111631
218	0x3d0a962f	0.033834632
219	0x3cdd412e	0.02700862
220	0xbb695979	-0.0035606308
221	0x3c6085f6	0.013703814
222	0xbcd94e9d	-0.026526744
223	0x3be7cc44	0.007073911
224	0xbc24d2db	-0.0100600375
225	0xbcc723a4	-0.024308987
226	0x3ce4c8fa	0.027927864
227	0x3cfcf8eb	0.030880412
228	0x3c24e372	0.010063993
229	0x3cab7589	0.020930069
230	0x3c00482b	0.007829706
231	0x3cef9b64	0.0292489
232	0xbd054b16	-0.03254231
233	0xbc998169	-0.018738465
234	0x3c5c0856	0.013429722
235	0x3c3ee010	0.0116501
236	0xbc1f184b	-0.009710382
237	0x3ca26360	0.019822776
238	0xbd008bcb	-0.031383317
239	0xba0aaf58	-0.00052904105
240	0xbcde0144	-0.027100213
241	0xbcc32d48	-0.023825303
242	0xbc78c2c7	-0.015183157
243	0x3c94ff53	0.018188154
244	0xbd020f07	-0.031752612
245	0xbc18b5c3	-0.009320679
246	0x3ceefa58	0.029172108
247	0x3cbc5ca3	0.022993391
248	0xbbb0ec51	-0.005399265
249	0x3c36d51a	0.011159206
250	0xba863e8e	-0.0010242031
251	0x3cb0ddfe	0.02159023
252	0x3cb09b68	0.021558478
253	0xbc1f8de1	-0.009738416
254	0xbca3e4d3	-0.020006573
255	0xbc60d2f5	-0.013722171

bias f4 [32]
0	0xbcd7b701	-0.02633238
1	0xbbac45cf	-0.0052573453
2	0xbd6ac5b2	-0.057317443
3	0x3d4bf2b4	0.049792007
4	0x3d7cbe2b	0.061704796
5	0xbd491de1	-0.04910076
6	0xbd82496f	-0.063616626
7	0x3b8c28a2	0.0042773047
8	0xb9d115fd	-0.0003987997
9	0xbd8b6aaa	-0.06807454
10	0xbd391bf8	-0.04519269
11	0xbd9e35db	-0.07725116
12	0xbd2f6421	-0.0428201
13	0xbc6637a7	-0.0140513545
14	0x3d51303a	0.051071383
15	0xbaed3057	-0.0018096071
16	0xbcb6cd74	-0.022314765
17	0xbd9b389a	-0.07579155
18	0x39d453a6	0.00040498114
19	0x3d091b06	0.033473037
20	0xbd6c79fe	-0.05773353
21	0xbbf4ac9e	-0.0074668666
22	0xbd7787a7	-0.060432103
23	0xbcc73c9d	-0.024320895
24	0xbcbab576	-0.022791605
25	0xbd3236a3	-0.043509137
26	0x3d13777b	0.036002617
27	0x3d4aaa04	0.049478546
28	0xbc851177	-0.01624368
29	0xbdaa3a7b	-0.083119355
30	0x3b829eea	0.003986229
31	0xbd3d6bda	-0.046245433

weight f4 [64, 32, 5, 5]
0	0x3d020cb2	0.03175039
1	0xbbd91c74	-0.0066257063
2	0x3c5395f5	0.0129141705
3	0xbcde191e	-0.027111586
4	0xbc449f62	-0.01200089
5	0xbcb5cfdc	-0.022193842
6	0x3ae7d4d9	0.0017687335
7	0xbcdd2c2d	-0.026998604
8	0xbcdade56	-0.026717346
9	0x3c7210cd	0.014774513
10	0xbd018d04	-0.031628624
11	0xbbc2acc2	-0.0059410045
12	0x3cb579c1	0.022152783
13	0x3c4be851	0.012445525
14	0xbc86418e	-0.01638868
15	0xbc230ec6	-0.009952253
16	0xbca188ee	-0.019718613
17	0x3bab3682	0.0052250037
18	0xbb8cb637	-0.0042941826
19	0xbc330572	-0.010926591
20	0x3bdd9abc	0.0067628305
21	0x3b9b5079	0.0047398177
22	0xbb9e6359	-0.0048336205
23	0x3c9adae1	0.018903198
24	0xbd2a6e17	-0.041608896
25	0x3bc43690	0.0059879497
26	0xbd0f3602	-0.034963615
27	0xbcd7b131	-0.026329609
28	0x3c47c69b	0.012193347
29	0x3cd061a5	0.025437186
30	0x3cb4982b	0.022045216
31	0xbc881cbd	-0.016615266
32	0xbd1fa023	-0.038971078
33	0x3ba3d525	0.004999774
34	0x3ccc82ef	0.024964778
35	0x3cf82f8d	0.030296111
36	0xbbdf8561	-0.00682132
37	0xbc83bb6e	-0.016080584
38	0x3ca8ad97	0.020590587
39	0xbd099841	-0.033592466
40	0x3cc3a8fd	0.02388429
41	0x3cd3c11c	0.025848918
42	0xbc8c1819	-0.017101334
43	0xbd1ec4fd	-0.03876208
44	0x3cb75966	0.022381496
45	0xbcf49ddb	-0.029860428
46	0x3c57059b	0.013123895
47	0xbc30f1d1	-0.010799841
48	0xbc64d0d6	-0.013965806
49	0x3c9fd9c2	0.019513015
50	0x3ce67d89	0.028136032
51	0xbb973347	-0.004614267
52	0x3d03fee1	0.032225493
53	0xbc74bd4f	-0.014937713
54	0xbca5a669	-0.020220952
55	0x3d0e04c0	0.0346725
56	0xbc470840	-0.012147963
57	0x3c8c22ce	0.01710644
58	0x3a80bae8	0.0009821327
59	0x3c31861e	0.010835199
60	0x3c565156	0.013080915
61	0xbd0e57f7	-0.03475186
62	0xbd00b3fc	-0.031421646
63	0x3bbd4431	0.0057759513
64	0xbca7ffc6	-0.020507704
65	0xbc02d44d	-0.007985187
66	0x3c790d4d	0.015200925
67	0x3bf5b8f7	0.007498856
68	0xbcd8772b	-0.026424011
69	0xbc004235	-0.007828285
70	0x3ca92c8e	0.020651128
71	0x3c38b63d	0.011273918
72	0xbd0faf9a	-0.035079576
73	0xbb600474	-0.0034182342
74	0x3ccb501f	0.024818478
75	0xbcdbfc17	-0.026853604
76	0xbc67349e	-0.014111666
77	0xbcef6449	-0.029222624
78	0xbcaa98b2	-0.020824764
79	0xbc194c3f	-0.009356557
80	0x3cd231c1	0.02565849
81	0x3c68fdb3	0.014220643
82	0x3cd4b97b	0.02596735
83	0xbc330a89	-0.010927805
84	0x3cba03c6	0.022706877
85	0xbcca7907	-0.024715913
86	0x3d25a6b1	0.040442172
87	0x3d29b10e	0.041428618
88	0xbc585b03	-0.013205293
89	0xbd23905d	-0.039932597
90	0xbc665be3	-0.014059993
91	0x3c5cd7b2	0.01347916
92	0xbb964c56	-0.0045867367
93	0xbc872cb0	-0.0165008
94	0x3c0e83e8	0.008698441
95	0xbceaf78f	-0.028682498
96	0xbd0efb8d	-0.034907866
97	0xbc2a7d1b	-0.010405804
98	0xbc86f314	-0.01647333
99	0x3bf25823	0.0073957606
100	0xbcce7ab8	-0.025205001
101	0x3ce35204	0.027749069
102	0x3b9b3e2d	0.0047376365
103	0x3c061d57	0.008185706
104	0x3cbbeb56	0.022939365
105	0x3b860e90	0.0040910915
106	0x3d0f8695	0.035040457
107	0x3c071057	0.008243642
108	0xbc71ea55	-0.014765342
109	0xbc2eec7d	-0.0106765
110	0x3cd583e0	0.02606386
111	0x3c72f0f1	0.014827953
112	0x3c81d58f	0.015848903
113	0xbcca932d	-0.024728382
114	0xbd1d530a	-0.03840927
115	0x3c3b67fa	0.011438364
116	0x3ce40fbc	0.027839534
117	0x3c1d8d5d	0.009616223
118	0x3d133cce	0.03594666
119	0xbd0c97ab	-0.03432433
120	0x3cb13d1c	0.021635585
121	0xbc513899	-0.012769842
122	0x3d1de3d9	0.03854737
123	0x3ae24ea2	0.0017265866
124	0xbc13165b	-0.008977498
125	0xbd03bdfe	-0.032163613
126	0xbc39ac55	-0.011332591
127	0x3baba2b3	0.005237901
128	0xbc63f246	-0.013912743
129	0xbcf0d4e0	-0.029398382
130	0xbca883ef	-0.020570723
131	0xbc2e06af	-0.010621711
132	0xbc072d3e	-0.008250533
133	0x3cc25cd5	0.023725906
134	0x3c260d60	0.010135025
135	0x39a2b3ef	0.0003103311
136	0xbb6f40f9	-0.0036507233
137	0x3c6eabc7	0.014567322
138	0x3d3aa4a4	0.04556717
139	0x3d00356d	0.03130095
140	0xbc6e63a3	-0.014550122
141	0x3c810e5b	0.015753916
142	0x3ce93dc6	0.028471839
143	0xbc8bd9ec	-0.017071687
144	0xbcb13ebf	-0.021636365
145	0x3cb9edd9	0.022696422
146	0x3b0356d4	0.0020040767
147	0x3c8e8f88	0.017402425
148	0x3cf128b8	0.029438362
149	0xbbacc3fa	-0.0052723857
150	0xbc6c489a	-0.014421606
151	0xbc000657	-0.007814012
152	0xbd2ddbcf	-0.042445954
153	0x3c8728c2	0.016498927
154	0xbd221fa8	-0.03958097
155	0xbcb81f48	-0.022475854
156	0x3bac4877	0.005257662
157	0xbca226ee	-0.019793954
158	0xbb9f80aa	-0.004867633
159	0xbba091d5	-0.004900197
160	0x3c7fb20b	0.015606414
161	0xbc140562	-0.0090344865
162	0x3cf096ee	0.029368844
163	0x3d04e13e	0.03244137
164	0x3ca32042	0.019912843
165	0xbd00aa62	-0.03141249
166	0xb9ea7cd1	-0.00044724953
167	0xbb9ef960	-0.004851505
168	0x3b5c7a9d	0.003364242
169	0xbc0a6b18	-0.008448385
170	0xbccf4271	-0.025300236
171	0xbc9b0723	-0.018924301
172	0x3b60668a	0.0034240806
173	0xbc6444a1	-0.013932378
174	0x3c424153	0.011856395
175	0xbd077f3e	-0.033080332
176	0x3cc9b844	0.024623998
177	0xbc14efa1	-0.009090335
178	0x3cc486b5	0.023990015
179	0xbca00612	-0.019534145
180	0x3c689ace	0.014197065
181	0x3c399664	0.01132736
182	0xbd0c9bce	-0.034328274
183	0x3cde7f1b	0.027160218
184	0xbca1c0e9	-0.019745307
185	0xbbf41c91	-0.0074496944
186	0x3c315878	0.010824315
187	0x3c251d19	0.010077738
188	0x3c0764a4	0.008263741
189	0xbbff89a3	-0.00779839
190	0xbc6adac9	-0.014334389
191	0xbc86e017	-0.016464276
192	0xbcfb32a8	-0.030663803
193	0xbcc4a226	-0.0240031
194	0xbcfd5608	-0.030924812
195	0xbbd5619a	-0.006511879
196	0xbd2e01cd	-0.042482186
197	0xbd1acadf	-0.03779113
198	0xbd31efd1	-0.043441597
199	0xb9a191d2	-0.00030816958
200	0x3cc7f6f9	0.024409758
201	0x3b07ffc9	0.0020751825
202	0x3b8614ce	0.0040918356
203	0xbd11b2e1	-0.035570983
204	0xbd3b681b	-0.04575358
205	0x3c89f92c	0.016842447
206	0x3c939b93	0.01801852
207	0xbd039d80	-0.032132626
208	0xbce070de	-0.02739757
209	0x384c8740	4.876335e-05
210	0x3bd236fb	0.0064152456
211	0x3cb13db4	0.021635868
212	0xbcaaa1d5	-0.02082912
213	0xbce8a5b3	-0.028399324
214	0xbc805d1d	-0.0156694
215	0xbcda3f3a	-0.026641477
216	0xbceb0928	-0.02869089
217	0x3bf9cd0d	0.007623321
218	0xbd594e82	-0.053053387
219	0xbcd02a31	-0.025410743
220	0x3bd46910	0.006482251
221	0xbb962de4	-0.0045831073
222	0xbd13c977	-0.036080804
223	0xbd6e562f	-0.05818766
224	0xbd5dbdd9	-0.05413613
225	0x3c8a21cb	0.016861817
226	0x3cf8d7bf	0.030376313
227	0xbc326f35	-0.010890772
228	0x3c50c60a	0.012742529
229	0x38b6b780	8.712616e-05
230	0x3b17dc20	0.0023171976
231	0xbd2591b4	-0.040422156
232	0xbcc865c2	-0.024462584
233	0x3c43bfce	0.011947585
234	0xbcb567a2	-0.022144143
235	0x3bdb4356	0.0066913767
236	0x3b493613	0.0030702397
237	0xbc1d7f81	-0.009612919
238	0x3d1bc03d	0.03802513
239	0xbc4cc402	-0.012497904
240	0xbcec807d	-0.028869862
241	0x3a87ecd9	0.0010370269
242	0xbbec1ac7	-0.0072053405
243	0x3d0f0f03	0.034926426
244	0x3ccf847c	0.025331728
245	0xbc4ad803	-0.012380603
246	0xbc9c8f6c	-0.019111358
247	0xbca71046	-0.020393502
248	0xbbca1916	-0.0061675413
249	0x3d30f2c5	0.043200273
250	0xbbf73b8a	-0.0075449394
251	0xbce36de5	-0.027762363
252	0xbcd26ded	-0.025687182
253	0xbd45f669	-0.0483307
254	0xbcc3d2cd	-0.023904229
255	0xbc93a558	-0.018023178

bias f4 [64]
0	0xbae55658	-0.0017497046
1	0x3b5d49e2	0.0033765961
2	0x3b23ea4c	0.0025011478
3	0x3cae7929	0.021298008
4	0xbccea43e	-0.025224801
5	0xbd00cc54	-0.031444862
6	0xbd1565c3	-0.036474
7	0x3c747f6e	0.01492296
8	0xbcc0e633	-0.023547268
9	0xbcbe31b0	-0.023217052
10	0xbc223708	-0.009900816
11	0xbc47e48c	-0.012200486
12	0xbcce9a49	-0.025220053
13	0xbd56752a	-0.05235783
14	0xbce3144d	-0.027719641
15	0xbd1481a6	-0.036256455
16	0xbd4021c0	-0.046907187
17	0xbd1138da	-0.03545461
18	0x3ccdcb2c	0.025121294
19	0x3c541146	0.012943571
20	0xbd02a3b2	-0.031894393
21	0x3d0f0580	0.034917355
22	0xbd5774f2	-0.052601762
23	0x3d03b829	0.03215805
24	0x3c20e866	0.009821033
25	0xbd9d53f4	-0.076820284
26	0xbcb8d0eb	-0.022560557
27	0xbd9882c6	-0.07446818
28	0x3c44f153	0.012020427
29	0xbd2f61d1	-0.042817894
30	0x3c450245	0.012024467
31	0xbd0522a4	-0.03250374
32	0x3c45996f	0.012060507
33	0xbda5b16d	-0.08090482
34	0x3cc7f309	0.02440788
35	0x3c0b9db5	0.008521487
36	0x3c8141ac	0.015778385
37	0xbd0a553b	-0.03377269
38	0x3c1c1f24	0.009528909
39	0xbd28898b	-0.041146796
40	0xbd18215d	-0.037141193
41	0xbd81c4be	-0.06336354
42	0xbc2aed4b	-0.010432552
43	0xbbf0ed64	-0.007352518
44	0xbd128860	-0.03577459
45	0xbcf6dec6	-0.030135524
46	0xbce9f276	-0.028557997
47	0x3ceccc10	0.028905898
48	0xbbdfeb6d	-0.006833485
49	0xbaaa0b2c	-0.00129733
50	0x3c11069f	0.008851676
51	0xbd885675	-0.06657115
52	0xbd416f0d	-0.047225047
53	0x3cbc8d60	0.023016632
54	0x3c3d5937	0.011556915
55	0xbc9c3088	-0.01906611
56	0x3d006fa5	0.031356473
57	0xbd39e547	-0.04538467
58	0x3b9d4d2c	0.0048004594
59	0xbc949fa6	-0.018142533
60	0xbd841697	-0.06449621
61	0xbd0b8cfe	-0.034070008
62	0xbd5909ab	-0.052987736
63	0xbd2d6859	-0.04233584

weight f4 [64, 1024]
0	0xbc9d6439	-0.019212829
1	0xbc6d7c8e	-0.014495028
2	0xbd418407	-0.04724505
3	0xbbb657b1	-0.005564653
4	0x3b66ecba	0.0035236315
5	0x3cd3dee2	0.025863115
6	0x3c67e7c3	0.014154377
7	0x3cd5946b	0.026071748
8	0x3b704978	0.0036664885
9	0x3bc82760	0.0061082095
10	0x3c3fb611	0.011701123
11	0xbcbe1b9e	-0.023206528
12	0xbcc9adda	-0.024619032
13	0x3b5f8e82	0.003411204
14	0xbca1c79e	-0.019748505
15	0xbc44a5d8	-0.012002431
16	0x3c210a56	0.009829124
17	0xbcb9458a	-0.022616167
18	0xb9e9a19a	-0.00044561626
19	0xbbbff348	-0.005857859
20	0x3cf7205a	0.030166794
21	0x3ce4adc9	0.027914898
22	0xbb4b010a	-0.003097596
23	0xbae85c74	-0.0017727748
24	0x3b83ac5b	0.004018349
25	0x3c084305	0.00831676
26	0xbccbf2f6	-0.024896126
27	0x3ca10ed4	0.01966039
28	0xbab5554c	-0.0013834625
29	0x3cb2a0c9	0.021805184
30	0xbcf654bc	-0.030069701
31	0xbc134341	-0.008988203
32	0xbc7242b8	-0.014786415
33	0x3c4f8388	0.012665637
34	0xbb57dc5b	-0.0032937739
35	0xbc795df4	-0.015220154
36	0xbd18c4f5	-0.037297208
37	0x3d3230e5	0.04350366
38	0xbc8c73b0	-0.017145008
39	0x3c8c2045	0.017105231
40	0x3c523573	0.012830126
41	0x3d2271d7	0.039659347
42	0x3c9f23f0	0.019426316
43	0xbb5d5144	-0.0033770362
44	0xbc852ceb	-0.01625677
45	0x3b1e99bb	0.0024200517
46	0x3d2e7a8e	0.042597346
47	0x3c0ec5ec	0.00871418
48	0xbc54af7f	-0.012981295
49	0x3d2fe983	0.042947304
50	0xbb8e2153	-0.0043374687
51	0x3ce00950	0.02734819
52	0x3b87193a	0.0041228803
53	0x3c96642b	0.01835831
54	0x3cff20d2	0.03114358
55	0x39f2eb28	0.00046333042
56	0x3cfa39bc	0.030545108
57	0xbc2c8f4d	-0.010532212
58	0x38e92540	0.00011117244
59	0xbcd93614	-0.026515044
60	0xbd132bc9	-0.03593043
61	0xbce0cf33	-0.02744255
62	0xbc90d085	-0.017677555
63	0xbc0d6568	-0.008630134
64	0xbcb74650	-0.022372395
65	0x3cc190d2	0.023628626
66	0xbc601614	-0.013677139
67	0x39160d6c	0.00014310115
68	0xbc8fb028	-0.017540053
69	0xbcb58d79	-0.022162186
70	0x3cae238a	0.02125718
71	0x3d246aff	0.040141102
72	0x3d019b0d	0.03164201
73	0x3cde6a19	0.0271502
74	0x3c813ec2	0.015776996
75	0xbbc070bc	-0.005872814
76	0xbcba3794	-0.02273158
77	0xbc608395	-0.013703247
78	0x3b8953ea	0.0041909115
79	0xba5ef870	-0.0008505648
80	0xbca181a5	-0.01971514
81	0xbc982c75	-0.018575886
82	0xbcb554b5	-0.022135118
83	0xbc83d191	-0.01609114
84	0x3d2eb769	0.042655382
85	0x3d047eb9	0.032347415
86	0x3cac4d73	0.021033024
87	0x3c2bf701	0.010495902
88	0xbbedd916	-0.0072585447
89	0xbbb7c042	-0.0056076357
90	0xbb88f073	-0.0041790544
91	0xbbd7e51a	-0.0065885903
92	0x3c97169b	0.018443396
93	0x3ce68974	0.028141715
94	0xbc9651aa	-0.018349487
95	0x3c538b28	0.012911595
96	0xbc54103b	-0.012943323
97	0x3ca82937	0.020527465
98	0x3cbd9840	0.023143888
99	0xbc1079c7	-0.0088180965
100	0x3cc9cf42	0.024634961
101	0x3c9d2072	0.01918051
102	0x3c012564	0.00788245
103	0x3c7ac4c3	0.015305701
104	0x3ab93e12	0.0014132878
105	0xbb54924e	-0.0032435837
106	0x3c96707f	0.01836419
107	0xbc85dc10	-0.016340286
108	0xbc492898	-0.012277745
109	0x3c2ae8e6	0.010431504
110	0xbd1a1070	-0.037613332
111	0x3cdf4103	0.02725268
112	0x3c43cdde	0.011950938
113	0xbbee7a3e	-0.007277756
114	0x3d244b90	0.040111125
115	0x3be910a1	0.007112578
116	0xbca77558	-0.020441696
117	0xbc79268d	-0.015206945
118	0x3cae0338	0.02124177
119	0xbcd81449	-0.02637686
120	0x3ba33d9a	0.0049817087
121	0x3bd54ad4	0.0065091643
122	0x3d35fc55	0.044430096
123	0xbc2f9601	-0.010716916
124	0xbcd7a289	-0.02632262
125	0x3c3329c3	0.01093525
126	0x3c6b2802	0.0143528
127	0x3cf2a31b	0.02961879
128	0x3c0b29f1	0.008493886
129	0x3d0516f2	0.032492585
130	0x3d2b4702	0.041815765
131	0x3c5b9d0e	0.013404144
132	0x3c7a4084	0.015274171
133	0x3cf80187	0.030274166
134	0xbc3fc25c	-0.011704054
135	0xbcef4ac9	-0.029210465
136	0x3b5fad3d	0.0034130358
137	0x3d08acee	0.033368044
138	0xbcdf2055	-0.027237097
139	0xbcc5e734	-0.024158098
140	0xbcd83434	-0.02639208
141	0x3d0c059b	0.034185033
142	0x3bde0e11	0.006776579
143	0xbd045aa3	-0.032313
144	0x3d1062a7	0.035250332
145	0x3d1ea348	0.038729936
146	0xbba39edb	-0.0049933023
147	0x3c2a4964	0.010393474
148	0x3c45055d	0.0120252045
149	0xbba246eb	-0.0049523017
150	0xbc2783dd	-0.01022431
151	0xbcf1b640	-0.029505849
152	0x3c92aaad	0.01790365
153	0x3d0a5e8d	0.033781577
154	0x3cb67372	0.022271845
155	0x3b6e8301	0.0036394002
156	0xbce23396	-0.027612489
157	0x3c158ab3	0.009127307
158	0x3ca8dec8	0.020614043
159	0xbc9106f2	-0.017703507
160	0x3cad8fa4	0.021186657
161	0x3b57693a	0.0032869116
162	0x3d3727a2	0.04471553
163	0xbbe5c223	-0.0070116683
164	0xbbe18e37	-0.0068834084
165	0x3c07afcc	0.008281659
166	0x3c871080	0.01648736
167	0x3c4fe5a8	0.012689032
168	0xbcbbd13c	-0.02292692
169	0x3bce8564	0.0063025225
170	0xbd116858	-0.0354999
171	0xbc9482f3	-0.018128848
172	0x3c7e43d5	0.015519102
173	0xbc37375c	-0.011182632
174	0xbcd7aaa6	-0.026326489
175	0xbd1c9e7b	-0.038237076
176	0x3cdaa329	0.026689129
177	0x3c6cd5df	0.014455288
178	0x3c3b04fe	0.011414764
179	0xbd06ac89	-0.032879386
180	0x3c993567	0.018702222
181	0x3cb82e4a	0.02248301
182	0xbc073fa8	-0.008254923
183	0x3ca2dc63	0.01988048
184	0x3c05afb6	0.0081595685
185	0xbd25995f	-0.04042947
186	0xbcb07f35	-0.021545032
187	0x3c47f670	0.012204751
188	0xbcffd779	-0.031230675
189	0xbc6ef623	-0.014585051
190	0x3c1362d5	0.008995731
191	0x3cd0d05c	0.025489978
192	0xbcac412d	-0.021027172
193	0xbb2d7130	-0.002646517
194	0xbc24488e	-0.010027064
195	0xbb8dd1d5	-0.0043279924
196	0xbd2cfd48	-0.042233735
197	0x3cc1dbe9	0.023664432
198	0x3bd69702	0.0065487633
199	0xbca6ada9	-0.02034648
200	0xbcfbc3fb	-0.0307331
201	0x3afced82	0.0019296857
202	0x3c21973f	0.00986272
203	0x3c40c88f	0.011766567
204	0xbc5d98a3	-0.013525161
205	0xbb982ebe	-0.004644244
206	0xbcb554ce	-0.022135165
207	0x3c24a363	0.01004872
208	0x3c3a9693	0.011388439
209	0xbc6d8e56	-0.014499268
210	0x3d053e5b	0.03253017
211	0xbc9e2686	-0.019305479
212	0xbcee5280	-0.029092073
213	0x3d0133df	0.03154361
214	0xbb0c53b9	-0.0021412207
215	0x3b2fe69a	0.002684033
216	0x3cd758b6	0.026287418
217	0x3c8cd9ad	0.01719364
218	0x3cd1e17b	0.025620213
219	0xbc3a18ea	-0.011358479
220	0x3cc1e4dc	0.023668699
221	0xbbc3c707	-0.0059746536
222	0x3c255555	0.0100911455
223	0xbccf54d4	-0.025309004
224	0x3cecc27c	0.028901331
225	0x3b21135c	0.002457819
226	0xbcec78a6	-0.028866123
227	0xbc2f7216	-0.010708353
228	0xbc7ff3a3	-0.015622052
229	0x3d272fc3	0.040817033
230	0xbcbdfc8b	-0.023191711
231	0xbc9348b1	-0.017978998
232	0x3d0040a7	0.031311657
233	0xbc82781f	-0.015926419
234	0xbb9d3149	-0.004797135
235	0x3d051f0b	0.032500308
236	0x3b50e551	0.0031874964
237	0x3c639981	0.013891579
238	0x3c349d9f	0.011023908
239	0x3b408b00	0.0029379725
240	0xbc2fa71e	-0.010720996
241	0xbc6ee17a	-0.014580125
242	0xbce67372	-0.02813122
243	0xbceec99f	-0.029148875
244	0xbbd85af4	-0.0066026393
245	0x3cddfb70	0.027097434
246	0x3cd91745	0.026500354
247	0x3ce5468b	0.02798774
248	0xba30ad06	-0.00067396497
249	0x3d0a02aa	0.033693947
250	0x3b43a51a	0.0029853047
251	0xbb6dca84	-0.0036284039
252	0x3c57639c	0.013146307
253	0xbb2653ae	-0.0025379467
254	0x3b8ff583	0.004393281
255	0x3cffcfcc	0.031227015

bias f4 [64]
0	0xbbd3e8a1	-0.0064669405
1	0x3bd5de58	0.0065267496
2	0x3d3c5eeb	0.04598896
3	0xbce98ae3	-0.02850861
4	0xbce1f530	-0.027582735
5	0xbc935150	-0.017983109
6	0xbc5f2e99	-0.01362195
7	0xbbfac816	-0.0076532466
8	0x3c93852a	0.018007834
9	0xbcb5aa02	-0.022175793
10	0x3cd95945	0.026531825
11	0x3cc79b3d	0.024366016
12	0x3cb4d0b6	0.022072177
13	0xbcd7e460	-0.026354015
14	0xbca9760d	-0.020686174
15	0xbd31413c	-0.043275103
16	0x3bba7068	0.0056896694
17	0x3d0dd981	0.034631256
18	0x3d0de5b8	0.034642905
19	0xbd0ec862	-0.03485907
20	0xbb707c18	-0.003669506
21	0x3d6f8022	0.058471806
22	0xbc837672	-0.01604769
23	0x3d122a29	0.03568474
24	0xbd552f7e	-0.052047245
25	0x3d4048c4	0.046944395
26	0xbb354a30	-0.0027662627
27	0xbc059524	-0.008153234
28	0xbc937f86	-0.018005144
29	0x3d0122b6	0.031527244
30	0x3cf52dc1	0.029929044
31	0x3b332439	0.0027334823
32	0x3cd64418	0.026155517
33	0xbcbdc88e	-0.023166921
34	0xbcecfe2c	-0.028929792
35	0xba5d1ecb	-0.00084350695
36	0xbcaf5fd1	-0.021407994
37	0x3c200683	0.0097671775
38	0xbcb22b58	-0.021749184
39	0x3cc34220	0.023835242
40	0x3af4ec56	0.0018686156
41	0xbb07c877	-0.0020718852
42	0xbc3b273c	-0.011422928
43	0x3cd7e0d3	0.026352322
44	0xbb0c8efe	-0.0021447535
45	0xbd82c569	-0.06385309
46	0xbd29f521	-0.04149354
47	0xbd0bc0d7	-0.034119453
48	0x3cf611eb	0.03003784
49	0x3c9086ec	0.01764246
50	0xbc4a58e5	-0.012350296
51	0xbb065aed	-0.0020500973
52	0xba87b242	-0.0010352808
53	0xbd403d39	-0.046933386
54	0xbc96591e	-0.018353041
55	0xbc78af23	-0.015178475
56	0x394bb83c	0.00019428221
57	0x3d6bb0be	0.0575416
58	0x3bf7619d	0.007549478
59	0xbb9eaaba	-0.0048421295
60	0xbd206611	-0.039159838
61	0x3c7b2940	0.015329659
62	0xbcc3801b	-0.023864796
63	0xbc44913f	-0.01199752

weight f4 [10, 64]
0	0xbaba993e	-0.0014236344
1	0x3d4ff7d3	0.050773453
2	0xbdb432b8	-0.08798736
3	0xbcaee87b	-0.02135109
4	0x3d831bc5	0.06401781
5	0x3c1ddec8	0.009635635
6	0x3dc0bc24	0.09410885
7	0x3e497377	0.19672953
8	0x3c6a7a9c	0.014311459
9	0x3c3a62e6	0.011376118
10	0x3c4ab69d	0.01237264
11	0x3d18f48a	0.037342586
12	0x3d95f71a	0.073225215
13	0x3e3a0cf3	0.18169002
14	0x3e072e38	0.13201225
15	0x3db677ae	0.08909546
16	0xbe1495b5	-0.14510234
17	0xbe141556	-0.14461264
18	0xbd944f67	-0.07241707
19	0x3d7451eb	0.059648436
20	0xba9a1db4	-0.001175812
21	0xbe41ea2b	-0.18936984
22	0x3d802484	0.06256965
23	0x3bc0c9ac	0.005883416
24	0x3d0f6191	0.035005156
25	0xbdea82fe	-0.11450766
26	0xbcb3f9cc	-0.021969698
27	0x3cb0b243	0.021569377
28	0xbdb63edf	-0.088987105
29	0xbd4558ce	-0.048180394
30	0xbdbb9ff1	-0.09161366
31	0xbd0da3d1	-0.034580056
32	0xbd1ba287	-0.037996795
33	0xbe5073c5	-0.20356663
34	0xbd209bb1	-0.03921098
35	0xbd94f203	-0.072727226
36	0x3e1bf943	0.15231805
37	0xbe231676	-0.15926537
38	0x3cbb9658	0.022898838
39	0xbd8c9b49	-0.06865556
40	0xbdb358a3	-0.087571405
41	0x3ca632a5	0.020287821
42	0x3d8e7fc7	0.06957965
43	0x3da1de24	0.07903698
44	0x3d8db048	0.069183886
45	0x3dcd4aff	0.1002407
46	0x3de4895b	0.11159011
47	0x3db00105	0.085939445
48	0xbde2f82f	-0.110824935
49	0x3e0a228b	0.1348974
50	0x3e1df13d	0.15424056
51	0x3da94707	0.082655005
52	0x3cc5772a	0.024104673
53	0x3db47c7a	0.088128045
54	0x3d9dfe8d	0.07714567
55	0xbd821d3b	-0.063532315
56	0x3e44bec1	0.19213392
57	0xbe0d724e	-0.13813135
58	0xbe1c8bed	-0.15287752
59	0x3de51113	0.11184897
60	0xbdef1167	-0.11673241
61	0xbdbb1c5a	-0.09136267
62	0x3e1f3b79	0.15550031
63	0x3da390c6	0.07986598
64	0x3e079d5d	0.13243623
65	0xbe8cb413	-0.27481136
66	0xbe0c6d02	-0.13713458
67	0xbd91a8b3	-0.07112255
68	0x3e3be162	0.18347695
69	0xbe107ba7	-0.1410967
70	0xbe320157	-0.17383324
71	0xbd980282	-0.07422353
72	0xbd7b0bc3	-0.061290514
73	0xbdc20716	-0.09474008
74	0xbe8dd5b7	-0.27702114
75	0xbde6dda1	-0.11272741
76	0xbc891920	-0.016735613
77	0x3e6ce77a	0.23135176
78	0x3e91410a	0.28369933
79	0x3dea0082	0.11425878
80	0xbda718b0	-0.08159006
81	0xbe18d2bc	-0.14924139
82	0xbcf0ae54	-0.029380001
83	0x3dd7a1fd	0.10528944
84	0xbe06c98b	-0.1316282
85	0x3daa9cd1	0.083306916
86	0xbdebfd5e	-0.11522935
87	0x3e094815	0.13406403
88	0x3c7a8052	0.015289383
89	0x3e20e974	0.15714055
90	0x3d24d931	0.040246192
91	0xbe2d9ba0	-0.16953897
92	0xbe38e849	-0.1805736
93	0xbc28c87a	-0.010301704
94	0xbdb624af	-0.088937156
95	0xbc472312	-0.0121543575
96	0xbdfd1ed9	-0.12359399
97	0xbc5385c9	-0.012910315
98	0xbd82be7e	-0.0638399
99	0xbe50d53b	-0.20393841
100	0xbdf0d209	-0.11758811
101	0x3c8a8ae7	0.016911937
102	0xbde81f61	-0.1133411
103	0x3e054f00	0.13018417
104	0x3e170b8a	0.14750496
105	0xbdb967c7	-0.09052997
106	0xbe24ed31	-0.16106106
107	0xbe169e40	-0.14708805
108	0x3bc7304e	0.0060787564
109	0xbe4c40aa	-0.19946542
110	0x3c71a600	0.01474905
111	0x3ce25b28	0.027631357
112	0x3dcd5b55	0.10027186
113	0x3ccbac20	0.024862349
114	0x3ddaa30f	0.10675632
115	0xbc31325a	-0.010815227
116	0xbdeedfec	-0.116638035
117	0x3dc3d90b	0.09562882
118	0xbdfd09e3	-0.12355401
119	0x3d2ab69a	0.04167805
120	0x3dfdcfcc	0.1239315
121	0xbb1ff592	-0.0024407846
122	0xbdf351d7	-0.11880844
123	0x3e27f2c9	0.16401209
124	0x3d18ad4f	0.037274655
125	0x3e03ec7e	0.12883183
126	0xbe091af9	-0.13389196
127	0xbe78f96b	-0.24313895
128	0x3dd86808	0.105667174
129	0x3e1a20bf	0.15051554
130	0xbe125196	-0.14288935
131	0x3e04c8fa	0.12967291
132	0xbd862eab	-0.0655187
133	0x3bcca805	0.0062456154
134	0x3ddb0fc1	0.10696364
135	0xbdf234cb	-0.11826476
136	0x3da7a430	0.08185613
137	0xbdcef4ba	-0.10105272
138	0x3dbe4e72	0.09292306
139	0x3d2318be	0.039818518
140	0x3d195da5	0.037442822
141	0x3ccc099e	0.02490693
142	0xbde3f82a	-0.11131318
143	0x3d4779e9	0.048700247
144	0x3d5af684	0.053457752
145	0x3df6a974	0.12044039
146	0x3d67f362	0.056628592
147	0xbcd62903	-0.026142603
148	0xbd8b15d3	-0.06791272
149	0xbe206382	-0.15662959
150	0xbda7c2e7	-0.081914715
151	0x3d976865	0.073929586
152	0xbdd49a77	-0.10381024
153	0x3d9bc905	0.07606701
154	0xbb322dfe	-0.0027188058
155	0xbd6bb0a3	-0.0575415
156	0x3bf48e42	0.0074632475
157	0x3c8cd74a	0.017192502
158	0x3dcc83f7	0.09986108
159	0xbd3ed746	-0.04659202
160	0xbbf59c3c	-0.007495431
161	0x3e3f8a22	0.18705037
162	0xbd6dbe1b	-0.058042627
163	0x3e321fc0	0.17394924
164	0xbd9f039c	-0.0776436
165	0xbd846dce	-0.06466256
166	0xbdf57718	-0.11985606
167	0xbe0eacb2	-0.13933066
168	0xbe18e06b	-0.14929359
169	0x3ce6dfd3	0.0281829
170	0xbd632278	-0.055452794
171	0xbd8d4f81	-0.0689993
172	0x3dfd31f3	0.12363043
173	0x3d6025d6	0.054723583
174	0xbe0233b0	-0.1271503
175	0x3c7120ff	0.01471734
176	0x3d92928f	0.0715686
177	0x3df25498	0.11832541
178	0xbd8c04d9	-0.06836862
179	0xbe1521b8	-0.14563644
180	0x3e243be3	0.1603847
181	0xbe061e80	-0.13097572
182	0x3e200485	0.15626724
183	0xbcc59ca8	-0.024122551
184	0x3e112f0b	0.14178102
185	0xba4669b8	-0.0007568854
186	0x3de92494	0.1138393
187	0x3dbf6d26	0.0934699
188	0xbe34e077	-0.17663752
189	0xbda43090	-0.08017075
190	0x3e1c59dd	0.15268655
191	0x3dff664a	0.12470682
192	0x3df5ccd5	0.12001959
193	0x3e027794	0.12740928
194	0x3d279e58	0.040922493
195	0xbe0b0d93	-0.13579397
196	0xbe042d3a	-0.12907878
197	0x3be76770	0.0070618913
198	0x3deb89db	0.11500903
199	0xbcfaf7e4	-0.030635782
200	0x3d39483f	0.045234915
201	0x3c5bbefd	0.013412234
202	0xbddfd9e0	-0.10930228
203	0x3cf40e42	0.029791955
204	0xbd66a7d0	-0.056312382
205	0xbe585929	-0.21127762
206	0xbe2e2f09	-0.1701013
207	0xbd97d09c	-0.07412836
208	0x3dc5a101	0.0964985
209	0x3ba76f82	0.0051097283
210	0x3e1543c8	0.14576638
211	0xbdc1ca02	-0.09462358
212	0x3e0b0aed	0.13578387
213	0x3a8f6f35	0.0010943176
214	0xbdbbbd25	-0.09166936
215	0xbd88d45d	-0.0668113
216	0xbd7eea02	-0.062234886
217	0x3e08cc62	0.13359216
218	0x3c277ced	0.010222656
219	0x3d9c130a	0.07620819
220	0xbd794317	-0.060854997
221	0x3dd1ce36	0.1024441
222	0x3dc234b9	0.09482712
223	0x3e11da73	0.14243488
224	0xbccdc692	-0.0251191
225	0x3e2e5dd4	0.1702798
226	0xbddea9d7	-0.10872238
227	0xbd8b0f3f	-0.06790017
228	0xbdda8948	-0.106707156
229	0x3cc601c4	0.024170764
230	0xbdc7839a	-0.09741898
231	0xbcc47bb5	-0.02398477
232	0x3d106614	0.0352536
233	0xbdcfb505	-0.101419486
234	0x3dc9b804	0.09849551
235	0x3d145039	0.03620932
236	0xbe2c05a4	-0.16799027
237	0xbd152489	-0.036411796
238	0x3d938219	0.072025485
239	0x3d67c3da	0.056583263
240	0xbd8846e1	-0.06654144
241	0xbccd05d3	-0.025027191
242	0xbd8991ae	-0.06717239
243	0x3df29dd0	0.118465066
244	0x3e31839e	0.17335364
245	0xbc3cc8e0	-0.011522502
246	0x3d7c9c2a	0.061672367
247	0xbcff56a1	-0.031169238
248	0x3d238e03	0.039930355
249	0x3d2556f0	0.040366113
250	0x3d9a88e3	0.0754564
251	0xbe08c1b4	-0.13355142
252	0xbe12876f	-0.14309476
253	0x3df44730	0.119276404
254	0x3bb8a5c0	0.0056349933
255	0xbd8de4ed	-0.0692843

bias f4 [10]
0	0xbdfe07df	-0.12403845
1	0x3c714f05	0.014728312
2	0x3d9602dd	0.07324765
3	0x3dba56df	0.090986006
4	0x3d6b962a	0.057516254
5	0x3c9025c3	0.017596131
6	0x3c62edaa	0.013850609
7	0x3d99ee00	0.07516098
8	0x3d5cc9b0	0.05390328
9	0xbbb6838a	-0.00556988
