tudui_7.pth (torch, 587399 bytes, 10 tensors)

weight f4 [32, 3, 5, 5]
000000 9b e1 0c 3c 60 f8 de ba 70 a4 8b bd db 52 03 be
       0.00859871 -0.0017011277 -0.06818473 -0.12824576
000010 13 39 02 bc 74 1e dd 3d 6c da b1 bb d6 cf 7d 3d
       -0.007948178 0.10796824 -0.0054276492 0.061965786
000020 8a 18 15 3e ef 48 8e bc f4 c5 43 bc ea a6 c0 bc
       0.14560142 -0.017368762 -0.011949051 -0.02351709
000030 fd 04 49 bc 58 a5 91 3d d7 02 95 bd 7a 86 be bd
       -0.012269256 0.07111615 -0.07275932 -0.09302993
000040 13 84 89 3d 3d 97 8d bd 48 0e f3 bd 2c 7e 01 be
       0.06714644 -0.06913612 -0.11867958 -0.12645787
000050 b8 b5 15 be f4 31 4c bd ef 6c 5c be b0 ee 50 be
       -0.14620101 -0.049852327 -0.2152593 -0.20403552
000060 a7 52 2f bd b8 3b 22 3c fc 0c 8c 3d d7 eb 42 3b
       -0.042803433 0.009901933 0.06838414 0.0029742622
000070 64 87 d4 bd 86 a4 17 3d ee 7b 20 3d ab 47 57 bd
       -0.10377386 0.037022136 0.03918069 -0.052558582
000080 91 c1 15 3e 8b ec 29 3e f8 61 0a 3e a9 4a 83 bd
       0.14624621 0.1659414 0.13513935 -0.06410725
000090 11 9d e0 3d 46 3b ea 3d 65 58 17 3e 20 4d 2d 3c
       0.10967458 0.11437087 0.14779814 0.01057747
0000a0 9d 04 8d bd 86 42 d7 3d dd 8c 4d 3d fe ff 4f bd
       -0.068856455 0.10510735 0.050183166 -0.050781243
0000b0 34 3a 01 3c 4e 11 ca 3c bf fe e2 bd 8d e8 a0 bc
       0.007887412 0.024666455 -0.11083745 -0.019642139
0000c0 db 75 b2 bd e6 47 48 bd e8 e8 c6 bc e6 fe 9f bd
       -0.087138854 -0.048896693 -0.02428098 -0.0781229
0000d0 0f 04 c5 bd ed 23 c9 bc cf b4 d1 3d 02 71 15 3e
       -0.09619915 -0.024553264 0.102395646 0.1459389
0000e0 57 a6 07 3e 70 f0 df 3d 1e 79 d9 3d de 23 6f 3d
       0.13247047 0.10934532 0.106188044 0.058383815
0000f0 5c 72 fc 3c 04 8b 31 3d 7e fd 18 bc 1f 7a 81 3c
       0.03081625 0.043345466 -0.009337781 0.015805302
000100 0a 7c 01 bd dd 52 7d 3d 98 ed e5 3d 25 a2 58 3d
       -0.031612433 0.061846603 0.11226958 0.052889008
000110 fd c0 18 3d 47 e2 c8 3d 49 06 12 be cd 74 2a be
       0.037293423 0.09808784 -0.1426021 -0.16646118
000120 45 53 a1 bd c2 d6 25 bd 98 c1 fc 3c 7a dc 22 be
       -0.078772105 -0.040488012 0.030854031 -0.15904418
000130 82 bc 0b be f0 02 32 be 6b 40 2e be 31 a8 0d be
       -0.13646129 -0.17383933 -0.17016761 -0.13833691
000140 fd 13 1a be 71 6f 5f bd 82 a1 91 bd 23 5a a1 bd
       -0.15046687 -0.05454964 -0.07110883 -0.0787852
000150 91 69 8c bd 6e 31 dd 3c c9 b0 92 3d cd 66 9e bc
       -0.06856073 0.027001109 0.07162625 -0.019336129
000160 0a c5 d2 bd 8f d1 b6 bd 41 f1 e8 bd 98 b6 02 3c
       -0.102914885 -0.08926689 -0.113741405 0.007978104
000170 4b 6e 89 3c e3 90 2b bc 04 5d 1c 3d 81 88 40 3b
       0.016776225 -0.010471555 0.038174644 0.0029378238
000180 09 8b f1 ba 7f b3 85 bc ca 6d fd 3d 72 89 cb 3d
       -0.0018428277 -0.016320942 0.12374456 0.09938325
000190 cf fb cb bd 70 93 d0 bc 1f 7a 0e be 37 d1 34 be
       -0.09960138 -0.025460929 -0.13913773 -0.17657934
0001a0 76 76 0e be ef 2d ce bd a4 63 22 be 92 3f 32 be
       -0.13912377 -0.10067355 -0.15858322 -0.17407063
0001b0 a9 7b 34 bd aa a5 57 3d 08 9f 17 3d ec 86 46 3d
       -0.044063244 0.052648224 0.0370169 0.048468515
0001c0 3c a8 22 3d e2 cd 8e 3d 48 71 cb bc bc 01 a2 3d
       0.039711222 0.06972863 -0.02483429 0.07910487
0001d0 31 7d e8 bc 8c 28 45 3c 16 a6 a5 3d 14 f5 13 3e
       -0.028380008 0.012033593 0.08088319 0.14448959
0001e0 6d 00 16 3e ed fe 86 3d 3e f4 07 3e 86 a7 61 bc
       0.146486 0.06591592 0.13276765 -0.013772851
0001f0 13 05 1a bc 90 1e 9c bd 0b 00 ea 3c 5e 64 20 bd
       -0.009400624 -0.07623017 0.028564474 -0.039158218
000200 94 fb fb bb eb 0d d5 bd a3 e3 bf 3d 72 6e f5 bd
       -0.0076899026 -0.10403045 0.0936959 -0.119839564
000210 70 98 45 bb 2f 99 69 3d 62 95 43 bd cc ef d1 3d
       -0.0030150674 0.057030853 -0.047749884 0.10250816
000220 32 0c 32 3e 53 3d d9 bb bf 61 10 3e cf 14 13 bd
       0.17387465 -0.006629625 0.14099787 -0.035908516
000230 27 27 a2 3d 39 f2 a5 3b f1 91 49 3e 3a 8d 80 3d
       0.07917624 0.0050642756 0.19684578 0.06276937
000240 22 1d 35 3e 50 3d 11 3d 3f 1a 3c 3e 45 34 4d 3e
       0.17686895 0.035458863 0.18369387 0.2003947
000250 1b 12 61 3d 48 21 cd 3d 46 33 8b 3b cf eb 22 bd
       0.054948907 0.100161135 0.0042480556 -0.039775666
000260 d8 41 2a be 43 e3 71 bb 39 e2 75 bd d4 5e fc 3a
       -0.1662668 -0.003690914 -0.060030196 0.0019254335
000270 d1 75 8a bd e5 ad 06 bd 55 a2 bb 3c 1f fc b1 3d
       -0.06760753 -0.032880682 0.022904554 0.086906664
000280 92 63 24 be 1e 74 8f bd 09 d6 85 3d a4 4e e2 bc
       -0.16053608 -0.070045695 0.065349646 -0.02762539
000290 7b 40 ec 3d 35 eb ae bd 2a a0 da bd cf 84 20 3d
       0.11535736 -0.08540956 -0.1067508 0.039189156
0002a0 6f a6 42 bd 49 de 88 bd 6c f1 76 bc 66 62 c4 bd
       -0.047522005 -0.066830225 -0.015072208 -0.095890805
0002b0 81 48 b7 bd 19 0f c1 3d 19 d7 5e bd 16 12 bf bd
       -0.08949376 0.09426708 -0.05440435 -0.093296215
0002c0 32 e0 e3 bd c4 f1 9a 3c aa fd 5f bd 90 56 24 bd
       -0.11126746 0.018914111 -0.054685272 -0.040121615
0002d0 a2 4a 95 bd 3a 57 e0 3d 1e 26 fa 3b 65 97 b5 3d
       -0.07289626 0.10954137 0.0076339385 0.08866767
0002e0 e8 3e 24 3e 0d 38 d7 3b eb e2 e6 3c 4c 9d 32 bd
       0.16039622 0.006567961 0.028184375 -0.04360704
0002f0 a6 15 a5 3d 37 f8 d2 3d 71 32 e5 3c 04 bf 4e bd
       0.0806077 0.103012495 0.027978154 -0.050475135
000300 6b 81 e1 3d 58 1f df bd b6 a5 96 bd 66 d4 bc 3d
       0.11011013 -0.1089465 -0.073558256 0.09220199
000310 76 55 da 3d b7 ed fc 3d 09 3b c7 3d f0 29 ce 3d
       0.10660832 0.12350028 0.09728057 0.10066593
000320 24 f4 99 bb e0 60 d0 bd 5c 4b d8 bd da c5 25 bd
       -0.0046982933 -0.101747274 -0.10561249 -0.04047189
000330 9a 23 58 3d ec fd 62 3d 6b fd 86 bd fd 88 9e 3d
       0.052768327 0.05541794 -0.065913044 0.07740972
000340 81 0c 37 bc f3 b6 69 bd 42 4d ca bd b4 33 8b bd
       -0.011172415 -0.05705924 -0.09878017 -0.06796971
000350 da 53 b8 3d a5 59 06 3e c7 7b 28 3e db 0f c6 bd
       0.090003684 0.13120134 0.16453467 -0.09670993
000360 3c fe c9 3d a8 c6 fa 3d 5b ab b4 bd f6 ea cb bd
       0.098629445 0.12244922 -0.08821746 -0.099569246
000370 8a 53 83 bc 13 2d 59 3d 92 28 4a 3d 52 47 d9 3d
       -0.016031045 0.0530215 0.049355097 0.106093064
000380 56 da 25 3d 13 58 00 be c0 32 40 3c f5 52 83 bd
       0.040491425 -0.12533598 0.01173085 -0.06412307
000390 fd b0 5d bd f7 d7 ad 3d 6e b9 b0 bd 7c ec ba bb
       -0.054123867 0.08488458 -0.08629118 -0.0057044607
0003a0 6a bf 1a be f4 7d 30 bb 41 00 10 be 53 7b b1 3d
       -0.15112081 -0.0026930543 -0.14062597 0.086661
0003b0 4a ca 58 bd 5c 9e ed bd ab 17 1a be 58 93 f8 bd
       -0.052927293 -0.1160247 -0.15048091 -0.121374786
0003c0 25 a0 00 be e7 0c 13 be 7a 29 29 be b2 88 96 3d
       -0.1256109 -0.1436039 -0.16519728 0.07350291
0003d0 1e d5 74 3d 90 bd df bd 52 a5 2b 3d 99 d2 c1 3d
       0.059773557 -0.10924828 0.04190571 0.094639964
0003e0 fa 6b 09 bd b6 d2 de bd 7c d5 11 bd 01 0a 86 bd
       -0.03355024 -0.10880034 -0.035603985 -0.06544877
0003f0 5f 49 af bd 32 c5 b0 3d e9 11 86 bd 44 cc 1e bd
       -0.08558916 0.08631362 -0.06546385 -0.03876902

bias f4 [32]
000000 f8 c4 2f 3d d3 51 2d bd b2 db cc bd 23 58 96 3d
       0.042912453 -0.04231436 -0.10002841 0.073410295
000010 b5 38 0d 3e 26 e0 c7 bc 48 4c 2a 3a 2c 2b 84 3d
       0.13791163 -0.024398874 0.0006496352 0.06453547
000020 6b a3 08 be 00 cd 38 3e 4c 90 03 3e 52 21 00 be
       -0.13343589 0.18046951 0.12848014 -0.1251271
000030 e9 3c 01 3e 25 50 81 bd 77 7f 6c 3e d8 c6 0a 3e
       0.12620892 -0.063141145 0.23095499 0.13552415
000040 51 c8 43 be 60 a1 97 3a 50 75 4a 3e 46 8c 8c 3c
       -0.19119383 0.0011568479 0.19771314 0.017156731
000050 fa 4d bb 3c 13 45 8d be ad 47 06 be e5 d5 27 bd
       0.02286433 -0.27591762 -0.1311328 -0.04097547
000060 67 71 7b be ea 4d 1c 3e 52 cf 97 3d b9 8e 8a be
       -0.24554978 0.15264097 0.0741259 -0.27062014
000070 ab f4 40 be 49 4d ee bd a7 14 62 be 54 da 1f 3e
       -0.18843333 -0.11635835 -0.2207819 0.1561063

weight f4 [32, 32, 5, 5]
000000 60 32 aa 3c 1a 57 c9 3c fe 7a 01 bc 1a b1 a1 3c
       0.020775974 0.024577666 -0.007902859 0.019737769
000010 7f f0 18 bd 1a 32 87 bc f5 ce 29 3d 3b 7a 4e bc
       -0.03733873 -0.016503382 0.041457135 -0.012602384
000020 55 17 e3 3c 76 16 13 3d 9d b0 22 3c d0 b8 a9 3c
       0.027721087 0.035910092 0.009929803 0.020718008
000030 ae 8a 0e bd 04 b9 1e bd 47 a4 0e bd 0c 90 23 bd
       -0.034800224 -0.038750663 -0.034824636 -0.039932296
000040 c9 e2 f7 3c cb b0 55 3c f2 d6 b0 3c 70 cf 18 bc
       0.030259507 0.013042639 0.021586869 -0.009326801
000050 cd fe da 3b ee 1e fc 3c 63 a3 4a bc 22 8d 22 3d
       0.0066832067 0.030776467 -0.012368056 0.039685376
000060 f2 ab 04 3d 32 90 75 3c f4 d0 ee bb 7f cb 5b bc
       0.032390542 0.014987992 -0.0072880927 -0.0134152165
000070 24 b9 2c 3d 09 14 76 bc 22 db 87 bc f2 ae 4a bb
       0.04216875 -0.015019425 -0.016583983 -0.003092703
000080 2b 74 28 3d 0e 64 83 3c 4f 9d 1e 3d 56 a9 54 bc
       0.04112641 0.01603892 0.03872424 -0.012979826
000090 54 25 ab bc 46 5a 05 38 d0 f2 05 3d 27 8d 23 bc
       -0.020891823 3.1793745e-05 0.032702267 -0.009982384
0000a0 0f 1d 51 bc 43 3b 06 3d ec 7c 1f 3d 93 6f 31 3d
       -0.012763276 0.03277136 0.038937494 0.043319296
0000b0 53 44 b1 3b 0a e7 c4 3b 79 f7 9e 3b d4 3d 33 3c
       0.005409756 0.0060089873 0.0048512784 0.010940034
0000c0 6e bf 37 bd f7 60 06 bd ce d9 34 bc 69 b9 a4 3c
       -0.044860296 -0.032807317 -0.011038257 0.020107942
0000d0 14 28 4d 3c 1d 39 99 bb 64 a9 8d bc 1e 00 19 3d
       0.012521762 -0.004675998 -0.017292686 0.037353627
0000e0 a3 b0 01 3d 6e 71 1b 3c b8 4e 8d bc 6f ce 61 bc
       0.031662595 0.009487493 -0.01724945 -0.013782128
0000f0 8b ca fe 3c e5 ba 93 bc 44 a9 aa bc d1 32 d4 3c
       0.03110244 -0.018033454 -0.020832665 0.025903137
000100 f1 81 80 3b fc c5 d7 bc c8 38 d9 bc 1f fd 62 bc
       0.00392174 -0.026339523 -0.026516333 -0.013854294
000110 60 88 7c 3c fd 15 9c 3b 13 c3 99 3c 09 c0 d5 3c
       0.015413374 0.0047633634 0.018769776 0.026092546
000120 37 16 b6 3c 1b 81 09 3c c0 9e 06 bd a3 9d 70 bc
       0.02222739 0.008392598 -0.03286624 -0.014686021
000130 8b c4 58 bc 8a 19 ab 3a 1c 8f d7 bc b6 96 7f 3c
       -0.013230453 0.0013053876 -0.026313357 0.015599897
000140 e4 d7 04 bb a1 48 5a bb 7d 31 40 3c 99 e2 9d 3c
       -0.0020270282 -0.003330745 0.011730549 0.01927309
000150 63 d6 4e bc c2 e1 dd 3c f3 95 54 3c c4 13 19 3d
       -0.012624356 0.027085189 0.012975204 0.037372366
000160 69 95 31 3d 3c f9 ab bc f7 2f 9e bc 3e 7e 14 3c
       0.04335538 -0.020992868 -0.01930998 0.009063302
000170 63 a1 ce 3c bd 71 89 3b ba b4 99 3b e2 2c eb bc
       0.02522344 0.004194467 0.0046907337 -0.028707925
000180 22 34 b0 3c bf 4b 13 bd c2 e7 da bc c3 5f 88 3c
       0.021509234 -0.03596091 -0.026721839 0.016647225
000190 3b 42 33 3c 47 3f 83 3c 87 4c 83 bc 49 6a ce bc
       0.010941084 0.016021384 -0.016027702 -0.025197165
0001a0 ba c2 a7 3c 5c 00 df bc 39 c5 c9 3b 0b f6 fb bc
       0.020478595 -0.027221851 0.006157544 -0.03075697
0001b0 ab 29 88 3c 32 2b d0 bc 8d db 62 3c b4 f7 72 bb
       0.016621431 -0.025411222 0.01384629 -0.0037073912
0001c0 c1 a7 45 3c 55 57 17 bd 6c 22 c1 bb 5a cd dc 3c
       0.012063921 -0.03694852 -0.005893996 0.026953388
0001d0 16 39 be 3c 37 28 fc 3c b4 93 fb bb 35 f8 27 3b
       0.02322058 0.030780895 -0.0076775197 0.002563012
0001e0 cf 83 86 3c d1 fa 91 3b 18 33 cb 3b 3f e7 51 3b
       0.016420273 0.0044549485 0.006201159 0.0032028703
0001f0 2e 3d 35 3c 22 ea e4 bc b8 0a 8a 3b fc 04 91 3b
       0.01106195 -0.027943674 0.0042127036 0.004425643
000200 6e 3a af bc c7 18 e6 3c 37 02 c2 bb 15 84 2b 3c
       -0.021390166 0.028087987 -0.005920674 0.0104685025
000210 a6 d5 1c 3c 41 e7 b7 bb 6e d0 83 3c b3 1f f2 bc
       0.009572422 -0.0056122844 0.016090598 -0.029556131
000220 f0 c9 74 3b b0 22 dd 3c f0 a1 1a 3c 45 d1 c0 3c
       0.003735181 0.02699408 0.009438023 0.023537287
000230 b4 75 8a ba 98 41 66 bc 0f e5 0b 3d 22 f4 39 bb
       -0.0010563643 -0.014053725 0.034153994 -0.0028374274
000240 7a eb 9d 3c 89 0f c8 bc c0 24 e7 bb 6f 9a 0d 3c
       0.019277323 -0.02442147 -0.0070539415 0.008642777
000250 28 27 ff 3c a6 10 29 3d cd 8b bb bb d9 a3 ac bc
       0.0311466 0.041275643 -0.0057234527 -0.021074222
000260 7b 88 b9 3b 34 9b 38 3c 41 ef 78 bc 58 9f a7 3c
       0.0056620217 0.011267472 -0.015193761 0.020461723
000270 54 f5 39 3c f1 29 9e 3c 46 04 7c bb 14 58 85 bc
       0.011349995 0.019307109 -0.0038454696 -0.01627735
000280 6f f1 06 3d f9 4c 11 3d cc 24 62 3c f9 02 05 3d
       0.032945093 0.035473797 0.013802718 0.032473538
000290 cc f4 e0 3c 3b 83 a3 bc be bf ca 3b 24 6a ef bc
       0.027460478 -0.019960037 0.006187408 -0.029225416
0002a0 d8 ea 59 b9 62 df 95 bc 79 7a 4f 3c 95 4e 58 3b
       -0.00020782219 -0.018294994 0.012663477 0.0033005823
0002b0 56 f6 92 bb 8e 4b 8d 3c 6c 02 ae bc aa 47 f4 3c
       -0.004484932 0.017247941 -0.02124139 0.029819328
0002c0 fd 11 4d 3c 37 d6 31 3c 94 d0 3d 3c 17 2a 1b bd
       0.012516496 0.010854295 0.011585373 -0.037881937
0002d0 e4 07 83 bc 4d f1 34 3c a2 fd e9 3c 2d 49 74 3c
       -0.015994973 0.011043859 0.028563324 0.014910025
0002e0 7d 60 34 bd ac f5 9c 3c 3e d0 ef 3c 24 ce 7c bb
       -0.04403733 0.019160114 0.029274102 -0.0038575018
0002f0 fd fc 1c 3d c2 f6 94 bc 00 10 de 3c 57 78 e2 ba
       0.038327206 -0.01818407 0.027107239 -0.0017278296
000300 cb 4e 96 3c c0 0b 31 3d ea 38 e9 bc 04 5f d0 bb
       0.018348118 0.043224096 -0.028469522 -0.006358983
000310 64 4f 81 3c e6 44 c6 3c 69 fd 7f bc 3d 57 cf bc
       0.015784927 0.024202775 -0.0156243825 -0.025310153
000320 92 9e c8 3c c9 eb d9 bc 0c 8b 07 bd f9 2d b6 bc
       0.024489675 -0.026601689 -0.03309159 -0.022238718
000330 e6 d3 19 bc 59 54 a8 bc 11 46 fa 3c e9 7c f5 bc
       -0.009388899 -0.020548033 0.030550988 -0.029966788
000340 39 9c a9 bb 54 ef bb 3c 20 72 bb bb 2c 03 8b 3c
       -0.005176094 0.022941269 -0.005720392 0.016969286
000350 99 28 63 3c 8b 1b 5e 3c a9 c9 07 3c 6b 4a af bc
       0.01386466 0.013556371 0.008287826 -0.02139779
000360 41 1c c8 bc a2 0e 92 bc 4b 2a 03 3d c4 5d cf 3c
       -0.024427535 -0.017829243 0.032022756 0.025313266
000370 f7 c9 62 bb db 58 8a 3c b3 be e6 bc 90 d2 8c 3b
       -0.0034605244 0.016888073 -0.028167104 0.004297562
000380 af 02 49 bc b2 ad cd bc 71 be eb 3c 33 d9 03 3d
       -0.012268706 -0.025107238 0.028777333 0.03218956
000390 5e 44 1c 3c 52 69 a4 3c ce 2d ea 3b 02 28 f1 3c
       0.009537784 0.020069752 0.0071465736 0.029438023
0003a0 63 50 05 bd bb e0 a3 bc c4 c6 4c 3c fb df 53 3c
       -0.032547366 -0.02000462 0.012498561 0.012931819
0003b0 02 e9 0b bc fb 1e ad 3c 19 b2 fc bc de db fe b9
       -0.00853944 0.021132937 -0.030846642 -0.0004861047
0003c0 a4 66 d6 bc 6e 8b c1 bc 11 78 67 bc 9e 02 9e 3c
       -0.02617199 -0.023626056 -0.014127747 0.019288357
0003d0 19 fa fd bc a6 e2 0f bc 8e 77 f5 3c 74 a9 c2 3c
       -0.031003045 -0.008782065 0.029964235 0.023762442
0003e0 ea 4a 85 bb d2 14 46 3c 92 45 3c 3a fe 71 bf 3c
       -0.0040677683 0.012089925 0.00071819976 0.023369785
0003f0 ee ea cd 3c 48 b5 eb bb ac 23 92 bc 6e 27 5e bc
       0.025136437 -0.0071932413 -0.017839275 -0.013559205

bias f4 [32]
000000 a3 9f f5 bc 74 2a 6e bc 10 79 88 bd 8a c5 80 3d
       -0.029983347 -0.014536489 -0.06663716 0.062876776
000010 ff 78 85 3d 57 14 48 bd a9 31 98 bd ce b0 f1 bb
       0.06517219 -0.048847523 -0.07431347 -0.007375813
000020 69 5b ba 3b 51 1e a7 bd 55 ac 5a bd d8 71 ab bd
       0.0056871665 -0.08160079 -0.053387005 -0.08371323
000030 c9 8d 4f bd de 00 5e bc 0c ee 7c 3d e2 33 78 bb
       -0.050672326 -0.013550011 0.061750457 -0.0037872721
000040 43 6d b3 bc ff ed 9a bd 86 9e a3 bc dc 02 17 3d
       -0.021902686 -0.075649254 -0.01997305 0.03686796
000050 88 01 7f bd ee 00 3a bc a9 ec 77 bd ac 08 0a bd
       -0.06225732 -0.011352761 -0.06052843 -0.033699676
000060 0a aa d6 bc bb 74 44 bd f1 b3 45 3d 08 2d 0e 3d
       -0.026204128 -0.047962885 0.04826731 0.034710914
000070 3b 21 af bc 4b ed cd bd 4e 0c 87 bb 76 5a 73 bd
       -0.02137815 -0.10055026 -0.00412134 -0.059412442

weight f4 [64, 32, 5, 5]
000000 e2 dc fd 3c ab d7 0b bc 6d cf 2e 3c a6 d7 f5 bc
       0.030989114 -0.008535306 0.010669571 -0.030010056
000010 05 2e 72 bc c3 d7 b7 bc 2c b5 0e 39 ec f7 e9 bc
       -0.01478148 -0.02244175 0.00013609667 -0.028560601
000020 5f 3c e4 bc 49 bd 63 3c 6f 1d ff bc 31 8f aa bb
       -0.027860818 0.01390011 -0.031141965 -0.005205058
000030 2b 1f c0 3c 56 84 46 3c 34 68 81 bc 31 e2 09 bc
       0.023452362 0.012116512 -0.015796758 -0.008415745
000040 58 a2 8f bc ad 9f b2 3b 52 17 93 bb 9b 82 28 bc
       -0.017533466 0.0054511637 -0.004488864 -0.010285045
000050 5f 38 11 3c 33 81 c0 3b cc b0 d8 bb 84 b8 66 3c
       0.008863538 0.0058747767 -0.0066128727 0.014082078
000060 f1 01 3a bd c7 11 5a 3b a1 f3 0b bd eb fe ee bc
       -0.045412008 0.0033274756 -0.03416789 -0.029174289
000070 04 0e 27 3c 90 d2 ac 3c 77 ec a3 3c 5f 12 8b bc
       0.010196213 0.021096498 0.020010216 -0.016976533
000080 76 0c 25 bd bb b7 a3 3b 1e d2 c1 3c bc 0f f4 3c
       -0.040295087 0.0049962676 0.023659762 0.029792659
000090 20 6e a8 bb d1 54 84 bc b7 82 ac 3c aa c6 04 bd
       -0.005140081 -0.016153725 0.021058423 -0.032416023
0000a0 d9 a4 cd 3c 13 6a e2 3c 7d fd 9c bc 4f 33 1e bd
       0.02510302 0.02763847 -0.019163841 -0.03862315
0000b0 12 e7 b6 3c b0 e4 e6 bc cf ed 6c 3c f8 b0 57 bc
       0.02232698 -0.028185219 0.014460995 -0.013164751
0000c0 a2 20 73 bc cc 1d a2 3c 55 54 e3 3c 2a b4 8d bb
       -0.014839323 0.019789599 0.027750174 -0.0043244557
0000d0 c0 24 d5 3c 05 14 40 bc 33 d3 b4 bc 39 b3 05 3d
       0.0260185 -0.011723523 -0.022073364 0.032641623
0000e0 fc 66 50 bc dd 95 63 3c d4 b9 07 3c f1 10 65 3c
       -0.012719866 0.013890711 0.008284051 0.01398109
0000f0 fd 32 22 3c 38 f0 2a bd 57 10 09 bd d5 91 48 3c
       0.009899852 -0.041732997 -0.03346285 0.0122418
000100 3d e8 94 bc 0c af 79 bc 8d 4d 2b 3c 04 3e b7 3b
       -0.018177146 -0.015239488 0.010455501 0.0055921096
000110 9b 8b b8 bc 97 85 87 bb 3d 4f 98 3c ec 9f 36 3c
       -0.022527507 -0.004135798 0.018592471 0.011146527
000120 b4 50 1a bd c3 20 41 3b c6 a6 f4 3c 30 6d cb bc
       -0.03767462 0.002946899 0.02986468 -0.024832338
000130 6b 79 8b bc 5b eb e4 bc cd 05 94 bc c8 8a ba bb
       -0.01702567 -0.027944257 -0.018069172 -0.0056928135
000140 bc b2 e0 3c 61 76 58 3c 9f 7f f6 3c 8b ec 13 bc
       0.027428977 0.0132118175 0.030090151 -0.009028564
000150 75 58 bf 3c eb 3a de bc 6d 33 20 3d 10 6e 33 3d
       0.02335761 -0.027127704 0.039111543 0.043806136
000160 5a 38 89 bc 0c a3 34 bd a6 88 80 bc 2c 90 0f 3c
       -0.016750503 -0.044100806 -0.015690159 0.008762401
000170 49 6f db bb cc 0f a3 bc f6 bb ab 3b d3 8b 00 bd
       -0.006696616 -0.019904993 0.0052409125 -0.031383347
000180 0e 43 1e bd 47 84 1c bc 2a 34 8e bc 5f 35 10 3c
       -0.038638167 -0.009553022 -0.017358858 0.008801787
000190 a6 fb c2 bc 9d 94 c2 3c 37 7b 3e 3c 0e 89 a4 3b
       -0.023801636 0.023752505 0.011626056 0.005021221
0001a0 61 1c a4 3c cf 5b c2 3b 1e 51 09 3d 07 c4 79 3c
       0.020033063 0.0059313546 0.033524625 0.0152444905
0001b0 9f 3c 71 bc b1 aa 55 bc 78 c5 d3 3c 0b 1a 3b 3c
       -0.014723926 -0.013041184 0.025850996 0.011419783
0001c0 0e 82 9e 3c 24 89 d1 bc e7 c4 34 bd ae 5c 3b 3c
       0.019349124 -0.025578089 -0.044133093 0.011435671
0001d0 a7 6d cb 3c 09 83 44 3c 6e d6 0f 3d 69 7e 1a bd
       0.02483256 0.011994132 0.035116605 -0.03771821
0001e0 a1 87 95 3c af 51 79 bc cf 92 29 3d 73 5b c3 ba
       0.01825315 -0.015217229 0.041399773 -0.0014904573
0001f0 41 82 2e bc 30 06 0c bd 9e 77 44 bc eb a5 15 3b
       -0.010651172 -0.03418559 -0.01199141 0.002283449
000200 cf 02 50 bc 5d a7 d0 bc 0e 4b af bc 96 72 c8 bb
       -0.012695982 -0.02547043 -0.021398094 -0.0061171753
000210 48 a0 17 bc 16 76 ca 3c 0d 8f 14 3c 29 c9 65 3b
       -0.009254523 0.02471451 0.009067309 0.0035062528
000220 c9 dc 44 bb 81 0a 81 3c 95 b1 58 3d c7 c3 0e 3d
       -0.0030038825 0.015752079 0.05290373 0.034854677
000230 ae c7 6c bc 18 49 5d 3c 43 e7 d4 3c 88 48 8a bc
       -0.014451904 0.013506196 0.02598918 -0.016880289
000240 04 f1 a1 bc 47 52 b6 3c c8 d1 88 3b f3 4c 91 3c
       -0.019768246 0.02225603 0.0041753985 0.017736888
000250 e7 de 01 3d 79 e9 5e 3a 5d 79 94 bc cd bc 1a bc
       0.031706717 0.0008503418 -0.018124277 -0.009444428
000260 f6 b9 4e bd b7 04 65 3c d6 79 2e bd ae 7d ce bc
       -0.050470315 0.013978175 -0.04259666 -0.025206413
000270 c5 0d b8 3b 89 22 b5 bc 93 67 10 bb 57 9e da bb
       0.005616876 -0.022111194 -0.0022034391 -0.0066717076
000280 dd c9 8b 3c f6 de 12 bc 06 58 ed 3c d2 ea 16 3d
       0.01706403 -0.008964291 0.028972637 0.036845036
000290 20 9a c0 3c 9c d1 0d bd f9 19 a6 bb 18 14 e5 bb
       0.023510993 -0.034623727 -0.005069014 -0.0069909208
0002a0 ca 9c b3 3b a2 03 10 bc 7b a2 e4 bc 4e 0d a8 bc
       0.005481337 -0.008789929 -0.027909508 -0.020514157
0002b0 95 4b 15 3a 4b dd 5f bc d5 fa 67 3c 5e 95 f6 bc
       0.00056951615 -0.0136636 0.014158924 -0.03010052
0002c0 a9 cf d6 3c b4 15 0c bc 66 47 e5 3c 1f 42 58 bc
       0.026222067 -0.008550096 0.027988147 -0.013199358
0002d0 f8 9f 82 3c d1 93 43 3c 82 6e 0b bd ce 49 03 3d
       0.01594542 0.011937098 -0.034040935 0.032052808
0002e0 34 c5 57 bc dd 10 14 bc 3b f0 0d 3c 2e d8 21 3c
       -0.0131695755 -0.009037224 0.008663232 0.009878201
0002f0 49 f7 6b 3c 5b 5e 0f bb 39 71 91 bc 00 0d b4 bc
       0.014402219 -0.0021876309 -0.017754184 -0.021978855
000300 8a 2e 0a bd 51 b2 a6 bc 67 f2 d3 bc 7e 6a 08 bc
       -0.03373579 -0.0203487 -0.025872422 -0.008326171
000310 81 27 40 bd e1 cd 29 bd 0d aa 29 bd 38 61 84 3b
       -0.046912674 -0.041456107 -0.04142194 0.0040399097
000320 b2 ca d9 3c 64 8a 2d 3b ff 03 c4 3a 5d 05 24 bd
       0.02658591 0.0026480192 0.0014954804 -0.040044177
000330 96 50 3f bd 06 de a5 3c 9a 93 92 3c dc 7c f3 bc
       -0.046707712 0.02024747 0.017892648 -0.029722624
000340 5b 00 d6 bc 06 f1 6e 3a 4b 81 e4 3b 7c cf 8b 3c
       -0.026123216 0.0009114895 0.0069734207 0.01706671
000350 41 6a d6 bc 7a c6 ed bc 32 e8 88 bc 2e ac e2 bc
       -0.026173713 -0.029025305 -0.016712282 -0.027669992
000360 df 0e f9 bc 72 b6 b6 3b d7 21 5c bd 93 53 c2 bc
       -0.030402599 0.0055759484 -0.05374321 -0.023721492
000370 47 c7 57 3c a1 2c 91 3a 0c 16 1a bd 02 17 6f bd
       0.01317007 0.0011075923 -0.03761868 -0.05837155
000380 77 03 52 bd 9d 31 96 3c 00 8b ef 3c 35 44 60 bc
       -0.051272836 0.018334204 0.029241085 -0.013688137
000390 52 af 56 3c 3a 84 52 3b 9d 41 33 bb 61 04 49 bd
       0.013103323 0.003212227 -0.002735234 -0.04907644
0003a0 e4 29 05 bd 1c ca fc 3b 9c af d7 bc 63 c4 27 3c
       -0.032510653 0.007714523 -0.026328854 0.010239693
0003b0 3e 21 bb 3b 2e 0f 13 bc 6a b6 25 3d 78 24 1d bc
       0.00571075 -0.008975787 0.040457167 -0.009591214
0003c0 d9 c9 d0 bc e7 33 37 3a ee be d9 bb 76 95 18 3d
       -0.025486873 0.000698863 -0.006645075 0.037251912
0003d0 05 aa e1 3c 44 b9 1a bc 15 36 5d bc 33 c4 a9 bc
       0.027546892 -0.009443585 -0.013501664 -0.020723438
0003e0 97 be 01 bc 25 a3 33 3d e5 d3 2d bc c3 ef 05 bd
       -0.007918975 0.04385676 -0.010609602 -0.032699358
0003f0 13 1c fa bc 05 40 5c bd c0 db f3 bc 28 dc 8e bc
       -0.030530965 -0.05377199 -0.02976787 -0.017438963

bias f4 [64]
000000 ae 52 3e bb eb 40 eb b9 f0 e9 e8 bb 22 5d 9d 3c
       -0.002904098 -0.0004487106 -0.0071079656 0.019209448
000010 f4 0c f5 bc 5e 8f 15 bd 50 14 2b bd 4a 43 5e 3c
       -0.029913403 -0.03651368 -0.04176742 0.013565848
000020 ac b2 e7 bc 83 9b bc bc 54 28 80 bc 52 cf 9a bc
       -0.02828344 -0.023023373 -0.01564423 -0.018897686
000030 54 f1 c6 bc b2 10 70 bd df 02 f0 bc dd 00 24 bd
       -0.024284996 -0.058609672 -0.029298244 -0.040039886
000040 37 e9 55 bd 2a fe 15 bd 5a 10 67 3c 45 dd af 3b
       -0.052224364 -0.036619343 0.01410302 0.0053669536
000050 20 0e 0f bd 08 01 af 3c 4a c5 7b bd 53 32 e8 3c
       -0.03492558 0.021362796 -0.061467446 0.028344309
000060 e5 a1 d8 3b 64 06 b5 bd 15 8f e3 bc f1 c8 a0 bd
       0.006611096 -0.088391095 -0.027778188 -0.078508265
000070 8a 58 e0 3b d3 26 2a bd 7b 1b e1 3b 22 ff 0f bd
       0.006846492 -0.041540932 0.006869731 -0.035155423
000080 01 b8 e6 3b 2f e2 a6 bd b4 ff a7 3c 0c 3b b0 bb
       0.007040978 -0.0814861 0.020507671 -0.0053781327
000090 50 31 8b 3c fa 43 0a bd e4 b7 a2 3b 2f e6 46 bd
       0.016991287 -0.033756234 0.004965769 -0.048559364
0000a0 2b e0 42 bd 2e 6c 93 bd c0 93 95 bc 18 5f 45 bc
       -0.047577064 -0.07198368 -0.01825893 -0.012046598
0000b0 54 eb 27 bd 52 a5 fc bc db 8f ea bc 40 a4 b2 3c
       -0.04099591 -0.03084055 -0.028633049 0.021806836
0000c0 ce b4 57 bc 0d e9 2c 3b 17 65 a6 3b 7f 7f 92 bd
       -0.013165666 0.0026384026 0.005077969 -0.07153224
0000d0 46 a6 49 bd 6b 17 bc 3c 4b 86 df 3b 85 6e a0 bc
       -0.049230836 0.022960385 0.006821429 -0.01958395
0000e0 75 22 c7 3c ab 17 5f bd 37 23 a9 bb 19 b6 c7 bc
       0.024308423 -0.05446593 -0.0051616686 -0.024378823
0000f0 1a 1e 94 bd 5d 85 16 bd 0a 1b 7b bd 44 2d 3b bd
       -0.07232304 -0.03674828 -0.061305083 -0.045697466

weight f4 [64, 1024]
000000 74 7b a8 bc dc 37 a1 bc 3a 87 4d bd 04 a1 72 bb
       -0.02056668 -0.019679956 -0.05017779 -0.0037022242
000010 46 3c cc 3b aa 8b b8 3c ff 57 59 3c 79 2a b8 3c
       0.006232771 0.022527535 0.013265609 0.02248119
000020 a4 5f ae bb 86 53 b1 3a 0a 75 d4 3b 38 fd db bc
       -0.00532146 0.001352892 0.0064836787 -0.026854143
000030 43 a8 03 bd f1 ac b4 3b 01 8b 8f bc 0f 29 82 bc
       -0.03214289 0.0055137803 -0.017522337 -0.015888719
000040 b2 b5 2d 3c 85 7c b1 bc 4a 53 0b bb fe a8 46 bc
       0.010602402 -0.02166582 -0.002125936 -0.012125252
000050 89 10 d2 3c c2 e3 e3 3c 28 42 e7 bb 7d be 59 bb
       0.02564265 0.027818564 -0.007057447 -0.0033225112
000060 48 e9 f8 3b c1 ab e7 3b fa cd d8 bc 08 70 a4 3c
       0.0075961687 0.007070035 -0.026465405 0.020072952
000070 45 b8 ad 3b df ce e6 3c 39 70 df bc 9d 53 e8 bb
       0.0053015077 0.028174816 -0.027275192 -0.0070900456
000080 f3 e6 6d bc f5 fe 26 3c c4 f6 a5 bb 7c a7 8a bc
       -0.014520395 0.010192622 -0.005064817 -0.016925566
000090 e2 39 22 bd 81 34 1f 3d 1a 18 8e bc c7 17 93 3c
       -0.039605983 0.03886843 -0.017345477 0.017955674
0000a0 54 a8 5d 3c af f8 31 3d 47 d9 09 3d 40 ff 87 bb
       0.013528902 0.043450054 0.033654477 -0.004150301
0000b0 d8 f7 7f bc 9d 94 c5 39 d3 be 38 3d 2e d5 a5 3b
       -0.015623055 0.00037685494 0.04510386 0.0050608134
0000c0 0a 8f 4f bc 53 0b 3a 3d a8 7b 88 bb c4 7a e1 3c
       -0.0126683805 0.045420956 -0.0041651316 0.02752436
0000d0 bf 1f ad 3b 35 ae 90 3c 8e ff fa 3c 18 93 36 3b
       0.0052833254 0.017661193 0.030639436 0.002785867
0000e0 cc 8b dc 3c 30 74 8a bc a0 50 78 bb e5 73 f7 bc
       0.02692213 -0.016901106 -0.0037889853 -0.03020663
0000f0 84 8b 17 bd 7e 80 ff bc 32 95 f4 bc 5d c8 1e bc
       -0.036998287 -0.0311892 -0.029856298 -0.009691325
000100 12 09 c3 bc 06 b7 b7 3c 32 c0 50 bc 47 4e 22 3b
       -0.023808036 0.02242614 -0.012741135 0.0024765895
000110 ed 11 82 bc d7 95 bc bc c9 54 ce 3c 4d ec 37 3d
       -0.015877688 -0.023020668 0.025186913 0.04490309
000120 43 11 0b 3d 08 a6 12 3d 32 16 b7 3c 75 40 a7 3a
       0.03395201 0.03580287 0.02234945 0.0012760299
000130 a8 d0 fc bc 15 87 a4 bc 19 c9 84 bb 09 14 06 bc
       -0.030861214 -0.020083943 -0.004052293 -0.008183488
000140 19 d3 a6 bc d4 42 8b bc b4 d6 ad bc e3 f0 8e bc
       -0.020364331 -0.01699964 -0.021220542 -0.017448848
000150 7d 6b 43 3d 6e d6 10 3d 68 af b2 3c 1b f9 24 3c
       0.04770993 0.035360746 0.021812156 0.010069157
000160 b3 a4 1a bc f4 84 a6 bb 49 23 d8 bb a5 5b 98 bb
       -0.009438681 -0.005081767 -0.006596003 -0.0046495968
000170 8f 13 95 3c 91 f3 d3 3c 69 1a a1 bc 65 b9 55 3c
       0.018197803 0.025872977 -0.019665914 0.01304469
000180 e8 75 50 bc 50 8d a0 3c ab 54 bb 3c 20 67 fe bb
       -0.012723424 0.019598633 0.022867521 -0.0077637583
000190 f7 46 ca 3c 42 ea 8b 3c 5e ae c0 3b 91 8e 1c 3c
       0.024692042 0.017079476 0.005880161 0.009555475
0001a0 00 68 b5 3a f9 a6 f8 ba 58 7d 82 3c ce 82 62 bc
       0.0013840199 -0.001897066 0.01592891 -0.013825132
0001b0 96 f2 67 bc 2a 72 2c 3b 59 01 40 bd 47 38 bd 3c
       -0.014156958 0.0026313164 -0.046876285 0.023098124
0001c0 59 dc 4b 3c 4e 9e d3 bb 0e 3c 18 3d 06 5e 27 3b
       0.012442672 -0.0064580804 0.037166648 0.002553822
0001d0 49 ef 92 bc 40 15 60 bc 51 cf b9 3c 9d 6f d3 bc
       -0.017936366 -0.013676941 0.022681864 -0.025810057
0001e0 1a 4b 51 3b 78 f4 2c 3c a4 84 49 3d 85 94 df bb
       0.0031935633 0.010556333 0.04919876 -0.006823125
0001f0 2b f8 f1 bc 02 6c 26 3c d4 41 7c 3c 93 b8 02 3d
       -0.029537281 0.010157587 0.015396554 0.031914305
000200 26 58 1a 3c 60 ee 1c 3d 8b 69 44 3d 9d 92 92 3c
       0.00942043 0.03831327 0.047952216 0.017892176
000210 b8 2a 9a 3c 2f 1b 0a 3d f5 8f 86 bc 19 42 12 bd
       0.018819198 0.03371733 -0.016426066 -0.035707567
000220 0f e6 23 3b 4a a5 f2 3c 2a 15 14 bd b8 2e ed bc
       0.0025008952 0.029619832 -0.036152996 -0.028952941
000230 eb 3f c7 bc 5b 9b ea 3c f9 0e 83 39 9a 79 0d bd
       -0.02432247 0.028638532 0.00024997423 -0.034539796
000240 b3 a6 18 3d e9 b9 2a 3d ad 7d 31 ba 4f f3 3b 3c
       0.03726835 0.041681204 -0.00067707413 0.0114715835
000250 ce d0 99 3b 72 1e 0b bc c8 50 90 bb 51 7b 02 bd
       0.004694081 -0.008491145 -0.004404161 -0.031855885
000260 f4 c9 71 3c da eb fd 3c 85 46 b3 3c 0a 1c 2b 3a
       0.014757622 0.030996252 0.021884212 0.00065273105
000270 02 8b 00 bd 49 36 6a 3a 94 33 4c 3c 63 61 b1 bc
       -0.03138257 0.0008934481 0.012463469 -0.021652883
000280 fc f0 de 3c 82 99 c8 39 3b 87 4a 3d c5 a0 a0 bb
       0.02721452 0.00038261345 0.049445372 -0.0049019777
000290 e6 21 be bb 35 1c 2b 3b 16 c1 11 3c 34 ff 85 3c
       -0.005802381 0.0026109342 0.008896133 0.016357042
0002a0 6a 98 95 bc f4 53 38 3b 11 03 27 bd a2 47 80 bc
       -0.018261153 0.0028126212 -0.04077441 -0.015659157
0002b0 33 71 6e 3c 6d 25 97 bc cc ea 0f bd 8e 3d 23 bd
       0.014553356 -0.018450463 -0.03513603 -0.039853625
0002c0 a5 72 cc 3c db 4e 83 3c ab b9 25 3c d7 54 12 bd
       0.02495701 0.016028812 0.0101150675 -0.03572544
0002d0 fc 90 98 3c ff 8b ae 3c 5e 9a 69 bc 76 37 8a 3c
       0.018623821 0.02130699 -0.014257995 0.016872149
0002e0 3c 66 5f 3c 1f 57 44 bd 72 05 ef bc 89 08 33 3c
       0.013635214 -0.047934648 -0.029177401 0.010927328
0002f0 ed a0 13 bd 18 7f 9f bc 7e c0 87 3b d4 c1 d6 3c
       -0.036042143 -0.019469783 0.00414282 0.026215471
000300 cc 34 b0 bc 08 dc 25 bc 4a 5d 66 bc 72 8f 18 bb
       -0.02150955 -0.01012326 -0.014060328 -0.002327886
000310 61 4f 30 bd 20 45 83 3c c6 22 50 3b 17 6a b1 bc
       -0.04304445 0.016024172 0.0031759008 -0.021657033
000320 54 fc 16 bd f1 0e f4 ba 5d ac 03 3c 34 c4 15 3c
       -0.036861733 -0.0018620176 0.0080367 0.009141017
000330 01 b0 63 bc 9e 05 03 bc 3d 6f aa bc 22 96 3f 3c
       -0.013896943 -0.007996945 -0.020804996 0.011693509
000340 7d b8 32 3c e3 9b 60 bc 28 20 04 3d 85 3f bc bc
       0.010908243 -0.013709041 0.03225723 -0.022979507
000350 b2 62 fc bc 53 a0 09 3d 5a 43 ae bb 13 a1 c0 3b
       -0.03080878 0.033600163 -0.0053180875 0.0058785765
000360 09 be e2 3c cf e9 93 3c a3 d8 e5 3c 9e f7 4e bc
       0.027678506 0.018055825 0.028057402 -0.012632279
000370 a7 75 d9 3c 93 29 5e 39 c2 7f 61 3c bd cc c9 bc
       0.026545359 0.00021187057 0.01376337 -0.02463376
000380 1a 7a f4 3c 53 5d d5 ba 76 09 ea bc dc 7f 5a bc
       0.029843379 -0.0016278423 -0.028568964 -0.013336148
000390 57 5a 47 bc 10 39 24 3d 6f fb a3 bc c0 2d 8a bc
       -0.012167535 0.04009348 -0.020017354 -0.016867518
0003a0 51 9c 08 3d 8a a2 90 bc 49 34 1b bc 72 ac 0a 3d
       0.0333522 -0.01765563 -0.009472915 0.033855863
0003b0 66 1a 05 3a 57 2f 69 3c 61 84 17 3c 69 be d2 3b
       0.0005077481 0.014232478 0.00924787 0.00643139
0003c0 9d ae 45 bc e3 e0 7c bc 80 d9 c6 bc c0 a7 0d bd
       -0.012065557 -0.015434477 -0.024273634 -0.034583807
0003d0 95 c1 ab bb fd ee ef 3c 69 a5 10 3d d2 59 dd 3c
       -0.0052415826 0.029288763 0.035313997 0.027020369
0003e0 9c 7b 3b 3a 4a e2 0f 3d d0 65 00 3c a7 5e 1d bb
       0.0007151903 0.035127915 0.007836774 -0.0024012716
0003f0 19 fc 76 3c 3d 4d b3 b9 22 4e e4 3b 3b 1f 24 3d
       0.015074753 -0.00034199088 0.006967322 0.040068846

bias f4 [64]
000000 90 69 23 bc 23 32 e0 3b d6 dd 4d 3d e7 a4 fa bc
       -0.0099738985 0.0068419143 0.050260387 -0.03059621
000010 11 0d f0 bc e4 ac a0 bc 17 d1 51 bc da 4b ab bb
       -0.029303106 -0.01961369 -0.012806199 -0.005227548
000020 8d 43 74 3c d2 a9 bb bc a1 07 e1 3c 6d 01 bd 3c
       0.0149086835 -0.022908125 0.027469458 0.023071969
000030 04 36 c4 3c a4 3c c8 bc 7e 02 b9 bc 14 95 3e bd
       0.023951538 -0.024442978 -0.022584196 -0.04652889
000040 cf a2 e9 3b 92 d3 23 3d c2 2c 17 3d 4f c1 1a bd
       0.007130004 0.03999669 0.03690792 -0.03778201
000050 78 a5 0f bb d0 28 86 3d 03 3c a0 bc a9 05 0b 3d
       -0.0021918695 0.06550753 -0.019559866 0.033940945
000060 57 9e 57 bd c2 ae 36 3d 9d 0e f7 bb 7c d3 e7 bb
       -0.05264124 0.044600256 -0.007539584 -0.0070747714
000070 28 11 95 bc 8e 40 ff 3c 28 5c d8 3c fc 8a 69 b9
       -0.018196657 0.031158712 0.026411131 -0.00022272387
000080 7a 22 f2 3c b3 a5 dc bc fa d1 f6 bc 79 cf 95 bb
       0.029557455 -0.02693448 -0.030129422 -0.004571852
000090 7f 9f 98 bc 2f 1d 58 3c 7a 25 b0 bc f4 b5 cb 3c
       -0.018630741 0.013190552 -0.021502245 0.024867035
0000a0 0a 32 93 3b 98 83 13 bb 2e 70 3c bc 1e 84 fd 3c
       0.004492049 -0.0022508856 -0.011501355 0.030946787
0000b0 30 6b c9 b9 d4 72 89 bd 75 aa 2b bd 19 a6 1e bd
       -0.00038417568 -0.06711355 -0.041910607 -0.03873262
0000c0 68 6d e1 3c 2f 63 8a 3c 2e b7 1d bc 0a cb 55 3b
       0.02751799 0.016892998 -0.009626193 0.0032622241
0000d0 84 70 b1 bb d9 3b 31 bd f1 79 a8 bc ff ad 76 bc
       -0.0054150242 -0.043269966 -0.020565959 -0.015056132
0000e0 5e 5b 60 bb 18 42 70 3d 35 6e d4 3b 69 34 0d bc
       -0.0034234147 0.058656782 0.0064828643 -0.008618453
0000f0 70 04 21 bd 1a 64 96 3c 65 cf ca bc 91 00 8f bc
       -0.039310873 0.018358279 -0.024757097 -0.017456325

weight f4 [10, 64]
000000 2e bc 21 3b d6 d0 7a 3d 8f 58 af bd 60 61 6d bc
       0.0024678814 0.061234318 -0.08561813 -0.014488548
000010 79 5b 89 3d c4 d3 55 3c 44 50 d4 3d 7d da 69 3e
       0.067069 0.013050977 0.10366872 0.22837253
000020 10 d8 4c 3d 5a 91 9e 3c b9 00 5f 3c f5 c5 4b 3d
       0.05001074 0.019356418 0.013611012 0.049749333
000030 7c 69 88 3d 13 bc 35 3e 85 7a 0c 3e 22 90 c8 3d
       0.066607445 0.17747526 0.13718612 0.09793116
000040 d9 10 1f be b4 14 1e be a1 db 90 bd 8e f5 93 3d
       -0.1553377 -0.15437585 -0.07073141 0.0722457
000050 d5 9a eb 3b 8b 6f 62 be ae 2c 9d 3d be ae 40 3c
       0.0071900883 -0.22112863 0.076745376 0.011760412
000060 a3 7e f3 3c 33 2f e3 bd 6b 45 c3 bc 58 01 e8 3c
       0.029723471 -0.11092987 -0.023836812 0.028320953
000070 f9 c7 c6 bd f7 82 4c bd 24 a4 b2 bd 79 b0 eb bc
       -0.097061105 -0.049929585 -0.087227136 -0.028770672
000080 3c cc 38 bd 5f de 5e be a4 cb 29 bd 9f 82 a4 bd
       -0.045116648 -0.21764515 -0.041453972 -0.080327265
000090 4c ae 28 3e 46 41 33 be 08 e4 ce 3c f2 57 87 bd
       0.16472739 -0.17505369 0.025255218 -0.06608571
0000a0 ef 0a be bd f9 87 e3 3b 9b 15 99 3d b8 c6 a9 3d
       -0.09279429 0.0069436994 0.07474824 0.08289856
0000b0 02 6e 99 3d f1 e1 e9 3d a1 93 02 3e ed 18 e0 3d
       0.074916855 0.11420048 0.12751628 0.10942254
0000c0 b2 05 eb bd 49 a9 22 3e 6b fe 0e 3e f5 18 a2 3d
       -0.11475696 0.1588489 0.1396424 0.079149164
0000d0 3b 90 b6 3c da 13 97 3d 69 0a cf 3d 52 16 b3 bd
       0.022285571 0.07376833 0.101094075 -0.08744492
0000e0 54 a1 66 3e bc ba 17 be 12 5a 20 be 77 2e 00 3e
       0.2252248 -0.14817327 -0.15659359 0.12517725
0000f0 88 37 0a be ac 44 f5 bd 0c fa 31 3e e9 72 dd 3d
       -0.13497746 -0.11975989 0.17380542 0.10812933
000100 cd 7d 18 3e 52 28 9e be 45 d5 14 be be 5b ad bd
       0.14891739 -0.30890137 -0.14534481 -0.08464764
000110 0f 45 45 3e b6 88 20 be 40 1e 46 be ec ec b5 bd
       0.19264625 -0.15677151 -0.19347477 -0.0888308
000120 df e5 8a bd 04 67 d6 bd 55 f6 9b be f1 72 fe bd
       -0.06782126 -0.104688674 -0.30461374 -0.12424267
000130 0f c8 92 bc e6 ee 7a 3e 03 15 9f 3e 21 2d ed 3d
       -0.017917661 0.24505195 0.31070718 0.11580873
000140 92 12 ac bd 43 02 1e be f2 c1 b4 bc 1c 4a dc 3d
       -0.084019795 -0.1543055 -0.022065137 0.10756323
000150 69 d0 0b be a4 0b e0 3d 5c a4 f3 bd 4d 04 0b 3e
       -0.13653721 0.1093972 -0.118965834 0.1357586
000160 72 1b b3 3c c2 a0 31 3e c8 21 3c 3d 22 9d 35 be
       0.021863673 0.1734648 0.045930654 -0.17735723
000170 3b e3 39 be 40 50 41 bc a8 91 c3 bd 8a e0 5b bc
       -0.18153088 -0.011798918 -0.09549266 -0.0134202335
000180 30 fe ff bd cc 00 76 bc 6d b8 99 bd ef 78 67 be
       -0.12499654 -0.015014838 -0.075058796 -0.22604726
000190 74 89 fe bd 2f 7d 1b 3d 87 0c 00 be f2 94 17 3e
       -0.12428561 0.03796118 -0.12504779 0.14802912
0001a0 d8 d2 2c 3e 1c 68 cd bd 12 b0 38 be fb 07 20 be
       0.16877306 -0.10029623 -0.18035915 -0.15628044
0001b0 27 d3 e7 3b ef 8f 6b be c2 f9 41 3c 3b 71 b9 3c
       0.007074732 -0.23004125 0.011839332 0.022637
0001c0 f3 60 dc 3d db f1 80 3c 62 63 db 3d c0 e1 4a bc
       0.10760679 0.015740326 0.10712315 -0.012382925
0001d0 00 0c 0c be f4 76 cf 3d 9e e9 11 be 1a 42 44 3d
       -0.13676453 0.101301104 -0.14249274 0.0479146
0001e0 11 23 e9 3d fa 1e 64 3c 9d 06 ea bd b9 e1 2c 3e
       0.113836415 0.013923401 -0.11427043 0.16882981
0001f0 4c 65 29 3d 8f 90 12 3e 4d 54 1e be 6d 9d 8c be
       0.04135637 0.14312957 -0.15461846 -0.27463856
000200 76 81 c3 3d a0 8b 30 3e a6 83 19 be 9c 76 0b 3e
       0.09546177 0.17240763 -0.14991626 0.13619465
000210 d7 ea 8e bd 4f 30 64 3b a3 68 ee 3d a6 8b ee bd
       -0.06978386 0.0034818833 0.116410516 -0.116477296
000220 7f 34 cf 3d 10 c5 f5 bd 4b 32 dc 3d 6f da 19 3d
       0.10117435 -0.12000477 0.1075178 0.03756183
000230 28 60 0f 3d 34 9c 37 3c ee 74 04 be e3 fc 79 3d
       0.03500381 0.011206675 -0.1293523 0.061032187
000240 6e 01 4e 3d a8 a9 fe 3d 50 2b 65 3d 76 5f 09 bd
       0.050294332 0.12434703 0.05594951 -0.033538304
000250 ad bb a2 bd 43 c9 2e be 7d 0f b5 bd 6f d3 b3 3d
       -0.079459526 -0.17068963 -0.08840845 0.08780562
000260 d6 74 06 be db fe ac 3d 9b 01 d4 bb 3c 9f 37 bd
       -0.13130507 0.08447047 -0.006469918 -0.044829592
000270 72 07 b6 bb fb 90 b4 3c ea 6f e0 3d 2b 04 4d bd
       -0.005555087 0.022041788 0.10958846 -0.050052803
000280 cc bf 0c 3b e4 2a 4a 3e f3 88 67 bd 5e f0 44 3e
       0.0021476625 0.19742924 -0.05652709 0.19232318
000290 7c 45 be bd 5b da 83 bd ea 40 ff bd e3 d5 10 be
       -0.09290597 -0.064381324 -0.12463553 -0.14144091
0002a0 db f9 24 be fa 92 d6 3c e1 e8 3b bd bb 7e 92 bd
       -0.16110937 0.02619313 -0.045876388 -0.07153078
0002b0 07 8f fa 3d 9f af 76 3d b8 7f 11 be 03 42 83 3c
       0.122343116 0.06022608 -0.14208877 0.016022688
0002c0 ed 6e a6 3d 6b af 08 3e 72 39 ab bd 3b 50 27 be
       0.08126626 0.13348167 -0.08360566 -0.16339199
0002d0 bd 91 27 3e 78 b6 19 be 4b 24 2f 3e c2 b8 07 bd
       0.16364188 -0.15011013 0.17103688 -0.033135183
0002e0 e5 f8 19 3e cf 4b 1c 3c ca 4a ee 3d e7 8f c9 3d
       0.15036352 0.009539559 0.11635359 0.098419
0002f0 64 95 37 be 0c 8a ab bd c9 04 2d 3e f3 80 0c 3e
       -0.17928082 -0.0837594 0.16896357 0.13721065
000300 b9 80 de 3d 8c 8b 00 3e e3 5d 2c 3d f6 5e 13 be
       0.10864396 0.12553233 0.042081725 -0.14391693
000310 07 78 fc bd fd fe ce 3b 5a 04 f3 3d 91 35 b3 bc
       -0.12327581 0.006317018 0.11866064 -0.021876128
000320 13 3a 38 3d c2 50 d9 3c a2 2a f5 bd de e1 c4 3c
       0.04497726 0.026527766 -0.11971022 0.024033483
000330 21 ef 6d bd 15 d3 5e be f9 dd 2e be 13 53 90 bd
       -0.05808938 -0.21760209 -0.17076863 -0.07047095
000340 a8 b4 ba 3d 2a 00 36 3b 57 d2 16 3e 26 d7 c9 bd
       0.09116489 0.0027771094 0.14728676 -0.098554894
000350 0c 6f 11 3e 13 65 de bb 99 e8 b8 bd 6a ed 9b bd
       0.14202517 -0.0067869513 -0.090287395 -0.076136425
000360 69 f0 66 bd fd f9 08 3e 6a bf a2 3b 0a 2a 9a 3d
       -0.056381617 0.13376613 0.004966666 0.075275496
000370 39 bf 7b bd 8b c8 bc 3d 18 63 a6 3d f9 5c 16 3e
       -0.06146166 0.09217938 0.081243694 0.14683904
000380 3a 81 ee bc 0a 8c 1e 3e 9a 69 e3 bd a5 16 95 bd
       -0.029114354 0.15483108 -0.11104126 -0.0727971
000390 5a 39 d7 bd 60 9e bb 3c a4 ee ba bd 5a 66 c7 bc
       -0.10508986 0.022902668 -0.09127548 -0.024340797
0003a0 a6 01 e5 3c f3 f0 ca bd 86 1c de 3d 74 95 16 3d
       0.027954888 -0.09909239 0.10845284 0.036763623
0003b0 f6 c9 3d be 31 56 db bc cb 0a 9f 3d 52 a6 6b 3d
       -0.18534073 -0.026774498 0.077657305 0.057531662
0003c0 a2 f3 96 bd 24 a7 0e bd f5 1f 63 bd 93 6e 0a 3e
       -0.07370688 -0.034827366 -0.0554504 0.13518743
0003d0 c1 ee 34 3e 96 ee b4 bb f6 1b 7e 3d 7d 1b c0 bc
       0.17669202 -0.0055216057 0.062038384 -0.023450607
0003e0 50 78 29 3d b2 41 09 3d 4e 58 95 3d 6d cc 0d be
       0.041374505 0.033509918 0.072922334 -0.13847513
0003f0 5c 2d 1a be e8 87 06 3e b8 76 82 3c 61 1e 9d bd
       -0.15056366 0.13137782 0.01592575 -0.0767181

bias f4 [10]
000000 56 f9 06 be cc 25 87 3c e4 d5 74 3d bb fe bc 3d
       -0.13181052 0.016497515 0.059774294 0.092282735
000010 58 ad 9b 3d eb c6 61 3c 78 fe 9c 3c 32 71 9d 3d
       0.07601422 0.013780336 0.019164309 0.07687606
000020 f9 93 6f 3d f3 46 60 bc
       0.058490727 -0.013688791
