tudui_2.pth (torch, 587399 bytes, 10 tensors)

weight f4 [32, 3, 5, 5]
0.03634572 0.029661033 -0.03644884 -0.0965169 0.012316525 0.108269334 0.0054829596 0.050898056
0.11832244 -0.022225307 0.0014651943 -0.015837885 -0.015206855 0.057223037 -0.056051023 -0.06492439
0.084835455 -0.03252304 -0.07573595 -0.09026226 -0.10140887 0.017993147 -0.13825394 -0.1400298
-0.0032449071 0.008506646 0.06880159 0.0036511342 -0.102394745 0.025512883 0.003917615 -0.0806418
0.095006935 0.09922269 0.09056496 -0.09103313 0.07292523 0.066305205 0.090142675 -0.015744202
-0.0836041 0.07729911 0.04036441 -0.053338025 -0.00025918815 0.028534222 -0.085452065 0.013269765
-0.066528894 -0.05141899 -0.004435566 -0.05689833 -0.074942425 -0.002608525 0.11154835 0.13205534
0.1266573 0.08401869 0.06733421 0.03847634 0.023510506 0.028571298 -0.03220577 -0.015899098
-0.03563288 0.065760836 0.10360419 0.06112546 0.051140793 0.10712754 -0.12143088 -0.12664847
-0.03350781 -0.007855429 0.04343099 -0.10784746 -0.060082026 -0.09051601 -0.10486996 -0.094560206
-0.0954908 0.020379469 0.0046282024 -0.0183447 -0.024841256 0.050981786 0.09722713 0.0026685265
-0.079255134 -0.058068644 -0.100587785 0.011898896 0.006032993 -0.02503246 0.042564694 -0.010764559
-0.022267772 -0.043780785 0.09373792 0.08739485 -0.09505535 0.0024224576 -0.10318413 -0.15419209
-0.13491501 -0.095708475 -0.1356013 -0.14989032 -0.032186 0.052172553 0.008689468 0.018599508
0.005883607 0.040022366 -0.042168558 0.0496525 -0.07072492 -0.044600025 0.025032332 0.111604065
0.11052132 0.01947739 0.08060926 -0.062197346 -0.03660692 -0.071099475 0.05105333 -0.013263289
0.0096985 -0.10086404 0.09711313 -0.10352491 0.011028128 0.06433122 -0.049598683 0.07687066
0.14328414 -0.044144463 0.1118091 -0.051427342 0.056786202 -0.032710463 0.1424378 0.01328354
0.15049799 0.013326765 0.1486947 0.15748847 0.01946929 0.085481115 0.017895147 -0.008759014
-0.13017635 0.021178363 -0.05180998 0.025315132 -0.040728476 -0.018256914 0.020698182 0.069898054
-0.12052288 -0.04280078 0.06691216 -0.028697891 0.10243639 -0.04812545 -0.081090316 0.04755844
-0.017800873 -0.03333075 -0.006296662 -0.09385446 -0.09714047 0.09032651 -0.04606078 -0.100923575
-0.10406781 0.026298465 -0.05777368 -0.05777539 -0.08113447 0.101570636 -0.01565527 0.04995339
0.11018605 0.009908942 0.015895093 -0.08277679 0.041232113 0.055543017 0.030902011 -0.061847836
0.08144228 -0.11272867 -0.06988729 0.07295851 0.07873582 0.08645489 0.0664409 0.08499042
-0.008859219 -0.09349573 -0.09608797 -0.038984302 0.04152103 0.050317075 -0.071672425 0.059210196
-0.04146224 -0.09682039 -0.093421295 -0.07857153 0.05637914 0.099319376 0.12555993 -0.08886889
0.091475055 0.10198884 -0.0841451 -0.08923533 -0.02642992 0.033704873 0.023961063 0.086622305
0.033888273 -0.10840047 0.027331304 -0.052279804 -0.05643804 0.07581595 -0.08477198 0.0063633467
-0.1216056 0.022431135 -0.123097114 0.08738048 -0.025644014 -0.06662077 -0.10735761 -0.084531024
-0.09699102 -0.10035996 -0.12858276 0.08467169 0.07183964 -0.09441613 0.054296646 0.09688584
-0.03193842 -0.10197497 -0.047314715 -0.07859214 -0.10676457 0.05068403 -0.102467135 -0.07984693
00000000: 40df 143d b2fb f23c 614b 15bd a7aa c5bd
00000010: 40cb 493c 50bc dd3d 66aa b33b 7b7a 503d
00000020: 0953 f23d d911 b6bc c30b c03a 74be 81bc
00000030: 2c26 79bc b462 6a3d c295 65bd 14f7 84bd
00000040: 36be ad3d e136 05bd 731b 9bbd 6bdb b8bd
00000050: 74af cfbd 5d66 933c 7192 0dbe f963 0fbe
00000060: 82a8 54bb 765f 0b3c d9e7 8c3d de47 6f3b
00000070: 56b4 d1bd 6500 d13c 565f 803b 8727 a5bd
00000080: ff92 c23d 4435 cb3d 1f7a b93d 946f babd
00000090: d359 953d 06cb 873d b99c b83d fcf9 80bc
000000a0: a038 abbd ff4e 9e3d 2755 253d f978 5abd
000000b0: a5e3 87b9 9ac0 e93c 7e01 afbd 6e69 593c
000000c0: 4d40 88bd b89c 52bd 3958 91bb 390e 69bd
000000d0: 6a7b 99bd caf3 2abb 7673 e43d 8439 073e
000000e0: 74b2 013e fe11 ac3d 85e6 893d 5e99 1d3d
000000f0: 1b99 c03c 5b0e ea3c 33ea 03bd d33e 82bc
00000100: c8f3 11bd 9ead 863d 6f2e d43d b15e 7a3d
00000110: 0279 513d af65 db3d c1b0 f8bd 23b0 01be
00000120: 7c3f 09bd 0fb4 00bc b2e4 313d 21df dcbd
00000130: 9218 76bd 7560 b9bd 10c6 d6bd c8a8 c1bd
00000140: ae90 c3bd d8f2 a63c 2da8 973b a047 96bc
00000150: e47f cbbc 47d2 503d 041f c73d 72e2 2e3b
00000160: 8450 a2bd 63d9 6dbd f800 cebd 96f3 423c
00000170: 6ab0 c53b e010 cdbc 5158 2e3d d55d 30bc
00000180: e76a b6bc 7b53 33bd abf9 bf3d 12fc b23d
00000190: 61ac c2bd 18c2 1e3b 3352 d3bd 88e4 1dbe
000001a0: 2927 0abe ce02 c4bd 11db 0abe d97c 19be
000001b0: 78d5 03bd e3b2 553d 455e 0e3c ff5d 983c
000001c0: 46cb c03b 7eee 233d f0b8 2cbd 6b60 4b3d
000001d0: 3ad8 90bd 84ae 36bd 9b10 cd3c ac90 e43d
000001e0: 0059 e23d 0c8f 9f3c 7816 a53d a5c2 7ebd
000001f0: 23f1 15bd 9a9c 91bd 4c1d 513d 444e 59bc
00000200: 75e6 1e3c ce91 cebd 40e3 c63d de04 d4bd
00000210: 52af 343c 16c0 833d fd27 4bbd 5d6e 9d3d
00000220: 14b9 123e d3d0 34bd 2bfc e43d 7aa5 52bd
00000230: a698 683d 68fb 05bd 37db 113e 34a3 593c
00000240: 251c 1a3e 8158 5a3c 6c43 183e a844 213e
00000250: 0f7e 9f3c b910 af3d d898 923c f881 0fbc
00000260: f34c 05be 3f7e ad3c b436 54bd ae61 cf3c
00000270: e7d2 26bd 868f 95bc 3c8f a93c b626 8f3d
00000280: b3d4 f6bd df4f 2fbd 3e09 893d d717 ebbc
00000290: 2cca d13d 311f 45bd ae12 a6bd a4cc 423d
000002a0: 23d3 91bc d385 08bd 3b54 cebb c436 c0bd
000002b0: 95f1 c6bd 1bfd b83d 3aaa 3cbd 05b1 cebd
000002c0: 8121 d5bd e16f d73c 18a4 6cbd e3a5 6cbd
000002d0: d429 a6bd 4404 d03d 7b3f 80bc ed9b 4c3d
000002e0: 39a9 e13d 1d59 223c 6d36 823c e186 a9bd
000002f0: 01e3 283d 1381 633d 3726 fd3c 2854 7dbd
00000300: 36cb a63d 4ade e6bd 1121 8fbd 456b 953d
00000310: 3f40 a13d 430f b13d 2b12 883d 750f ae3d
00000320: 4226 11bc b07a bfbd c5c9 c4bd 01ae 1fbd
00000330: f511 2a3d 4719 4e3d fec8 92bd 6486 723d
00000340: 4fd4 29bd c549 c6bd aa53 bfbd 1cea a0bd
00000350: d0ed 663d f567 cb3d c892 003e e500 b6bd
00000360: 4657 bb3d 86df d03d 4454 acbd 03c1 b6bd
00000370: 8f83 d8bc 1f0e 0a3d fe49 c43c 0967 b13d
00000380: 6ece 0a3d 1101 debd e6e5 df3c 5923 56bd
00000390: 932b 67bd 6545 9b3d ef9c adbd 9f83 d03b
000003a0: 5b0c f9bd 80c1 b73c 571a fcbd 89f4 b23d
000003b0: 6513 d2bc 7870 88bd 4ede dbbd 9a1e adbd
000003c0: 3aa3 c6bd 8689 cdbd 33ab 03be 5a68 ad3d
000003d0: a920 933d 3e5d c1bd 2966 5e3d 156c c63d
000003e0: dcd1 02bd 41d8 d0bd 13cd 41bd eaf4 a0bd
000003f0: 62a7 dabd 0f9a 4f3d 4ada d1bd ca86 a3bd

bias f4 [32]
0.049086034 -0.041463293 -0.09412298 0.030591035 0.12505019 -0.031463504 -0.0176993 0.083951116
-0.089966156 0.15850404 0.05241562 -0.07879323 0.07826426 -0.07672422 0.18252608 0.12535788
-0.12991887 0.007490729 0.119648956 -0.019224765 -0.0037816833 -0.21183686 -0.07239342 -0.018292762
-0.17560303 0.07427278 0.07766526 -0.16630629 -0.12082085 -0.04920617 -0.13580316 0.07655518
00000000: 700e 493d 6ad5 29bd 8dc3 c0bd 0d9a fa3c
00000010: 280d 003e e0df 00bd 1ffe 90bc 90ee ab3d
00000020: 2d40 b8bd e24e 223e c3b1 563d 585e a1bd
00000030: 0349 a03d 9621 9dbd 1ee8 3a3e d15d 003e
00000040: 7409 05be ca74 f53b 830a f53d 417d 9dbc
00000050: 1ed6 77bb c3eb 58be 0043 94bd b4da 95bc
00000060: 48d1 33be 541c 983d f70e 9f3d 324c 2abe
00000070: ec70 f7bd 698c 49bd fc0f 0bbe f6c8 9c3d

weight f4 [32, 32, 5, 5]
0.02076536 0.027281873 -0.0031397997 0.023991242 -0.03180579 -0.026573256 0.032020006 -0.021988073
0.018960671 0.02845354 0.010738912 0.024169737 -0.029521067 -0.034532387 -0.031976074 -0.034370523
0.03248188 0.015390888 0.022957467 -0.0075531397 -0.0007301424 0.021815311 -0.019565169 0.03204793
0.026846658 0.013449267 -0.011341216 -0.019986292 0.03252504 -0.025054025 -0.013965587 -0.0037995935
0.039221846 0.012402678 0.034916308 -0.009179727 -0.020557584 -0.0031513926 0.027456226 -0.013308781
-0.028209722 0.016944591 0.022661675 0.02719423 -0.008291505 0.011980309 0.016646968 0.023068743
-0.03501451 -0.02597969 -0.011084365 0.020501388 0.013531449 -0.00820229 -0.02041447 0.03555559
0.030436467 0.009905093 -0.020261638 -0.016431443 0.029082451 -0.019899307 -0.020121763 0.024132365
0.0010400141 -0.03253457 -0.032412946 -0.016023692 0.011733281 0.002716593 0.015330373 0.02445671
0.024101488 0.009947148 -0.032322764 -0.017584924 -0.013729071 0.0010869768 -0.027511938 0.014045757
-0.0061640088 -0.0056614736 0.007773196 0.013363883 -0.017095925 0.020065544 0.0067351423 0.030950435
0.035144757 -0.028451461 -0.019787353 0.011527574 0.027636228 0.003944086 0.0028926043 -0.02459637
0.025557842 -0.031216858 -0.022752134 0.020067535 0.014163952 0.017606873 -0.014368343 -0.020865558
0.023687307 -0.023492657 0.008807919 -0.0286889 0.020983007 -0.019825963 0.0131389005 -0.003570272
0.01229806 -0.035433684 -0.004386407 0.026640886 0.021445327 0.02839454 -0.010438885 0.00040462898
0.009810898 -0.0030666965 8.803423e-05 -0.0025215708 0.007481668 -0.02837884 0.0044275345 0.002930598
-0.01979625 0.02881895 -0.005847348 0.010526826 0.00837663 -0.004032433 0.01607642 -0.034140583
-0.00079684425 0.02172615 0.0077197086 0.021869563 -0.006996283 -0.019396827 0.026973933 -0.008198317
0.014552944 -0.029228164 -0.012711967 0.0019891928 0.025821606 0.036624588 -0.003575757 -0.017599773
0.009119632 0.018172937 -0.008982565 0.016655331 0.0096525075 0.016542686 -0.00822099 -0.018938389
0.023660913 0.029789139 0.008246278 0.026329564 0.018108744 -0.012392568 0.012843475 -0.022693539
0.0058348547 -0.016106257 0.008357589 -0.0033439838 -0.011687471 0.011565436 -0.025694536 0.030371672
0.0073974 0.010392231 0.014986003 -0.037782554 -0.01222878 0.008820181 0.030815588 0.020574024
-0.035880323 0.019900765 0.027051337 -0.0054046647 0.03470413 -0.015489118 0.025567224 -0.00639168
0.014951701 0.0360605 -0.03093377 -0.0044801 0.01917108 0.029835934 -0.013213356 -0.020554893
0.023338169 -0.024316074 -0.027304856 -0.024317855 -0.008731008 -0.024480226 0.029797018 -0.025020836
-0.0073646638 0.02111061 -0.012663799 0.012057261 0.016292756 0.011802961 0.0045015626 -0.025526881
-0.031804364 -0.015477415 0.033790603 0.025134372 -0.0049009994 0.0130383475 -0.026220364 0.006490618
-0.012372755 -0.023808736 0.026687238 0.029054882 0.011914636 0.020950854 0.008773729 0.029146211
-0.032774713 -0.01634013 0.014993911 0.01070139 -0.012128827 0.01676329 -0.03227298 -0.0006122571
-0.028954217 -0.026708374 -0.018334316 0.015746398 -0.03353417 -0.0113046495 0.025231982 0.019652318
-0.008632821 0.0083184885 -0.0013493567 0.02075589 0.01966633 -0.011413304 -0.02159828 -0.011761008
00000000: 1e1c aa3c 3c7e df3c 19c5 4dbb 4889 c43c
00000010: ca46 02bd 28b0 d9bc 6927 033d 5520 b4bc
00000020: 6953 9b3c 6617 e93c 43f2 2f3c 9dff c53c
00000030: 2ad6 f1bc d571 0dbd 58f9 02bd 1bc8 0cbd
00000040: b80b 053d 102a 7c3c 4c11 bc3c 5480 f7bb
00000050: 0767 3fba 06b6 b23c 2247 a0bc b144 033d
00000060: 86ed db3c 505a 5c3c 82d0 39bc 4bba a3bc
00000070: fa38 053d 193e cdbc ebcf 64bc 9a02 79bb
00000080: 16a7 203d 9a34 4b3c 6704 0f3d 9166 16bc
00000090: 6168 a8bc 9887 4ebb e1eb e03c 130d 5abc
000000a0: 1318 e7bc 62cf 8a3c faa4 b93c 6fc6 de3c
000000b0: 18d9 07bc 0f49 443c 395f 883c a9fa bc3c
000000c0: 606b 0fbd 5cd3 d4bc 329b 35bc 87f2 a73c
000000d0: 03b3 5d3c e662 06bc 3f3c a7bc bda2 113d
000000e0: e655 f93c f948 223c bcfb a5bc 3c9b 86bc
000000f0: 523e ee3c df03 a3bc 65d6 a4bc 3db1 c53c
00000100: 1551 883a f842 05bd 70c3 04bd 1e44 83bc
00000110: f33c 403c de08 323b 3f2c 7b3c 7059 c83c
00000120: 7c70 c53c 5df9 223c e064 04bd 420e 90bc
00000130: e6ef 60bc e478 8e3a b760 e1bc 2d20 663c
00000140: 74fb c9bb e283 b9bb 4bb6 fe3b 30f4 5a3c
00000150: c10c 8cbc 7f60 a43c 78b2 dc3b c48b fd3c
00000160: f3f3 0f3d 0a13 e9bc 1619 a2bc 26de 3c3c
00000170: 5f65 e23c 643d 813b d991 3d3b 547e c9bc
00000180: ae5e d13c 7fba ffbc af62 babc ac64 a43c
00000190: ec0f 683c 4a3c 903c 3369 6bbc 3fee aabc
000001a0: e20b c23c ac73 c0bc 174f 103c fc04 ebbc
000001b0: 8ee4 ab3c 0f6a a2bc 8b44 573c 39fb 69bb
000001c0: cd7d 493c e922 11bd d9bb 8fbb fd3d da3c
000001d0: 1cae af3c ab9b e83c db07 2bbc 6224 d439
000001e0: e4bd 203c a1fa 48bb 049f b838 f040 25bb
000001f0: c828 f53b be7a e8bc da14 913b 470f 403b
00000200: bf2b a2bc b815 ec3c 1c9b bfbb b578 2c3c
00000210: 223e 093c 8022 84bb b2b2 833c ffd6 0bbd
00000220: 50e3 50ba 0afb b13c 9cf5 fc3b cc27 b33c
00000230: 1341 e5bb 18e6 9ebc 70f8 dc3c 3c52 06bc
00000240: 796f 6e3c e76f efbc db45 50bc 1e5d 023b
00000250: d587 d33c aa03 163d 3f57 6abb 662d 90bc
00000260: 826a 153c 69df 943c 9c2b 13bc c370 883c
00000270: 8d25 1e3c 8784 873c 55b1 06bc ae24 9bbc
00000280: 88d4 c13c 5a08 f43c 661b 073c 19b1 d73c
00000290: ca58 943c 330a 4bbc 706d 523c cde7 b9bc
000002a0: 4f32 bf3b 45f1 83bc 45ee 083c bd26 5bbb
000002b0: ce7c 3fbc f47c 3d3c 597d d2bc 03ce f83c
000002c0: e465 f23b 2d44 2a3c da87 753c e1c1 1abd
000002d0: 395b 48bc 8582 103c f970 fc3c db8a a83c
000002e0: 3ff7 12bd ee06 a33c c49a dd3c 9d19 b1bb
000002f0: eb25 0e3d 12c6 7dbc 5b72 d13c 4c71 d1bb
00000300: fbf7 743c 2db4 133d d168 fdbc cdcd 92bb
00000310: ab0c 9d3c 7d6a f43c d57c 58bc bc62 a8bc
00000320: b02f bf3c 8132 c7bc 6fae dfbc 3d36 c7bc
00000330: 800c 0fbc c18a c8bc e018 f43c 7ff8 ccbc
00000340: 4753 f1bb 28f0 ac3c d37b 4fbc d18b 453c
00000350: 6378 853c 3561 413c d881 933b c01d d1bc
00000360: 4b45 02bd fc94 7dbc 0468 0a3d 99e6 cd3c
00000370: 9098 a0bb cb9e 553c 17cc d6bc 40af d43b
00000380: 19b7 4abc 8a0a c3bc 329f da3c 8104 ee3c
00000390: 9b35 433c 20a1 ab3c b0bf 0f3c 09c4 ee3c
000003a0: c73e 06bd bcdb 85bc 05a9 753c e254 2f3c
000003b0: fdb7 46bc 2b53 893c ac30 04bd e17f 20ba
000003c0: 6531 edbc 85cb dabc d931 96bc 97fe 803c
000003d0: 205b 09bd 2337 39bc 4db3 ce3c e6fd a03c
000003e0: ad70 0dbc 454a 083c e6dc b0ba 4208 aa3c
000003f0: 491b a13c defe 3abc e0ee b0bc 3eb1 40bc

bias f4 [32]
-0.014542075 0.00972629 -0.0422711 0.024692882 0.047205195 -0.036513247 -0.03169983 0.022351444
0.009316789 -0.04603756 -0.020521311 -0.0556197 -0.040932104 -0.0040897247 0.03165117 0.008059489
-0.024852209 -0.07015313 0.023257457 0.018797161 -0.043813694 0.0015228149 -0.05580516 -0.019414054
-0.018563684 -0.026053151 0.013884465 0.059528552 0.0072458675 -0.06310362 0.016661843 -0.022261322
00000000: e241 6ebc 045b 1f3c 7624 2dbd ba48 ca3c
00000010: 3c5a 413d ea8e 15bd aed7 01bd 601a b73c
00000020: 72a5 183c e191 3cbd 4f1c a8bc 7cd1 63bd
00000030: 6ca8 27bd 1903 86bb a8a4 013d f20b 043c
00000040: dc96 cbbc 72ac 8fbd 6c86 be3c 81fc 993c
00000050: fd75 33bd 3099 c73a f493 64bd 390a 9fbc
00000060: de12 98bc 6b6d d5bc ab7b 633c 36d4 733d
00000070: be6e ed3b 793c 81bd 6b7e 883c 605d b6bc

weight f4 [64, 32, 5, 5]
0.033306252 -0.0049314112 0.017003987 -0.02246246 -0.008318817 -0.02327869 0.001625138 -0.024390606
-0.025064204 0.014912086 -0.03278602 -0.0071077105 0.021688825 0.012835161 -0.017986437 -0.010063759
-0.020292278 0.006331461 -0.0022393735 -0.008691512 0.0068144673 0.0050258674 -0.0015912439 0.02446468
-0.035840746 0.0066999383 -0.034541424 -0.021331497 0.011610072 0.027436882 0.021359509 -0.01632116
-0.036352605 0.0028508012 0.023804279 0.029219609 -0.008753768 -0.015920525 0.01919863 -0.035643294
0.023869049 0.025785076 -0.015135774 -0.03794583 0.022453763 -0.028752595 0.014607419 -0.006249145
-0.012741891 0.020013632 0.027112894 -0.0034931807 0.02991195 -0.020067366 -0.014596433 0.03509851
-0.011556822 0.017913569 -0.0017512346 0.014515452 0.014544181 -0.030370148 -0.028821917 0.0003072923
-0.021537047 -0.0018379824 0.017811583 0.009224045 -0.03222345 -0.012435932 0.024270233 0.011783942
-0.0312508 -0.008659352 0.02399648 -0.02741076 -0.014474133 -0.029680666 -0.018486355 -0.011745039
0.023775743 0.014835895 0.023883542 -0.011718248 0.020847024 -0.026636934 0.04017223 0.036773734
-0.013926469 -0.03344461 -0.011754074 0.020924432 -0.0025130284 -0.015863512 0.015208612 -0.024028206
-0.026922025 -0.010236691 -0.017939858 0.0052340925 -0.024811296 0.024974369 -0.0010581637 0.012580776
0.020040987 0.003492324 0.032548357 -0.0005000323 -0.014018629 -0.011517758 0.02540238 0.015104402
0.0071704546 -0.026627345 -0.03528539 0.009938725 0.028463617 0.002925376 0.03165267 -0.032984123
0.023693485 -0.011988394 0.032230392 -0.0003544899 -0.009289969 -0.0331957 -0.008726881 0.0060648555
-0.01922486 -0.03326279 -0.022951484 -0.013029191 -0.010532256 0.01927385 0.015364282 -0.005489888
-0.006126006 0.011028943 0.034709964 0.027449261 -0.00906528 0.02270457 0.034055833 -0.016168313
-0.024602965 0.02746267 0.0027494521 0.018349638 0.02688404 -0.012119296 -0.010714878 -0.0022627756
-0.036284663 0.01462281 -0.035787743 -0.018905967 0.008303204 -0.016652357 -0.007266101 -0.00027765962
0.013795622 -0.011330526 0.029525157 0.026950978 0.015416183 -0.02716384 0.0019435963 -0.0016720605
0.0010453983 -0.011816549 -0.022865813 -0.018876463 0.00394734 -0.01632969 0.0076093394 -0.03358114
0.029372444 -0.009768838 0.02095836 -0.018592801 0.01252162 0.0143026 -0.033213973 0.025640896
-0.018216169 -0.009726452 0.012073653 0.010648243 0.0032385755 -0.009457327 -0.013615918 -0.013308747
-0.025854561 -0.026159571 -0.035213836 -0.005158728 -0.039470058 -0.03177317 -0.042925265 -0.0019245879
0.023367478 0.0047515137 0.010497839 -0.03218103 -0.043498874 0.015338599 0.02014893 -0.02469128
-0.021445813 0.003036575 0.00546061 0.025129285 -0.012056344 -0.02301918 -0.017603355 -0.027521499
-0.026016273 0.011524706 -0.05039686 -0.02549657 0.0025647562 -0.0068553593 -0.029641926 -0.052359913
-0.048774775 0.01620218 0.031474706 -0.011535969 0.008521163 -0.0032974675 0.0048642703 -0.03589347
-0.023828441 0.009710962 -0.019972973 0.0029591306 0.000377306 -0.011649745 0.033070926 -0.015531793
-0.026567383 0.0040333383 -0.003665389 0.035366677 0.023758894 -0.011121938 -0.021219002 -0.019400781
-0.006759639 0.038849425 -0.0035452726 -0.022387879 -0.01928535 -0.040275887 -0.015225416 -0.018049732
00000000: 236c 083d ad97 a1bb f24b 8b3c 3103 b8bc
00000010: a64b 08bc f4b2 bebc 9502 d53a cfce c7bc
00000020: 7253 cdbc d251 743c a24a 06bd cce7 e8bb
00000030: c3ac b13c 914a 523c 4b58 93bc 77e2 24bc
00000040: fe3b a6bc 2578 cf3b 74c2 12bb d866 0ebc
00000050: e54b df3b 08b0 a43b 4991 d0ba 276a c83c
00000060: bfcd 12bd 288b db3b 4f7b 0dbd 64bf aebc
00000070: 2c38 3e3c 50c3 e03c 23fa ae3c f4b3 85bc
00000080: 78e6 14bd 82d4 3a3b 3101 c33c f65d ef3c
00000090: f76b 0fbc c36b 82bc 7246 9d3c b4fe 11bd
000000a0: 0689 c33c 393b d33c 0afc 77bc 166d 1bbd
000000b0: f4f0 b73c 908a ebbc f553 6f3c a1c5 ccbb
000000c0: 5dc3 50bc a1f3 a33c dc1b de3c d9ed 64bb
000000d0: e809 f53c 5164 a4bc e125 6fbc 75c3 0f3d
000000e0: d358 3dbc 7abf 923c af89 e5ba 38d2 6d3c
000000f0: b74a 6e3c d1ca f8bc f11b ecbc 131c a139
00000100: 766e b0bc 75e8 f0ba 99e9 913c 7320 173c
00000110: bcfc 03bd 14c0 4bbc 5ed2 c63c 6f11 413c
00000120: d700 00bd f4df 0dbc 4494 c43c 888c e0bc
00000130: ea24 6dbc de24 f3bc b270 97bc 446e 40bc
00000140: 59c5 c23c 4112 733c 6ba7 c33c e5fd 3fbc
00000150: 61c7 aa3c b335 dabc a38b 243d 0ea0 163d
00000160: d82b 64bc 37fd 08bd 2994 40bc b769 ab3c
00000170: 9fb1 24bb 32f4 81bc 8b2d 793c cdd6 c4bc
00000180: 948b dcbc cbb7 27bc 9cf6 92bc c082 ab3b
00000190: 0f41 cbbc 0c97 cc3c 15b2 8aba 991f 4e3c
000001a0: ff2c a43c 79df 643b 6d51 053d 9a14 03ba
000001b0: 64ae 65bc fab4 3cbc a718 d03c 7478 773c
000001c0: 22f6 ea3b 9721 dabc 6a87 10bd 09d6 223c
000001d0: 882c e93c aab7 3f3b 3ba6 013d 5c1a 07bd
000001e0: d718 c23c f86a 44bc 0404 043d d4da b9b9
000001f0: f434 18bc 37f8 07bd 31fb 0ebc b2bb c63b
00000200: 747d 9dbc 903e 08bd c004 bcbc 6378 55bc
00000210: 7c8f 2cbc 31e4 9d3c 78ba 7b3c 85e4 b3bb
00000220: aabc c8bb bdb2 343c 092c 0e3d 46dd e03c
00000230: 8a86 14bc effe b93c 217e 0b3d 6973 84bc
00000240: 288c c9bc 65f9 e03c 2730 343b fb51 963c
00000250: eb3b dc3c 0390 46bc 758d 2fbc 134b 14bb
00000260: 3a9f 14bd 8394 6f3c 2b96 12bd b0e0 9abc
00000270: 290a 083c 866a 88bc 7918 eebb d892 91b9
00000280: 0807 623c aca3 39bc bede f13c 4cc8 dc3c
00000290: 2894 7c3c b486 debc 45c0 fe3a 0a29 dbba
000002a0: bf05 893a 339a 41bc 1651 bbbc d0a2 9abc
000002b0: b058 813b d8c5 85bc c457 f93b 618c 09bd
000002c0: 7b9e f03c 7a0d 20bc deb0 ab3c ee4f 98bc
000002d0: 7b27 4d3c 7455 6a3c 600b 08bd db0c d23c
000002e0: 133a 95bc b25b 1fbc 92d0 453c f875 2e3c
000002f0: 483e 543b e8f2 1abc 4d15 5fbc ee0c 5abc
00000300: f2cc d3bc 994c d6bc 623c 10bd 8c0a a9bb
00000310: 5bab 21bd 9524 02bd 67d2 2fbd 7442 fcba
00000320: 276d bf3c 96b2 9b3b 21ff 2b3c 41d0 03bd
00000330: e02b 32bd bf4e 7b3c 5e0f a53c 5e45 cabc
00000340: 21af afbc 4601 473b ebee b23b eedb cd3c
00000350: f987 45bc b892 bcbc e934 90bc c474 e1bc
00000360: 1420 d5bc 1fd2 3c3c f06c 4ebd 2fde d0bc
00000370: 7815 283b eca2 e0bb a0d3 f2bc 5977 56bd
00000380: 0fc8 47bd 6fba 843c 9feb 003d 5c01 3dbc
00000390: 599c 0b3c 531a 58bb 7564 9f3b 0805 13bd
000003a0: dd33 c3bc ba1a 1f3c 5c9e a3bc f9ed 413b
000003b0: 27d1 c539 92de 3ebc 6175 073d 1079 7ebc
000003c0: d7a3 d9bc 182a 843b 0637 70bb a6dc 103d
000003d0: 03a2 c23c ca38 36bc 79d3 adbc 63ee 9ebc
000003e0: f67f ddbb 9320 1f3d ce57 68bb c966 b7bc
000003f0: 4ffc 9dbc 54f8 24bd 0674 79bc 08dd 93bc

bias f4 [64]
-0.004696393 0.0103939315 0.018827666 0.022724563 -0.01528525 -0.02071835 -0.024615193 0.014165564
-0.018814385 -0.024102908 -0.001853551 -0.0025380286 -0.029048337 -0.036866594 -0.023435732 -0.030782646
-0.04299997 -0.039140392 0.040767774 0.022515167 -0.023133062 0.055228665 -0.03373825 0.03658167
0.0140775265 -0.06321146 -0.015167068 -0.060593832 0.023758383 -0.04529831 0.016294204 -0.029969636
0.022577146 -0.06761958 0.02970958 0.026395174 0.008956684 -0.03494332 0.017350823 -0.031327114
-0.0185076 -0.04844401 0.004600254 -0.004231897 -0.028256532 -0.03064545 -0.0272815 0.035760466
0.0052263755 -0.0013059862 0.01358315 -0.052379023 -0.035316266 0.022011703 0.02566397 -0.016697215
0.032682568 -0.033808816 0.018532965 -0.0067256535 -0.05122817 -0.035147216 -0.038262587 -0.03245596
00000000: 33e4 99bb 4f4b 2a3c 7a3c 9a3c dd28 ba3c
00000010: fc6e 7abc 87b9 a9bc cda5 c9bc af16 683c
00000020: a020 9abc 7673 c5bc daf2 f2ba 0e55 26bb
00000030: c7f6 edbc 6d01 17bd 4bfc bfbc e32b fcbc
00000040: bd20 30bd ad51 20bd 1cfc 263d ba71 b83c
00000050: 8c81 bdbc 7437 623d 1f31 0abd a9d6 153d
00000060: 6da5 663c 0375 81bd 4b7f 78bc 3d31 78bd
00000070: f1a0 c23c b98a 39bd 6c7b 853c e282 f5bc
00000080: b5f3 b83c 227c 8abd 8161 f33c b13a d83c
00000090: 0ebf 123c ba20 0fbd 5023 8e3c dc50 00bd
000000a0: 409d 97bc 3a6d 46bd babd 963b baab 8abb
000000b0: 3e7a e7bc 2b0c fbbc 747d dfbc 9179 123d
000000c0: 0442 ab3b a02d abba dc8b 5e3c 638b 56bd
000000d0: caa7 10bd e351 b43c 3f3d d23c 99c8 88bc
000000e0: 28de 053d 1d7b 0abd 72d2 973c df62 dcbb
000000f0: a1d4 51bd 87f6 0fbd 3bb9 1cbd 8af0 04bd

weight f4 [64, 1024]
-0.0151411705 -0.014652027 -0.039034426 -0.0069959573 -0.005367201 0.015216908 0.0072311135 0.023925852
0.011087702 0.006390448 0.011243074 -0.022542065 -0.016544607 0.003174683 -0.020302385 -0.0053489897
0.0071140258 -0.019193416 0.0008096256 -0.0049990322 0.03654709 0.032534394 -0.0030309458 -0.005206956
-0.0019483404 0.009122708 -0.01801191 0.02271477 -0.006753826 0.020529157 -0.02339077 -0.008082219
-0.015356661 0.011489909 -0.013042814 -0.016794462 -0.035725832 0.03903151 -0.02640567 0.010330561
0.0135574825 0.030640418 -0.00063748006 -0.0069855326 -0.015903799 -0.0012281968 0.03779407 0.011279969
-0.014927805 0.03020049 -0.013079678 0.023165287 -0.0018750757 0.015173119 0.029765446 -0.008196424
0.033877444 -0.0028756354 0.009176148 -0.01991201 -0.030919194 -0.022785848 -0.011160424 -0.011704896
-0.02387661 0.019304069 -0.017439129 -0.006349842 -0.019412799 -0.028612962 0.008035115 0.029487263
0.030625762 0.014468669 0.0055220025 -0.013176566 -0.014154868 -0.012859129 0.0049279374 -0.00029289635
-0.020227354 -0.021415211 -0.02638195 -0.015502678 0.032814823 0.023445642 0.009500217 0.010543033
-0.0032474694 -0.0047049467 -0.005798715 -0.002039933 0.015948506 0.027864676 -0.012911781 0.018990751
-0.0135818375 0.013925689 0.02028774 -0.0103508625 0.032428384 0.014785705 0.008683099 0.028414795
0.0022194507 -0.011853162 0.015402154 -0.014273767 -0.015470625 0.018084709 -0.027529413 0.025138542
0.012104277 -0.009988168 0.037017338 0.012648998 -0.019968836 -0.014760394 0.016369222 -0.022849495
0.0032231149 0.003530084 0.034019273 -0.017897693 -0.0233373 0.012897469 0.015177378 0.027638303
0.003866496 0.022545008 0.025765412 0.008388859 0.0046956106 0.018116133 -0.014980881 -0.02843572
-0.0007646055 0.032023493 -0.02233932 -0.018666882 -0.029240541 0.035490077 0.0120187225 -0.023773124
0.034535564 0.032832853 -0.0073666475 0.009632128 0.027111655 -0.0031944055 -0.007640131 -0.0281934
0.021496886 0.03211461 0.025466422 0.005362268 -0.019001396 0.018444365 0.02508593 -0.014582048
0.014008454 -0.0046268683 0.03674827 -0.0038822275 -0.0053740633 0.0062217996 0.026363576 0.01767428
-0.025166592 0.0071499366 -0.026638111 -0.014110269 0.017896095 -0.008411959 -0.021135632 -0.033071313
0.030632852 0.008345409 0.011923619 -0.02906345 0.020669034 0.017086778 0.0050081895 0.024122939
0.005760156 -0.029503154 -0.022164755 0.016552348 -0.026388887 -0.01154674 0.009572263 0.020039199
-0.012864233 0.00718593 -0.0063227373 -0.0066250414 -0.034921147 0.039256394 0.009889915 -0.01370735
-0.026063848 0.014632279 0.012135306 0.013498815 -0.00708115 0.0040025115 -0.014082344 0.016202377
0.011995745 -0.017172726 0.03231156 -0.0131090805 -0.024472684 0.022934774 0.0041588442 -0.0041590626
0.027661478 0.015310846 0.024775922 -0.010419861 0.021465158 -0.01218449 0.008736947 -0.023881087
0.029362928 -0.0013650106 -0.030038675 -0.011497004 -0.012540108 0.033944648 -0.02347811 -0.025241364
0.026251573 -0.01961368 -0.0047614006 0.02995661 0.0044504553 0.013095938 0.008494897 -0.0051570716
-0.010502356 -0.013890748 -0.02695404 -0.02324004 -0.010139082 0.024968162 0.018835016 0.0252315
-0.0042237276 0.027645448 -0.0029309252 -0.00204712 0.015368867 -0.004864266 -0.0006859284 0.026095375
00000000: ac12 78bc 0e0f 70bc 90e2 1fbd 583e e5bb
00000010: 58df afbb 5750 793c faf2 ec3b 2600 c43c
00000020: 31a9 353c f766 d13b df34 383c 23aa b8bc
00000030: 8e88 87bc 580e 503b 3051 a6bc 9446 afbb
00000040: c61c e93b 833b 9dbc 0e3d 543a ecce a3bb
00000050: 67b2 153d c942 053d d5a2 46bb 1d9f aabb
00000060: 755f ffba 6977 153c b78d 93bc 5314 ba3c
00000070: 334f ddbb c32c a83c 009e bfbc 496b 04bc
00000080: 819a 7bbc 2c40 3c3c 87b1 55bc 8a94 89bc
00000090: 4055 12bd 81df 1f3d b450 d8bc 8341 293c
000000a0: 3420 5e3c 9d01 fb3c 901c 27ba e5e6 e4bb
000000b0: af48 82bc 72fb a0ba f4cd 1a3d 9ecf 383c
000000c0: c193 74bc 0567 f73c 254c 56bc 21c5 bd3c
000000d0: 1ac5 f5ba ac98 783c aad6 f33c 4b4a 06bc
000000e0: 13c3 0a3d 2875 3cbb 8e57 163c 831e a3bc
000000f0: 404a fdbc 63a9 babc 36da 36bc e4c5 3fbc
00000100: e198 c3bc 9123 9e3c 81dc 8ebc 5612 d0bb
00000110: 9707 9fbc bb65 eabc b7a5 033c 468f f13c
00000120: e1e2 fa3c ff0d 6d3c eaf1 b43b 86e2 57bc
00000130: d2e9 67bc 19af 52bc 897a a13b e28f 99b9
00000140: d6b3 a5bc f46e afbc f61e d8bc f2fe 7dbc
00000150: d668 063d 1311 c03c cca6 1b3c afbc 2c3c
00000160: 7fd3 54bb f42b 9abb 2603 bebb 66b0 05bb
00000170: 71a6 823c 7644 e43c ef8b 53bc 7e92 9b3c
00000180: 5b86 5ebc 9328 643c 7932 a63c aa96 29bc
00000190: a0d3 043d be3f 723c 8f43 0e3c 25c6 e83c
000001a0: 3474 113b c433 42bc 5159 7c3c 85dc 69bc
000001b0: 8178 7dbc 6226 943c 5d85 e1bc 58ef cd3c
000001c0: 0451 463c 6aa5 23bc 7e9f 173d be3d 4f3c
000001d0: af95 a3bc 94d5 71bc bf18 863c dd2e bbbc
000001e0: e53a 533b fb58 673b cb57 0b3d 2f9e 92bc
000001f0: de2d bfbc e84f 533c 8aaa 783c b969 e23c
00000200: 0a65 7d3b 4fb0 b83c fc11 d33c 6d71 093c
00000210: a3dd 993b 4968 943c 5e72 75bc 07f2 e8bc
00000220: ce6f 48ba 112b 033d f300 b7bc 4aeb 98bc
00000230: dc89 efbc 0b5e 113d 2dea 443c dbbf c2bc
00000240: 2a75 0d3d be7b 063d eb63 f1bb 13d0 1d3c
00000250: 4319 de3c 3b59 51bb 105a fabb d8f5 e6bc
00000260: 3d1a b03c 9c8a 033d f59e d03c f7b5 af3b
00000270: d1a8 9bbc a318 973c 0281 cd3c 8be9 6ebc
00000280: b783 653c fc9c 97bb 5b85 163d f86c 7ebb
00000290: e918 b0bb 3de0 cb3b 6df8 d73c a7c9 903c
000002a0: 2b2a cebc 044a ea3b 2b38 dabc c22e 67bc
000002b0: d59a 923c 50d2 09bc a224 adbc c975 07bd
000002c0: bff1 fa3c 2fbb 083c 485b 433c 7916 eebc
000002d0: 1b52 a93c 92f9 8b3c bd1b a43b 789d c53c
000002e0: b1bf bc3b 99b0 f1bc dc92 b5bc ca98 873c
000002f0: 822d d8bc 8a2e 3dbc fbd4 1c3c 3f29 a43c
00000300: 81c4 52bc f377 eb3b f72e cfbb e016 d9bb
00000310: 7a09 0fbd 50cb 203d 4f09 223c cb94 60bc
00000320: da83 d5bc 3abc 6f3c 2ad3 463c 222a 5d3c
00000330: fe08 e8bb 8027 833b a2b9 66bc d9ba 843c
00000340: cd89 443c d1ad 8cbc 2059 043d 78c7 56bc
00000350: f07a c8bc b5e1 bb3c ea46 883b bf48 88bb
00000360: 539a e23c 58da 7a3c e0f6 ca3c 11b8 2abc
00000370: b3d7 af3c 75a1 47bc 6925 0f3c 45a2 c3bc
00000380: 868a f03c 28ea b2ba ab13 f6bc ee5d 3cbc
00000390: 0675 4dbc 8b09 0b3d 2a55 c0bc fac6 cebc
000003a0: 8a0d d73c deac a0bc 8605 9cbb 9167 f53c
000003b0: 20d5 913b 5890 563c 2e2e 0b3c a7fc a8bb
000003c0: 1312 2cbc 0596 63bc b8ce dcbc e561 bebc
000003d0: 641e 26bc 088a cc3c e44b 9a3c 4ab2 ce3c
000003e0: 3267 8abb b578 e23c c414 40bb f928 06bb
000003f0: b3cd 7b3c 6c64 9fbb e0cf 33ba f8c5 d53c

bias f4 [64]
0.0060690427 0.0023247956 0.038594358 -0.022133784 -0.024608389 -0.011491558 -0.0146797225 -0.010446066
0.021838188 -0.01948481 0.025466135 0.030427575 0.022213563 -0.023785423 -0.0101516815 -0.03668431
0.005538947 0.021372637 0.0305003 -0.026136903 -0.008391566 0.045072068 -0.006951764 0.034836017
-0.044734713 0.045452986 0.009756694 -0.013906629 -0.016183734 0.030568225 0.036050767 0.0069126994
0.014989232 -0.015475639 -0.02860093 0.0056958837 -0.019616904 -0.00020084003 -0.022699203 0.016251039
-0.0011932806 -0.0013456165 -0.013862397 0.012331809 0.0018163194 -0.05721468 -0.032152906 -0.02714134
0.032335483 0.023166422 -0.013041464 -0.015696144 0.002758504 -0.04558549 -0.011529151 -0.017252276
0.00722904 0.05184429 0.007848536 0.009120194 -0.03955649 0.005320475 -0.025280297 0.0042848713
00000000: d2de c63b 995b 183b 1e15 1e3d e951 b5bc
00000010: 8897 c9bc 1647 3cbc 3883 70bc fa25 2bbc
00000020: 00e6 b23c 9c9e 9fbc 5b9e d03c 4043 f93c
00000030: 38f9 b53c a6d9 c2bc 3d53 26bc 4942 16bd
00000040: 0e80 b53b ab15 af3c c4db f93c 0f1d d6bc
00000050: c77c 09bc 7d9d 383d a0cb e3bb 36b0 0e3d
00000060: bf3b 37bd e92c 3a3d 8ada 1f3c a1d8 63bc
00000070: c093 84bc 376a fa3c f8a9 133d ed83 e23b
00000080: 6595 753c 898d 7dbc 7f4c eabc 89a4 ba3b
00000090: a1b3 a0bc 9698 52b9 aef3 b9bc e620 853c
000000a0: da67 9cba 665f b0ba 1b1f 63bc 5b0b 4a3c
000000b0: 9111 ee3a f159 6abd c4b2 03bd 8457 debc
000000c0: 3672 043d 82c7 bd3c ddab 55bc 3395 80bc
000000d0: 04c8 343b dab7 3abd c4e4 3cbc a554 8dbc
000000e0: 95e1 ec3b ae5a 543d 2597 003c de6c 153c
000000f0: fc05 22bd 6157 ae3b a018 cfbc 1b68 8c3b

weight f4 [10, 64]
0.006758509 0.033527512 -0.09034245 -0.018315297 0.057420265 0.024840463 0.08750792 0.14675835
-0.027176082 0.023272868 0.011316875 0.026871795 0.06978878 0.16110106 0.12956142 0.08079398
-0.115954205 -0.12683958 -0.077476434 0.04892722 0.0072521656 -0.14518002 0.05875879 -0.010304863
0.060804296 -0.11498952 -0.0031678423 0.0012047433 -0.060607046 -0.028480636 -0.08493681 -0.035927314
-0.042895116 -0.16129729 -0.03038398 -0.043761984 0.14756404 -0.13634281 0.026433995 -0.071038544
-0.06561968 0.036697704 0.070420824 0.05859529 0.048708156 0.09861715 0.08784107 0.0586317
-0.08592972 0.102630645 0.14989689 0.08445098 0.038194302 0.10302578 0.055985596 -0.040203903
0.1250676 -0.12612857 -0.12825246 0.092671044 -0.07497062 -0.07683334 0.1301253 0.0668043
0.12708944 -0.20423554 -0.094974 -0.04291333 0.1213957 -0.08906962 -0.12382006 -0.07752082
-0.04562717 -0.07447 -0.20837484 -0.0667128 -0.0078107566 0.1730911 0.20368513 0.08401201
-0.02185974 -0.1070816 -0.010056723 0.08726521 -0.093004055 0.07370437 -0.11366279 0.101848476
0.008501127 0.13176002 0.043957002 -0.1369888 -0.14250973 -0.0031099166 -0.060234632 0.0084100645
-0.112159 0.034134734 -0.052121393 -0.155041 -0.101030774 0.0020202382 -0.0995134 0.08065993
0.122022934 -0.07532392 -0.1321093 -0.12586318 0.012107276 -0.1552622 0.029273782 0.03133056
0.08872717 0.028792316 0.067718476 -0.02236792 -0.07532897 0.0919876 -0.07903479 0.021064043
0.105126284 -0.011610508 -0.10009472 0.12742011 0.020962935 0.106589854 -0.12295039 -0.16473831
0.09341754 0.11867358 -0.12135872 0.13047223 -0.04230814 -0.009451409 0.088078156 -0.11220379
0.06649946 -0.08841962 0.08102035 0.03661232 0.048008498 0.05114561 -0.086092256 0.039625045
0.044474494 0.12576139 0.058908165 -0.02682999 -0.059775356 -0.13889018 -0.08580659 0.07555595
-0.083475746 0.058135416 -0.017030004 -0.064126596 0.005102527 0.010527843 0.086983725 -0.054279786
-0.00029698544 0.14951459 -0.060062423 0.1348158 -0.05679014 -0.06726881 -0.11205576 -0.12594064
-0.13925251 0.03084498 -0.06622783 -0.052150745 0.1293387 0.035932954 -0.11787974 0.002373476
0.07133925 0.11411648 -0.049401566 -0.12911256 0.13755462 -0.11166785 0.13925308 -0.01782363
0.12641107 -0.015238326 0.104539216 0.08037096 -0.17177129 -0.08056977 0.14505668 0.103021815
0.119156785 0.10624923 0.03890136 -0.1305658 -0.10726234 -0.009070678 0.089602 -0.035542157
0.04521268 0.010796531 -0.11652482 0.022250853 -0.060733665 -0.17773198 -0.13837166 -0.067673065
0.07564766 0.0057312185 0.121208064 -0.07119769 0.12801626 0.015461321 -0.09705263 -0.043002617
-0.051329106 0.13591854 0.013012135 0.07048905 -0.059416074 0.104073025 0.08924006 0.12963273
-0.028589008 0.15251067 -0.09257119 -0.07642586 -0.10655295 0.026160825 -0.07149965 -0.0098220045
0.046830684 -0.09028928 0.07603938 0.032822587 -0.16531417 -0.041785043 0.06559087 0.05518347
-0.039020915 -0.015424492 -0.07158191 0.11111236 0.14509466 -0.022750266 0.042869546 -0.028843366
0.031101486 0.032594096 0.06669213 -0.1373154 -0.10184455 0.11418652 -0.0016807573 -0.096318275
00000000: 7c76 dd3b 2554 093d 7605 b9bd f609 96bc
00000010: 8331 6b3d 3a7e cb3c 5a37 b33d d247 163e
00000020: 60a0 debc bea6 be3c 6a6a 393c 3d22 dc3c
00000030: 6bed 8e3d adf7 243e c0ab 043e 5077 a53d
00000040: 6679 edbd 3ce2 01be f7ab 9ebd e967 483d
00000050: 93a3 ed3b 12aa 14be 0fad 703d bad5 28bc
00000060: ed0d 793d a07f ebbd 939b 4fbb 7ae8 9d3a
00000070: 183f 78bd 3950 e9bc 5af3 adbd 8528 13bd
00000080: cab2 2fbd 1e2b 25be d3e7 f8bc c43f 33bd
00000090: 071b 173e 739d 0bbe 1b8c d83c a87c 91bd
000000a0: 9c63 86bd 5550 163d cb38 903d 9d01 703d
000000b0: 3482 473d caf7 c93d 05e6 b33d cb27 703d
000000c0: ecfb afbd 0430 d23d 927e 193e a3f4 ac3d
000000d0: a171 1c3d 2eff d23d 2751 653d d9ac 24bd
000000e0: b911 003e d927 01be 9d54 03be 51ca bd3d
000000f0: 328a 99bd cc5a 9dbd 913f 053e b1d0 883d
00000100: bc23 023e 1f23 51be ba81 c2bd e3c5 2fbd
00000110: 4f9e f83d 226a b6bd 5f95 fdbd 3cc3 9ebd
00000120: 8ee3 3abd ba83 98bd 3760 55be b8a0 88bd
00000130: 60f1 ffbb cb3e 313e d692 503e 7d0e ac3d
00000140: 3313 b3bc 994d dbbd f4c4 24bc 1ab8 b23d
00000150: e978 bebd 51f2 963d 09c8 e8bd ef95 d03d
00000160: 5048 0b3c 19ec 063e 420c 343d cb46 0cbe
00000170: 12ee 11be becf 4bbb 97b8 76bd 5eca 093c
00000180: 9eb3 e5bd ddd0 0b3d 3e7d 55bd 11c3 1ebe
00000190: 39e9 cebd f965 043b aecd cbbd 0931 a53d
000001a0: 29e7 f93d 6d43 9abd a947 07be 47e2 00be
000001b0: 995d 463c 0efd 1ebe 92cf ef3c 7954 003d
000001c0: 97b6 b53d dddd eb3c fcaf 8a3d ee3c b7bc
000001d0: 1346 9abd ff63 bc3d fedc a1bd 808e ac3c
000001e0: 734c d73d 003a 3ebc 76fe ccbd 6b7a 023e
000001f0: 76ba ab3c c84b da3d 6acd fbbd 29b1 28be
00000200: b251 bf3d 220b f33d ec8a f8bd 839a 053e
00000210: 4d4b 2dbd 15da 1abc 5262 b43d 1acb e5bd
00000220: de30 883d 5915 b5bd ffed a53d cdf6 153d
00000230: 8fa4 443d 0f7e 513d 2351 b0bd df4d 223d
00000240: e32a 363d 98c7 003e b049 713d 91ca dbbc
00000250: 01d7 74bd 3a39 0ebe 5ebb afbd 14bd 9a3d
00000260: 55f5 aabd 671f 6e3d 8282 8bbc ce54 83bd
00000270: 1933 a73b f97c 2c3c 8624 b23d 7b54 5ebd
00000280: b6b4 9bb9 5a1a 193e 0404 76bd 270d 0a3e
00000290: c79c 68bd 3bc4 89bd 7e7d e5bd 95f6 00be
000002a0: 3698 0ebe 9dae fc3c 75a2 87bd 059c 55bd
000002b0: 5d71 043e 6f2e 133d ef6a f1bd 528c 1b3b
000002c0: 501a 923d e7b5 e93d 4c59 4abd 1536 04be
000002d0: 1edb 0c3e 1db2 e4bd 5c98 0e3e dc02 92bc
000002e0: e771 013e 2caa 79bc a818 d63d 8899 a43d
000002f0: d0e4 2fbe c301 a5bd bd89 143e 1afd d23d
00000300: 7908 f43d 3299 d93d 0857 1f3d 0bb3 05be
00000310: 5cac dbbd 2e9d 14bc 4181 b73d a794 11bd
00000320: ee30 393d efe3 303c 91a4 eebd 6c47 b63c
00000330: ddc3 78bd 5fff 35be 4db1 0dbe 2d98 8abd
00000340: 29ed 9a3d f2cc bb3b ef3b f83d 18d0 91bd
00000350: b216 033e 7b51 7d3c 87c3 c6bd 8323 30bd
00000360: 783e 52bd 3b2e 0b3e da30 553c 905c 903d
00000370: 455e 73bd 3d24 d53d 7ec3 b63d 71be 043e
00000380: 7f33 eabc c22b 1c3e f795 bdbd 2985 9cbd
00000390: 6f38 dabd 3a4f d63c 696e 92bd 79ec 20bc
000003a0: 88d1 3f3d 96e9 b8bd 89ba 9b3d fa70 063d
000003b0: 1e48 29be cb26 2bbd 8254 863d 1008 623d
000003c0: 65d4 1fbd 02b7 7cbc 8999 92bd e18e e33d
000003d0: b293 143e c45e babc fa97 2f3d ec48 ecbc
000003e0: 8bc8 fe3c 6381 053d e295 883d 699c 0cbe
000003f0: e093 d0bd 9fda e93d db4c dcba 8442 c5bd

bias f4 [10]
-0.08872242 0.019805608 0.09681565 0.073891275 0.011624036 0.038800996 -0.004889661 0.08592595
0.028959194 0.005170178
00000000: 1ab4 b5bd 5f3f a23c 4947 c63d 4f54 973d
00000010: be72 3e3c cbed 1e3d 7339 a0bb f2f9 af3d
00000020: d53b ed3c 996a a93b
