tudui_9.pth (torch, 587399 bytes, 10 tensors)

weight f4 [32, 3, 5, 5]
00000000: e66c 9a3a 69b2 31bc 352e a2bd 4795 0fbe
00000010: 6428 24bc 2384 df3d e5dc 36bc 2097 8d3d
00000020: f7fc 243e 98bc 6ebc fc81 88bc 644a c0bc
00000030: 8606 77bb d3cd a73d 07fc a7bd a580 c4bd
00000040: c914 8f3d 113e 9dbd 87e0 08be 56da 0bbe
00000050: 7371 1abe 71c4 8cbd cfcb 74be 9901 64be
00000060: 4408 3dbd 5d3e 173c c142 883d e38d 57ba
00000070: 4af1 debd 5b85 2b3d 2ffe 4f3d 6dbe 3fbd
00000080: 510b 293e 5e92 453e f07d 183e 7706 63bd
00000090: bc2e ff3d d3bd 0c3e 42ce 303e 848a 703c
000000a0: aa85 71bd b417 fa3d f78d 673d 7bf6 56bd
000000b0: 5917 293c a00b 033d 9a97 eebd 19a8 f7bc
000000c0: f771 bfbd d400 25bd aead 0fbd 37d3 b7bd
000000d0: 783c e0bd 2df8 1dbd b778 c83d 2fdc 163e
000000e0: 10bd 023e 61d1 ed3d d00e f73d 3aff 793d
000000f0: bf32 ea3c e2f6 3c3d c455 5739 344f e03c
00000100: dc76 1fbd cf4e 703d 1651 ed3d a813 3e3d
00000110: e193 c43c 5284 b53d 0315 16be 8399 3abe
00000120: a4f7 c9bd f553 63bd 9b91 f03c db31 28be
00000130: 085e 1cbe ffa4 46be 0fdc 3abe 1a5d 0fbe
00000140: 8a36 23be 7660 96bd 1a36 bcbd 53f4 b9bd
00000150: c9b9 93bd 3605 c23c 37d7 8b3d d751 c2bc
00000160: aa36 d8bd 7457 bebd a438 ebbd a60f 5d3c
00000170: eb28 d53c 7696 1fba 4ccf 2d3d 8836 d83b
00000180: 3daa 0f3c e109 bcbb 8e27 083e a3b2 ce3d
00000190: 50de c7bd 120a 06bd 5812 1abe 0b3b 3abe
000001a0: 1921 0abe 12c2 ccbd 86b6 29be 288b 3bbe
000001b0: 6f4a 3cbd 5e6c 6b3d 4ee5 333d bf4a 6c3d
000001c0: edfa 443d a171 a03d 722c 9ebc e78e b03d
000001d0: 56fa 4bbc 802c 013d 4aea ca3d cd1e 1f3e
000001e0: 20fd 1c3e 59e5 a63d 8975 173e 1088 0bbb
000001f0: 1e2f dcbb 51c2 a8bd a89d 783c fa31 5fbd
00000200: 4fad 90bc ccd8 d7bd 6389 b03d d8a4 08be
00000210: 2252 89bc 9ac6 4a3d 8fad 4abd 4c60 cd3d
00000220: 890e 333e 6a1a a7bb 95ca 113e c2fb 1bbd
00000230: ab15 9b3d 8dbb 303c 5544 543e 540e 923d
00000240: 3e6e 363e 8b05 003d 8211 413e 1c89 523e
00000250: f0b2 653d 7588 bd3d 53f4 083c 404d 3bbd
00000260: 0cc9 35be 7ac9 32bc a6d4 75bd 34fe 99ba
00000270: 23df 9abd 151d 1cbd c8e6 c93c 7b31 c33d
00000280: b3fa 30be 5dd4 a0bd 5bcc 873d 8165 e8bc
00000290: 3ca0 f13d be90 c6bd acc2 e7bd bdc7 203d
000002a0: caaf 78bd cd16 aabd 8718 84bc a5bd c3bd
000002b0: 1021 b4bd f920 bd3d 9ec3 7cbd 7d8d b4bd
000002c0: 7788 eabd add3 583c a43b 66bd 2a43 10bd
000002d0: d24a 90bd d887 df3d 4ee4 463c 29be cc3d
000002e0: 5a4c 353e 6e1b 463b 6714 f93c bb27 fcbc
000002f0: 8359 ba3d 8c4d ec3d 0f56 cc3c 1e61 3fbd
00000300: fc2a f73d db43 e7bd b095 a7bd ba8e c93d
00000310: 9172 ec3d 5dc7 083e 6b88 d23d ef56 cc3d
00000320: 334a 9cbb d254 debd b8d0 e9bd fa10 39bd
00000330: d2f8 5c3d cf9f 5a3d 8202 8fbd 4d75 a03d
00000340: eb58 89bb fe0b 3abd 3488 d9bd fdd5 8dbd
00000350: 0b19 ca3d f994 0c3e a05a 303e 6fa6 d4bd
00000360: d13e ca3d 9f6b 033e 1599 c4bd 529b e3bd
00000370: a2d1 6ebc 858f 6b3d fe26 5e3d 6a24 db3d
00000380: f199 133d d6af 06be 2103 0a3c 6ae3 8bbd
00000390: 2ffb 5cbd ce1b ab3d 0f7e a9bd a911 5ebb
000003a0: e2c7 23be 1606 29bc f547 1abe f403 c43d
000003b0: 1908 6fbd 0058 0abe 4a83 25be e832 09be
000003c0: db49 08be d0db 23be 2fbf 35be 8252 a23d
000003d0: b1a0 723d 6957 ecbd f9a2 1b3d 7c9a ca3d
000003e0: 8fa1 eabc ece4 e4bd a707 18bd 090b 82bd
000003f0: a852 a8bd 0fb6 c23d 1f4b 79bd 0e59 d1bc
0.0011781722 -0.010845759 -0.079189695 -0.14021789 -0.0100193955 0.10913875 -0.011161064 0.069135904
0.16112123 -0.014571331 -0.016663544 -0.023472972 -0.0037693097 0.08193555 -0.08202367 -0.095948495
0.06986386 -0.07677854 -0.133669 -0.13657507 -0.1508234 -0.06873406 -0.23905872 -0.22266234
-0.04615046 0.009231177 0.06653357 -0.0008222742 -0.10885866 0.041875225 0.050779518 -0.046812464
0.16508223 0.19294116 0.14891791 -0.055426087 0.12460086 0.13744287 0.17266181 0.014681462
-0.058965363 0.12211552 0.056531873 -0.052481156 0.010320508 0.03199351 -0.116500095 -0.030231522
-0.09347909 -0.040283993 -0.035077743 -0.08975833 -0.109490335 -0.038566757 0.097886495 0.14732431
0.12767434 0.116122015 0.12063372 0.06103442 0.02858865 0.046133883 0.00020535948 0.027381517
-0.038931713 0.058668908 0.115877315 0.046405464 0.023996295 0.08863129 -0.14656453 -0.18222623
-0.09861687 -0.05549999 0.029366305 -0.16425268 -0.15270245 -0.19398879 -0.18248008 -0.14000359
-0.15938774 -0.07342617 -0.091900066 -0.09079804 -0.0721317 0.023684125 0.06828158 -0.023720665
-0.10557301 -0.09294024 -0.11485413 0.0134925 0.026020488 -0.0006087789 0.04243402 0.0065982975
0.008768615 -0.0057384823 0.13296339 0.10092666 -0.097591996 -0.032724448 -0.1504606 -0.18186586
-0.13489188 -0.099979535 -0.16573533 -0.18314803 -0.045969423 0.057476394 0.043919854 0.05768847
0.048090864 0.07834173 -0.019308303 0.086210065 -0.012449821 0.03153658 0.09907968 0.15539093
0.15330935 0.08149213 0.1479093 -0.0021290816 -0.006719484 -0.08240188 0.015174307 -0.05449102
-0.017660765 -0.105393976 0.086199544 -0.13344133 -0.016762797 0.049505807 -0.049481925 0.10028133
0.17486013 -0.0050995843 0.14237435 -0.03808189 0.07572492 0.010786903 0.20729192 0.07131639
0.17815492 0.031255286 0.18854335 0.20560116 0.05607885 0.09254543 0.008359033 -0.04572797
-0.17752475 -0.010912294 -0.06001725 -0.0011748732 -0.07562091 -0.038113672 0.024646178 0.09530922
-0.17283134 -0.07853005 0.066307746 -0.028368713 0.117981404 -0.09695576 -0.113164276 0.039252985
-0.06071452 -0.0830513 -0.016124977 -0.09557656 -0.08795369 0.09234805 -0.061709993 -0.08816049
-0.1145181 0.013234061 -0.05620922 -0.035220303 -0.07045521 0.10914582 0.012139393 0.09997208
0.17704907 0.0030228752 0.030405236 -0.030780664 0.09099104 0.115382284 0.02494338 -0.046723478
0.120687455 -0.11292239 -0.081828475 0.09841676 0.11545289 0.13357301 0.10279926 0.09977519
-0.0047695874 -0.10856022 -0.11416763 -0.045182206 0.05394823 0.05337506 -0.069829 0.07834873
-0.004191508 -0.045421593 -0.10621682 -0.06925581 0.09868058 0.13728704 0.1722207 -0.10383307
0.098752625 0.12834023 -0.095995106 -0.111136094 -0.014576348 0.057509918 0.054236405 0.10700305
0.03603548 -0.13153014 0.008423598 -0.06830485 -0.053950485 0.08354913 -0.08275997 -0.0033885038
-0.15994218 -0.010316392 -0.15066512 0.095710665 -0.058357332 -0.13510132 -0.16163364 -0.13398325
-0.13309424 -0.1600182 -0.17748712 0.07925893 0.05923528 -0.1154011 0.03799722 0.09892747
-0.02864149 -0.11176476 -0.037116673 -0.06349761 -0.082188904 0.09507381 -0.060862657 -0.02555516

bias f4 [32]
00000000: 1278 2b3d 2340 27bd 7dc4 d9bd 1ce4 9c3d
00000010: 5a78 0b3e 7f77 e2bc 1c48 1a3c 0c2c 5d3d
00000020: c6b9 15be 4e13 2f3e d3d9 0d3e d6c2 06be
00000030: 5f50 0b3e 1772 69bd a7f4 713e 3ad3 f73d
00000040: 7cbf 51be 7adb b9ba 17af 523e 57bb 893c
00000050: 2af4 8e3c 7d93 93be 107f 14be 7e2e 34bd
00000060: 185e 87be f199 1f3e 27bd 8a3d f3c0 92be
00000070: f9df 4bbe 0523 01be 4f31 73be ed59 283e
0.041862555 -0.04083265 -0.1063318 0.07660696 0.13620129 -0.02764487 0.009416606 0.053997084
-0.14621648 0.17097208 0.13852625 -0.13160262 0.13604878 -0.05699357 0.23628484 0.12100835
-0.20483202 -0.0014179789 0.20574604 0.016812963 0.01745041 -0.28823462 -0.14501595 -0.04398965
-0.26438975 0.15586068 0.06774359 -0.28662834 -0.19909658 -0.12611015 -0.23749278 0.16440554

weight f4 [32, 32, 5, 5]
00000000: 0baf a33c cfd5 bd3c 4594 1cbc 7b3d 8e3c
00000010: 2b08 24bd 6939 5ebc 6a66 343d ab66 1ebc
00000020: c0df fd3c b1bd 1f3d 3b76 033c 541b 933c
00000030: 081d 1cbd c572 2abd 27e6 18bd 2a85 22bd
00000040: 5e14 033d 6e7f 663c 7d14 b63c ba05 21bc
00000050: 5304 373c 0916 123d 047e 10bc 8f3e 2f3d
00000060: b9e7 0e3d 5930 743c 55de bfbb 9448 2ebc
00000070: 05ee 3e3d b538 45bc 17c2 8fbc 5603 4ebb
00000080: e082 263d ee84 893c ddff 1f3d 8ce2 50bc
00000090: ebf4 9abc 0224 053b 38ad 0d3d 2109 29bc
000000a0: e236 a3bb c74b 293d 31ae 413d 513d 513d
000000b0: 0e36 483c bca0 273b 165d f439 3e99 e93b
000000c0: adc2 3ebd 92c1 0bbd f6e6 4bbc 90e6 a93c
000000d0: 6692 403c 1616 8cbb a045 88bc 7d87 173d
000000e0: 5ac8 033d 396d 073c 21f1 8abc dee5 66bc
000000f0: c663 003d 3b11 89bc 1773 b2bc bf7a ce3c
00000100: 86f8 2a3b be20 cabc d0a5 c6bc f5cd 5dbc
00000110: 94ba 813c 018f 813b fdde 9b3c 9531 df3c
00000120: 4075 ae3c 3f24 033c b19d 06bd 05b7 56bc
00000130: 1ce4 5abc 3a45 353a 8dfa d6bc cae7 813c
00000140: a80f 0db8 5a9e feba d826 563c bb38 ad3c
00000150: 1c8a 2ebc f6ce ef3c 1a48 803c 11f3 223d
00000160: fefc 3d3d 3add 94bc 5773 99bc cdf7 0e3c
00000170: 9572 cb3c 2dbd a03b 8c51 a83b 23dd f2bc
00000180: cc64 ab3c 04ac 17bd 127b e3bc 3560 793c
00000190: 2e6f 143c d586 683c a633 94bc b2dc e3bc
000001a0: 1a93 943c 4a28 eebc 1db2 833b 319b 06bd
000001b0: ea01 5e3c c05d e3bc e922 623c 9a81 95bb
000001c0: 9620 373c 9b65 1bbd bc8a d0bb 4f71 dc3c
000001d0: 89fd bd3c 398d fd3c d52a eabb ab83 2b3b
000001e0: 60e2 983c 61ef d23b 689f ff3b ce03 903b
000001f0: 36f7 473c bbd8 dfbc 33b7 403b ae8a 8b3b
00000200: 7315 bcbc 6b01 db3c 3739 c7bb c530 193c
00000210: 1b79 163c 37cc f7bb 197f 6f3c e03c e4bc
00000220: cce2 8a3b 8f67 e53c 53d8 133c cd0c c23c
00000230: 58c7 593a 8b3c 59bc 982e 153d d0e6 b6ba
00000240: 2759 ac3c 9765 bebc 3d86 cdbb 3b4c 2b3c
00000250: 78d6 023d 9e20 2b3d e97b 96bb 70c8 a8bc
00000260: ff26 ac3b b2cb 123c ccea 84bc 9c0a ba3c
00000270: 5cca 593c 723e b63c 5404 42ba 7064 5dbc
00000280: fdf7 113d 23eb 193d 6b66 873c 3fe8 133d
00000290: 7501 013d 2e69 a4bc caf5 be3b 83e6 f1bc
000002a0: f011 2cb8 4b17 95bc 091c 843c 5769 db3b
000002b0: cfe6 97ba 3edf 9d3c e2a1 9abc 6b42 e83c
000002c0: 0e87 563c aede 2f3c 85eb 303c fdf4 23bd
000002d0: 92c2 8fbc 0b6a 303c daf1 db3c 18e7 423c
000002e0: 4706 3ebd a14d 9c3c 19bc f63c eebf 56bb
000002f0: 19f3 223d 461d 9cbc facb d93c 83dd 9ab9
00000300: 7f91 9a3c 4b5d 3b3d f746 efbc 82e4 0cbc
00000310: 37f2 593c 94b2 a63c f47f 8cbc 6c9b e3bc
00000320: 4244 cc3c ce2e bcbc 4764 0fbd e15f b0bc
00000330: 25b2 0abc 24fd a2bc 3b70 0b3d fb8e 01bd
00000340: 2b0c 8dbb 133f b53c 4ae2 66bb 004c a73c
00000350: c0b2 4a3c c941 643c d699 d63b 6c4b a7bc
00000360: 9e41 a8bc 0667 a8bc 49b4 f43c 233e bf3c
00000370: 1a97 98bb 3450 973c e038 fcbc 6d74 be3a
00000380: e8bc 6cbc 019e cfbc 336e e83c dadf 063d
00000390: 962d 163c 295b 993c fcd2 ce3b 67ca ea3c
000003a0: f16d 07bd 0b9e b1bc 7c86 3a3c 8464 573c
000003b0: 8a51 06bc 8ec0 ac3c 482d 01bd f679 67ba
000003c0: 0344 ddbc ab0d c5bc 1277 67bc c041 a03c
000003d0: 972b fcbc bd66 18bc 6cba f63c 50b4 c23c
000003e0: f0b6 4fbb 66e1 443c a994 823b fa55 cb3c
000003f0: 562a eb3c 78c1 8dbb 8d36 85bc d81c 46bc
0.019980928 0.023173241 -0.009556835 0.0173633 -0.040046852 -0.013563492 0.044042982 -0.009668033
0.030990481 0.038999263 0.008023794 0.017957367 -0.038113624 -0.04161336 -0.037328865 -0.039677776
0.032001846 0.014068468 0.022226566 -0.0098280255 0.011170465 0.035665546 -0.008819107 0.04278427
0.034888957 0.014904105 -0.0058553615 -0.010637421 0.046613712 -0.012037446 -0.017548604 -0.0031435094
0.040652156 0.016787019 0.03906237 -0.0127493255 -0.018915614 0.0020315652 0.034589022 -0.010317118
-0.004980908 0.041332033 0.047285262 0.051083867 0.012219919 0.0025577983 0.0004660866 0.0071288636
-0.046572376 -0.03412015 -0.012445202 0.020739824 0.011753654 -0.004275094 -0.016634762 0.036994446
0.032173492 0.008265787 -0.016960682 -0.014092891 0.03134515 -0.016731849 -0.021783395 0.025205014
0.0026088073 -0.024673816 -0.024248987 -0.0135378735 0.015836038 0.003953815 0.019027228 0.027245322
0.021296144 0.008004247 -0.03286523 -0.013105159 -0.01336005 0.00069149176 -0.026242519 0.015857596
-3.36316e-05 -0.0019425855 0.0130707845 0.021145215 -0.010653045 0.029273491 0.01565938 0.039782587
0.04638385 -0.018171895 -0.018731756 0.0087260725 0.02483491 0.004905364 0.0051366743 -0.029646462
0.020922087 -0.03702928 -0.027768645 0.015220691 0.00905971 0.014192303 -0.018091034 -0.027815197
0.01813655 -0.029071946 0.0040190355 -0.032862846 0.013550261 -0.027754664 0.013802269 -0.004562569
0.011177203 -0.037938695 -0.0063641947 0.026909498 0.023192184 0.03095113 -0.0071462193 0.002617101
0.018662632 0.0064372276 0.007800985 0.004394985 0.012204936 -0.027325025 0.002940607 0.0042584753
-0.022959447 0.026734075 -0.0060798186 0.0093500065 0.009184147 -0.007562186 0.014617705 -0.027861059
0.004238462 0.028003482 0.009023744 0.023687745 0.00083075976 -0.0132590635 0.03642139 -0.0013954286
0.021038605 -0.023241801 -0.006272106 0.0104551865 0.031942815 0.041779153 -0.004592408 -0.020603389
0.005253672 0.008959698 -0.016225241 0.022710137 0.013292875 0.022246573 -0.00074011576 -0.013512716
0.03563689 0.03757776 0.016528329 0.03611016 0.03149553 -0.020069685 0.00582764 -0.029528862
-4.10247e-05 -0.018199584 0.01612665 0.006695907 -0.0011589172 0.01927149 -0.01887602 0.028351983
0.013093723 0.010734243 0.01079834 -0.04002856 -0.017548833 0.01076747 0.026848722 0.011895917
-0.046392705 0.019079985 0.030118989 -0.0032768208 0.039782617 -0.019056927 0.026586521 -0.00029538208
0.018868206 0.045743268 -0.029208643 -0.008599402 0.013302377 0.020348825 -0.017150857 -0.027784072
0.024934892 -0.022971537 -0.03500774 -0.021530094 -0.0084653245 -0.019896097 0.03404258 -0.031630497
-0.004304429 0.022124803 -0.0035230094 0.020421982 0.012371719 0.0139317 0.0065491004 -0.020421706
-0.020539101 -0.020556938 0.029871123 0.023345059 -0.0046566846 0.018470861 -0.030788839 0.0014530547
-0.014449336 -0.025343897 0.02837286 0.032928325 0.009166142 0.018720226 0.0063117724 0.028660966
-0.033063833 -0.021681806 0.011384603 0.013146523 -0.008198151 0.021087911 -0.031537324 -0.0008830124
-0.02700997 -0.024054369 -0.01412751 0.019562602 -0.030782504 -0.009301838 0.03011819 0.02376762
-0.0031694733 0.01201663 0.003985007 0.02482127 0.02870671 -0.004326042 -0.016261363 -0.012091838

bias f4 [32]
00000000: 8b73 10bd 4c46 b0bc e3b1 a3bd b445 8e3d
00000010: 256d 703d d927 24bd a4d0 afbd 82ba 8abc
00000020: c487 013c 947f bdbd a324 7cbd fa94 bebd
00000030: 388b 6fbd 1f2b 8ebc 0d30 8b3d fe1a 47bb
00000040: 4cd3 c1bc f61b 99bd 1302 33bd 3aee 1d3d
00000050: 5b64 97bd 94dd 7dbc cac2 88bd 91f5 31bd
00000060: c114 0dbd e8a8 3cbd c37a 483d e886 9f3c
00000070: bc52 04bd 982b ebbd 6015 2cbc 9979 99bd
-0.03526644 -0.021517895 -0.079929136 0.069468886 0.05869784 -0.040077064 -0.08584717 -0.016934637
0.007905904 -0.09252849 -0.061558377 -0.09305759 -0.05848238 -0.017354546 0.06796274 -0.0030381079
-0.023660325 -0.07476036 -0.04370315 0.03855727 -0.07392188 -0.015494723 -0.06677778 -0.04344708
-0.03444362 -0.04605952 0.0489452 0.019473508 -0.032305464 -0.11482924 -0.010503143 -0.07493896

weight f4 [64, 32, 5, 5]
00000000: 575e fe3c b944 25bc 32af 173c 2dba 02bd
00000010: c610 84bc b5df d1bc e35b 97bb 4b78 04bd
00000020: beef fcbc 20a1 3d3c 0bf6 eabc b3ae fcba
00000030: e589 e93c 4486 6b3c ede9 59bc db2c cabb
00000040: 23cc 6dbc e7e1 d83b 8c80 87bb 8c36 fabb
00000050: fb13 2b3c 46a3 c93b abdd 08bc 6e1f 043c
00000060: ad9a 4bbd 30c4 fdba 9616 0fbd 2db8 fdbc
00000070: 812c bb3b 0ff9 863c 5c26 8e3c ac87 84bc
00000080: 692c 25bd cce2 4e3b 370a b83c c72c ff3c
00000090: 0516 f3ba 1744 6dbc ea93 a13c 4d9d f4bc
000000a0: b8a6 df3c a303 013d 2af2 9fbc 0530 1dbd
000000b0: 4dc6 c03c 1988 ddbc acf0 923c 97ae 4dbc
000000c0: dcfe 84bc 719b ab3c bf8e e33c d44d 4aba
000000d0: c373 a13c b00d 14bc c95d b0bc 26ca 073d
000000e0: 84dc 48bc 90af 5a3c ef8b 8e3c 5af5 b13c
000000f0: ede2 043c d320 3fbd 46ff fcbc d7bb 9d3c
00000100: 35c6 48bc 3a06 b9bc a687 103c 6f92 c93b
00000110: a262 a6bc bf76 8639 2cab 873c cdc5 573c
00000120: 1bb6 27bd 0046 003c 0798 153d 9d8d c2bc
00000130: 426c aabc c0a6 e5bc 2349 82bc b86b 07bb
00000140: d221 e33c 395b 4f3c ea8a 0a3d 89e2 1fbc
00000150: abef b63c 359f 02bd f576 1a3d 5345 353d
00000160: a48a c7bc 398e 46bd bfb0 82bc d315 b63b
00000170: 7319 08bc 1e8a b5bc 1e71 843b b9ab ffbc
00000180: 4ffb 23bd 2411 e3bb b173 88bc 6f32 353c
00000190: 0b9d b1bc df2c 983c 333c 8b3c f30e 313b
000001a0: 5856 883c 10e8 343c 23ba 143d ffd2 b43c
000001b0: 809e 2fbc b977 5bbc 4e91 ec3c 1d36 413c
000001c0: 1ca2 aa3c 945d c0bc 588e 47bd fc12 653c
000001d0: a805 bb3c 724a 493c 43a9 123d bc9b 25bd
000001e0: fd8d 933c e585 9bbc f132 293d f8e5 a7bb
000001f0: a0c2 5cbc c65b 22bd 3bb0 49bc e13d 883a
00000200: 2df6 65bc fc8a bfbc 96d5 d2bc 20cc baba
00000210: 214f 65bc 764d aa3c ac1f 093c d02a 423b
00000220: c20a d5bb 8e5f 743c 3c04 683d ce5b 1a3d
00000230: e8c1 36bc b468 6a3c 8072 d93c df8a 6abc
00000240: ed10 83bc c60b c73c fabc 2a3c 07dd a83c
00000250: 82d6 0b3d ea24 ec3b 5f92 a7bc 25fc 14bc
00000260: 727a 61bd 422d 4b3c bd1a 2ebd d9cc bfbc
00000270: a476 263c a351 a5bc 086b 493b 24b5 58bb
00000280: 2124 963c b129 34bc 1f37 e73c a68a 1d3d
00000290: ce1f e33c 8a2c 16bd e5c1 e8bb 42bb 8bbb
000002a0: fef4 0c3c f97f 07bc 2c73 05bd 7070 bebc
000002b0: b98e 66bb 9a1e 87bc 6658 883c 4e5a e6bc
000002c0: 96d7 f03c 28af fcbb af83 023d 756a e4bb
000002d0: 4bed 863c 6e85 553c ec15 06bd 5e35 193d
000002e0: ab85 ccbb b02f 49bc 6863 ea3b 681d 2b3c
000002f0: 8cfd 9f3c 3983 183b 0f44 afbc f5bf cebc
00000300: 5404 15bd a95f 90bc e3b8 b4bc fca3 07bc
00000310: 3601 47bd 0784 32bd b982 25bd e31d ec3b
00000320: 77e0 ea3c e4c4 6e3b 47d7 06bb 3b0b 31bd
00000330: 3313 42bd 4dea ea3c b941 b13c 4c26 ccbc
00000340: db8a a8bc 4988 ea3b 5578 143c 66ab 3f3c
00000350: 82b8 07bd f51e f8bc 99e8 9bbc 19b7 f2bc
00000360: a3bb fbbc 89d7 8b3b 4610 64bd 3bd3 c6bc
00000370: ee1c 9c3c f686 c73b 23fc 1bbd 3abb 72bd
00000380: 0df7 46bd ae76 a23c 7201 e83c 59f0 99bc
00000390: b720 2a3c c35a a73b b79a 1dbc 1d3b 74bd
000003a0: 3a4a 2dbd fff2 133b c42b f6bc 3894 6c3c
000003b0: fcea 1b3c 966d 05bc 0510 383d 715a 49bb
000003c0: e4ab b0bc 90e3 8a3a c135 83ba fb5f 333d
000003d0: 9b49 f93c 1e5b 19bc 04fb 04bc 7cd9 b4bc
000003e0: e5f2 3cbc be35 2b3d dc0d 27bc 46b3 10bd
000003f0: 32f7 07bd cb40 60bd ee44 00bd f02a 83bc
0.031050844 -0.010087186 0.009258078 -0.031915832 -0.01612128 -0.025619367 -0.004619108 -0.032341283
-0.030876037 0.01157406 -0.028681776 -0.0019278139 0.028508136 0.014375273 -0.013300401 -0.006169898
-0.014514002 0.0066187265 -0.004135197 -0.007635897 0.010441775 0.006153497 -0.008353631 0.008064134
-0.049708057 -0.0019360837 -0.03493365 -0.03097161 0.0057120924 0.016476182 0.017352276 -0.016177975
-0.040325556 0.0031568287 0.022465808 0.031149281 -0.0018545991 -0.014481566 0.019723851 -0.029860163
0.027301177 0.03149761 -0.019524653 -0.038375873 0.023532057 -0.027042435 0.017937027 -0.0125538325
-0.016234808 0.020948144 0.027778028 -0.0007717286 0.01970852 -0.0090364665 -0.021529095 0.03315177
-0.012259606 0.013347521 0.01740071 0.021723438 0.008110744 -0.046662163 -0.030883443 0.019254608
-0.0122542875 -0.022585977 0.008821404 0.0061514894 -0.020310704 0.00025646944 0.016561113 0.013169718
-0.040945154 0.007829189 0.036521938 -0.023749167 -0.020803574 -0.028033614 -0.015904015 -0.002066357
0.027726088 0.0126560265 0.033823885 -0.0097586 0.02233108 -0.031890113 0.037711103 0.044255566
-0.024358101 -0.048475478 -0.01595342 0.005556801 -0.008306849 -0.022160586 0.004041805 -0.031209813
-0.04003459 -0.0069295336 -0.016656728 0.011059388 -0.02168133 0.018576084 0.016996479 0.0027016967
0.016642734 0.011041656 0.036310326 0.022073267 -0.010718942 -0.013395243 0.02887788 0.011792687
0.020829253 -0.023482122 -0.048719734 0.013981577 0.022829846 0.012285816 0.03580595 -0.040431723
0.018012041 -0.018984744 0.041308347 -0.00512385 -0.013474137 -0.039638303 -0.012310083 0.0010394418
-0.014035744 -0.023381703 -0.025736611 -0.0014251508 -0.013995917 0.02078889 0.008369368 0.002962757
-0.0065015266 0.01491536 0.056644663 0.037685208 -0.011154629 0.01430719 0.026543856 -0.014315336
-0.015999282 0.024297606 0.010421032 0.020613207 0.034140117 0.007206549 -0.020455537 -0.009093319
-0.055048414 0.012400927 -0.04250597 -0.023413109 0.010160122 -0.020180529 0.0030733962 -0.0033066953
0.018327774 -0.010996268 0.028224526 0.038462304 0.027725127 -0.03666357 -0.007103192 -0.004264266
0.008603333 -0.008270257 -0.03258054 -0.023246974 -0.0035180284 -0.016494084 0.016643714 -0.028119233
0.029399674 -0.00771131 0.031863865 -0.0069706985 0.016470572 0.0130323 -0.03273575 0.03740441
-0.0062415204 -0.012279436 0.0071529634 0.010444023 0.01953008 0.0023271574 -0.021394758 -0.025238017
-0.03638108 -0.01762374 -0.022060817 -0.008278843 -0.04858514 -0.043582942 -0.04040787 0.007205711
0.028671486 0.0036433274 -0.0020575093 -0.0432236 -0.04738159 0.028676176 0.021637784 -0.024920605
-0.020574024 0.0071573597 0.0090618925 0.011698579 -0.033134945 -0.030288199 -0.01903181 -0.029628323
-0.03072912 0.004267637 -0.055679582 -0.024270644 0.019056763 0.0060890866 -0.038082253 -0.059260584
-0.04857545 0.019831982 0.028321002 -0.018791365 0.010383776 0.005107255 -0.009619406 -0.059626687
-0.042307116 0.0022575257 -0.030050166 0.014439635 0.009516474 -0.008143803 0.044937152 -0.0030724073
-0.021566339 0.0010596383 -0.0010010527 0.043792706 0.030430606 -0.009360103 -0.008116487 -0.02207636
-0.01153252 0.0417993 -0.010196175 -0.03532722 -0.03319473 -0.05474929 -0.031315736 -0.016011685

bias f4 [64]
00000000: 6798 56bb 95d4 7abb 3ff7 59bc 5fe9 923c
00000010: 6f6d 0ebd 9e38 27bd 158a 43bd 9c38 2f3c
00000020: bb2d 0cbd cd37 bdbc 61ae b8bc acfd b7bc
00000030: 62cc b3bc 1d20 88bd f540 07bd 02d1 46bd
00000040: 1a50 69bd 75cb 1bbd 0d44 d03b c7cc 62bb
00000050: d02b 2abd 22ac 6d3c f554 8abd 6913 bc3c
00000060: dfed e339 b57f c2bd cdfb 08bd 9bd3 abbd
00000070: e846 663b 4386 2cbd 3cca 393b 2bf5 1cbd
00000080: 4308 cf3a a50c adbd 7c9a 8e3c 9e02 6abc
00000090: 2cd0 8b3c 7041 0ebd 39ce e0ba 7815 57bd
000000a0: 8ce7 6bbd 8bd1 a3bd 0632 bfbc 7f41 92bc
000000b0: a905 39bd 7207 0abd dbde 05bd 0605 a53c
000000c0: b1a0 99bc 0e0f 473b da09 d438 6c68 aabd
000000d0: bb95 5bbd 57c9 cb3c d63c 0b3b 658f b2bc
000000e0: 0ebd af3c 81af 7bbd bff3 52bc a0a5 00bd
000000f0: 7c58 a3bd de67 13bd 081c 88bd cc11 49bd
-0.0032744647 -0.0038273681 -0.013303577 0.017933546 -0.034772333 -0.04082548 -0.047739107 0.010694649
-0.0342233 -0.023097897 -0.022544088 -0.022459827 -0.021948043 -0.0664675 -0.033020932 -0.04853917
-0.056961156 -0.03803583 0.0063557685 -0.003460692 -0.04154569 0.014506372 -0.067544855 0.022958474
0.00043474042 -0.094970144 -0.03344326 -0.0838997 0.0035137478 -0.04212023 0.00283493 -0.038319748
0.0015795309 -0.084496774 0.017407648 -0.014282851 0.017067038 -0.034730375 -0.0017151303 -0.05251071
-0.057593867 -0.079989515 -0.023339283 -0.017853497 -0.045171414 -0.033698507 -0.032683235 0.020143997
-0.018753381 0.0030373964 0.00010110783 -0.08320698 -0.05360959 0.02487628 0.0021245978 -0.021796891
0.021452453 -0.06144667 -0.012875496 -0.031407952 -0.079758614 -0.035987727 -0.066459715 -0.049089238

weight f4 [64, 1024]
00000000: 247d a1bc 5c77 c8bc 6b03 63bd f094 baba
00000010: 8498 0e3c 9547 993c 3d2e 2e3c 8cb6 943c
00000020: 6173 29bc 6c23 6ebb 0f04 143b 79ca e3bc
00000030: cef5 16bd 6901 f13b d244 5fbc ff1d 91bc
00000040: d3c5 473c b8be 9abc 3dde 56bb 268e 7dbc
00000050: 1dc3 d13c 4ce6 dc3c f8a5 34bc cc42 96bb
00000060: 9dc2 5c3c 225d 013c ae43 dfbc 446f c63c
00000070: 4c41 763c 84cf 103d 5d99 bfbc efa5 28bb
00000080: 9598 70bc 707e 063c dd32 16bc 90bb 9ebc
00000090: 11d7 31bd 3594 0e3d 65f0 a1bc 14cb 953c
000000a0: 3ca5 393c bfe8 2d3d c904 283d 5eaf afbb
000000b0: 660b 7abc 5fd4 98bb 4195 383d 19b3 7d3b
000000c0: 6a71 5bbc e30f 3c3d f644 a8bb 68b2 d83c
000000d0: 0a37 c63b 890b 8e3c 5593 ff3c c3a8 9a3b
000000e0: ce98 c53c e820 a5bc ac1a 8fbb c1be 0bbd
000000f0: 81d0 18bd 494f 04bd 5a76 21bd facb 3ebc
00000100: 6da2 c7bc d199 a73c 38c7 41bc 2617 913b
00000110: 4e43 71bc 696f dcbc edb6 c03c 932f 413d
00000120: a0eb 0e3d e228 273d 940f dc3c ed91 9f3b
00000130: 779f 06bd bc23 b4bc 3fbe 06bc 30d6 5abc
00000140: d395 a2bc e0ff 70bc 6087 abbc 67ce 93bc
00000150: e36c 503d ed1f 153d 87a5 a63c 9b96 2a3c
00000160: b832 2abc e419 f3bb 0b91 2ebc 2c5f 2ebb
00000170: bfff 943c f3c0 bb3c 3700 a0bc 0cfe 703c
00000180: a79d 42bc 0c0b 913c 5045 b13c f77a 06bc
00000190: 8bc6 c53c ef8b 7a3c 8e26 673b b7bb 8c3b
000001a0: 406e 723a 6222 69ba e266 623c cc28 5fbc
000001b0: 57db 6ebc a5b2 5aba 0ce1 53bd 6845 a63c
000001c0: c7c5 613c 5f65 a3bb 57c1 0b3d 6eb6 c539
000001d0: c447 6dbc 64b4 4abc aaed c33c 019b d6bc
000001e0: 6f69 c73a da96 733c 1072 593d 2d77 cebb
000001f0: 7843 02bd d597 2d3c 4f2b 8d3c 4fb1 0a3d
00000200: 6fda 153c ad3d 323d b245 563d 9ccd b33c
00000210: 0e55 b43c 5cd5 0d3d 9409 9fbc d238 2abd
00000220: a191 5cba 4fb9 d33c 2267 2ebd 5bb2 fabc
00000230: b643 c7bc d8ed cb3c 8d48 98bb 1d9e 06bd
00000240: 0a5f 1d3d bd12 343d d699 ba3a 1b70 383c
00000250: 6097 a13b 3562 04bc b1d6 043b fe28 06bd
00000260: ea5a 433c eda9 e23c 6013 b83c 8fe7 beba
00000270: 7e09 08bd 2d17 7cbb 0909 db3b 081e c5bc
00000280: 535b 033d 8ecc c939 3ecc 653d 1a37 7c3a
00000290: f011 88bb b5a2 71ba 276d e63b 6705 983c
000002a0: 460e 67bc d04e 983a 834f 37bd a5e0 84bc
000002b0: 4006 823c 2e4c adbc 27d6 29bd 710b 2cbd
000002c0: 7eff cb3c 62d2 a13c 0404 263c c273 16bd
000002d0: 86ec 8d3c 243a b23c febc 7abc cc41 723c
000002e0: 1b89 9f3c 6d92 52bd b123 0ebd 762b 063c
000002f0: 2938 21bd 549f babc 0755 473a 4327 d83c
00000300: ea36 b4bc 3741 22bc bac7 50bc 4071 43b8
00000310: e5e4 31bd c65c 563c d422 813b 615d 94bc
00000320: 8a5d 26bd 4e75 a0ba 88bb d63b 5cb9 df3b
00000330: 7bcd 44bc 4211 13bc 21d9 93bc 7e17 803c
00000340: e48c 283c ca8a 3bbc dc50 023d d2b5 c8bc
00000350: b4c1 01bd 62e5 073d cca4 18bc 91c7 f73b
00000360: 49f6 043d 0555 923c 713d ea3c 0e1c 53bc
00000370: 273f ed3c 28f9 863b 3734 703c 8059 d3bc
00000380: 56fd 083d b0eb a2bb 6388 e8bc 0ce3 69bc
00000390: 814c e9bb 23c3 1d3d 6c2f a0bc 7509 90bc
000003a0: 5e52 0c3d 744a b8bc 1db8 7fbc 51e8 f93c
000003b0: 049f cd39 7533 683c ca97 eb3b 455d 063c
000003c0: 3c70 7bbc 7a06 91bc fe85 9dbc a578 1abd
000003d0: 861b 90bb 80df f83c 349e 273d 3e55 c73c
000003e0: 9b19 253b dbf9 0d3d b253 303c c07b ff39
000003f0: 2e93 a23c a801 f739 d635 033c dac9 483d
-0.019712992 -0.024470977 -0.05542318 -0.0014235061 0.008703355 0.01871089 0.010631141 0.018153451
-0.01034245 -0.003633703 0.0022585427 -0.027806507 -0.03685551 0.0073549044 -0.013627248 -0.017714499
0.012193161 -0.01888977 -0.0032786273 -0.015475785 0.025605733 0.026965283 -0.011025898 -0.0045855995
0.013474134 0.00789574 -0.027253952 0.024222977 0.015030216 0.035354152 -0.023388559 -0.002573367
-0.014684816 0.008208856 -0.0091674 -0.019376546 -0.043417994 0.03480931 -0.01976795 0.018285312
0.011330899 0.042458292 0.04102019 -0.0053614816 -0.015261507 -0.0046639885 0.045064215 0.0038711487
-0.013393739 0.04591359 -0.005135174 0.026452258 0.0060490416 0.017339485 0.031198183 0.004719825
0.024120715 -0.020157292 -0.004367193 -0.034117464 -0.03730822 -0.032302175 -0.03941951 -0.0116453115
-0.024369443 0.020459088 -0.011827283 0.0044278083 -0.014725519 -0.026908593 0.023524726 0.04716451
0.03489268 0.040810473 0.026862897 0.0048696906 -0.03286692 -0.021989696 -0.008224069 -0.01335673
-0.019846832 -0.014709443 -0.020938575 -0.018042756 0.050885092 0.0364074 0.020342601 0.010411884
-0.010388069 -0.007418858 -0.010654698 -0.002660702 0.018188355 0.022919154 -0.019531352 0.014709007
-0.011878408 0.017705463 0.021639496 -0.008208028 0.024142524 0.015292152 0.0035270783 0.0042948383
0.0009247996 -0.0008893368 0.0138184745 -0.013620567 -0.014578662 -0.000834266 -0.051728293 0.020296767
0.013780064 -0.0049864496 0.03411993 0.0003771069 -0.014482442 -0.01237211 0.023917038 -0.026196958
0.0015213917 0.014867509 0.053087294 -0.006300828 -0.031802624 0.010595282 0.017232565 0.0338605
0.009146317 0.04351585 0.05231256 0.021948628 0.022013213 0.034627303 -0.019413747 -0.041558094
-0.00084140344 0.025845198 -0.042578824 -0.030602625 -0.02432428 0.024893686 -0.0046473206 -0.032865632
0.038420714 0.043963183 0.001423652 0.011257197 0.0049313754 -0.008080055 0.0020269568 -0.032753937
0.011923531 0.027668918 0.022470176 -0.001456486 -0.033212177 -0.0038465962 0.0066844267 -0.024062172
0.032069515 0.00038490113 0.056102984 0.0009621248 -0.004152529 -0.00092176656 0.007032055 0.018557264
-0.014102524 0.0011620168 -0.044753563 -0.0162204 0.01587212 -0.02115449 -0.041463997 -0.0420031
0.024902102 0.019753639 0.010132793 -0.03673149 0.017324697 0.02175624 -0.015303848 0.014786195
0.019474557 -0.051409174 -0.034702007 0.008189073 -0.0393602 -0.022781052 0.00076039176 0.026385909
-0.021998841 -0.009903244 -0.012742931 -4.6597095e-05 -0.04343118 0.013083642 0.0039409194 -0.018110933
-0.04061655 -0.0012241991 0.006553117 0.0068275165 -0.012011881 -0.008976283 -0.018047871 0.015636202
0.010287497 -0.011446664 0.031815395 -0.024500761 -0.03167887 0.03317774 -0.009316634 0.007561632
0.03246144 0.017862806 0.02859375 -0.012885107 0.028960777 0.004119057 0.0146608865 -0.025799513
0.033444725 -0.004971944 -0.028385347 -0.014275324 -0.0071197157 0.038516175 -0.019553863 -0.017582634
0.03425824 -0.02249644 -0.015607861 0.030506285 0.00039219123 0.014172425 0.0071897255 0.008200948
-0.015346583 -0.017703284 -0.019228932 -0.03771271 -0.0043978123 0.03038001 0.04092236 0.024332639
0.0025192264 0.03466211 0.010762142 0.0004872959 0.019845571 0.00047112745 0.008008441 0.049020626

bias f4 [64]
00000000: 6dbc 5dbc aad4 003c 88d3 5d3d 6306 03bd
00000010: 4b99 f3bc b6a4 aebc c572 4cbc 92e6 20bb
00000020: 64fc 833c f5c0 c7bc 09df e83c 839b bc3c
00000030: 4166 c53c 63f5 d0bc 3f05 ccbc 0d14 43bd
00000040: b999 e43b c2db 2e3d 42ed 1b3d 1398 21bd
00000050: 024e a2ba bfd1 8a3d 4505 b0bc c928 0b3d
00000060: e177 62bd 179f 363d e58c 2cbc 6f33 9abb
00000070: 1ac8 a1bc 94f2 033d 0758 d23c f3ac aaba
00000080: 1474 043d 6c49 f3bc 5e24 ffbc 7127 0abc
00000090: bad1 98bc e421 713c 204b b0bc d154 df3c
000000a0: 2451 c13b e8c3 4cbb 4b59 37bc de71 123d
000000b0: 1a97 5fba 878e 8ebd 4215 2dbd 52aa 25bd
000000c0: a8be dd3c ce9e 903c d0c1 1fbc 40f2 ba3b
000000d0: 78ac 0dbc c7cd 30bd 8861 aabc 5cf7 87bc
000000e0: fac4 80bb 616a 773d c4a4 a73b 5a34 37bc
000000f0: fdb9 27bd 567b 9e3c 46c4 cdbc 8fd2 9ebc
-0.013533694 0.007863203 0.05415681 -0.031988513 -0.029736182 -0.021318775 -0.012478535 -0.0024551493
0.01611156 -0.024384001 0.028426664 0.023023373 0.02409661 -0.025507635 -0.024904845 -0.047626544
0.006976333 0.042690046 0.038068064 -0.03945167 -0.0012382867 0.06778287 -0.021486888 0.033974443
-0.055290107 0.044585314 -0.010531639 -0.0047058384 -0.019748736 0.032213762 0.02567674 -0.0013021514
0.032337263 -0.029698096 -0.03114527 -0.008432255 -0.018654693 0.014717553 -0.021520197 0.027262123
0.0058995653 -0.00312447 -0.011190723 0.035753123 -0.0008529291 -0.06960779 -0.0422566 -0.040445633
0.027068451 0.017653849 -0.009750798 0.005705148 -0.008647077 -0.043164995 -0.02079846 -0.016597442
-0.0039297314 0.060404185 0.005116077 -0.011181915 -0.040948857 0.01934592 -0.025118005 -0.019387512

weight f4 [10, 64]
00000000: c1fd 7a3c 4b4f 843d ef11 babd d94c 38bc
00000010: e2d8 883d d993 af3c 261a da3d a8a1 803e
00000020: 8a3b 8a3d 1c6b 063d 444a 4a3c c937 7a3d
00000030: 68ff 813d 62a6 383e 778a 1d3e bc1c da3d
00000040: 5d54 27be 0412 2ebe 1246 9abd b407 ac3d
00000050: 8b4c 503c afa0 7dbe c36b be3d eb60 8b3c
00000060: 5ed7 133d f54b e5bd 666d a7bc 949f b63c
00000070: d07a cbbd 322d 56bd ae41 b0bd 5d06 e9bc
00000080: 15d4 57bd b79c 69be 0482 2fbd 8a1f adbd
00000090: 3a43 3c3e 63ce 41be 5840 da3c a492 81bd
000000a0: 4414 c7bd c0e2 44ba 054c 993d e837 a23d
000000b0: a40a b03d 296c 063e 830a 113e f411 023e
000000c0: 5c15 f3bd 79f2 2f3e a2a2 063e fd18 9c3d
000000d0: 92d2 933c 9776 893d b3ab e63d f413 d0bd
000000e0: 2cb5 7f3e 336b 21be e2c5 23be 37ae 103e
000000f0: bf50 0fbe 931e 16be bf19 3e3e d460 043e
00000100: 43cf 1c3e 14c8 a9be cbaa 14be ed4f c1bd
00000110: 225f 4b3e 2a3b 2abe 10a0 4fbe f44d c4bd
00000120: ccbd 94bd 1d19 f1bd a437 a8be 6544 0bbe
00000130: 16af 8dbc a3c9 803e 0e3e a53e 454d eb3d
00000140: e165 a4bd b6be 1ebe 612a 37bc 9a94 d63d
00000150: 2ee3 12be fca2 063e a05e 04be 70de 063e
00000160: b76f af3c c187 373e 0442 483d 3922 42be
00000170: db02 41be c647 2fbc 94ec d2bd 14d4 16bc
00000180: a7a2 00be 407c 69bc f609 aabd a97f 7dbe
00000190: b380 08be e77f 5d3d 5009 0cbe a9b3 203e
000001a0: 7558 443e a7f8 e9bd 3318 42be 4527 25be
000001b0: deeb 223c 47cd 81be 32d1 953c bd46 5d3c
000001c0: 7475 e43d 9f59 9c3c be6b f13d a6e2 24bc
000001d0: cb4a 1ebe 73f8 ec3d c579 1abe 02e7 593d
000001e0: 75c9 cf3d e2f8 ca3c e59f e7bd 6e2e 313e
000001f0: 98b2 2b3d 4749 2a3e 13fb 2ebe 4599 97be
00000200: 5320 c83d d390 423e 43cf 1abe 9a39 163e
00000210: 4dc2 9cbd 7fa5 223b 1175 023e d210 f4bd
00000220: 7c28 fa3d 8343 09be a805 f83d ecd6 263d
00000230: d483 0e3d c01f 17bb 9ce8 12be 9355 8d3d
00000240: 4f88 553d f9d2 ff3d f311 823d 43e5 20bd
00000250: a052 b7bd ba5a 3abe edf2 bbbd c3e6 d23d
00000260: 5cfd 1bbe 3d7c bf3d 6a6f 77bb 2a7a 0ebd
00000270: 4483 27bc 6cc2 c53c dcbb 033e 25ae 5dbd
00000280: 0042 c63b e5d3 5b3e 2d25 76bd 9d81 543e
00000290: a453 dbbd d786 89bd 70c3 09be 26a4 17be
000002a0: 379d 30be 1d42 b53c 6c45 37bd 6f55 a2bd
000002b0: 4c23 023e 3aba 773d 002e 1abe da23 893c
000002c0: e4d0 b33d 2f20 1a3e 1975 d5bd d4e4 41be
000002d0: 4571 273e 6419 2ebe e829 403e 15ad 48bd
000002e0: dc52 243e e775 a03c fdf0 fe3d 8ee6 d93d
000002f0: 7529 41be 3621 c9bd 9b8d 363e b40b 203e
00000300: e2c8 d93d 8632 f63d 92a8 473d 6ded 21be
00000310: 2144 f3bd 61aa e03b e04b f53d 5015 54bc
00000320: c2e3 3a3d 9a67 183d 7ff9 0abe 00d9 943c
00000330: 0e5c 7abd 024f 6dbe 57ac 33be ae7a 8dbd
00000340: a679 ba3d faf4 81b9 18f7 1b3e 676c cbbd
00000350: 82bf 1d3e 867a 63bc 649e c1bd a73a b7bd
00000360: 9831 47bd 04ee 0d3e 4baa 023b c6dd 933d
00000370: 454e 91bd 0574 af3d d5cb 923d d39c 233e
00000380: 62a8 08bd 4f9b 153e ab01 f3bd ac40 a3bd
00000390: a6a5 e1bd 3b0b ce3c ffd1 a5bd 7656 cdbc
000003a0: 7b58 d53c 23fe d3bd bfb2 f13d ba4f 083d
000003b0: 525d 54be 9879 a1bc 79fa be3d 7c54 6d3d
000003c0: 9327 9abd d4c1 3bbd 86f6 3bbd cadf 1b3e
000003d0: d97b 383e ff00 4c3b 34a7 7a3d ec5f 9fbc
000003e0: ea3a 2b3d 4bb2 dc3c c8b4 9b3d 6302 14be
000003f0: 4bc9 20be dd95 1c3e 2ed2 b43c 2333 b8bd
0.015319289 0.064604364 -0.09085452 -0.011248791 0.06681992 0.021432804 0.10649519 0.25123334
0.067496374 0.03281699 0.012346808 0.061088357 0.06347543 0.1803222 0.15384851 0.10650012
-0.16340776 -0.1699906 -0.07532896 0.08399907 0.012713562 -0.24768327 0.09297898 0.017013988
0.036094062 -0.11196128 -0.020437907 0.02229289 -0.09935534 -0.052289195 -0.086062774 -0.028445417
-0.05269249 -0.22813688 -0.042848602 -0.08453281 0.1838502 -0.18926387 0.02664201 -0.063267976
-0.09720662 -0.0007510595 0.07485203 0.079208195 0.085957795 0.13127197 0.14164166 0.12702161
-0.11869308 0.1718234 0.13147977 0.07621954 0.018044744 0.06712072 0.11263218 -0.10160056
0.24971455 -0.1576355 -0.15993455 0.14128958 -0.13995646 -0.146601 0.18564509 0.12927562
0.15313439 -0.3316046 -0.14518277 -0.09439073 0.19860509 -0.16624132 -0.20275903 -0.09585181
-0.072627634 -0.11772368 -0.3285495 -0.13600309 -0.017295402 0.25153837 0.32273906 0.11489347
-0.08027244 -0.15502438 -0.0111795375 0.10477562 -0.14344475 0.13148111 -0.12926722 0.1317079
0.021415574 0.1792288 0.048891082 -0.18958367 -0.18848746 -0.010698264 -0.1029903 -0.009205837
-0.12562047 -0.014250815 -0.08302681 -0.2475573 -0.13330345 0.054077055 -0.13675427 0.15693535
0.19174369 -0.1142438 -0.18954544 -0.16128261 0.00994393 -0.25351927 0.018288229 0.013505635
0.11155215 0.019085703 0.11788128 -0.010063803 -0.15458219 0.115708254 -0.15085514 0.05319882
0.10145847 0.02477688 -0.11309794 0.17302868 0.041918367 0.16629516 -0.17087965 -0.29609123
0.0977179 0.19000559 -0.15118127 0.14670411 -0.076542474 0.0024817882 0.1273997 -0.11917271
0.12214753 -0.1340466 0.12110454 0.04073231 0.03479369 -0.0023059696 -0.14346546 0.069010876
0.052131947 0.12491412 0.0635108 -0.03928114 -0.08951306 -0.18198672 -0.09177194 0.102979206
-0.15233368 0.093498684 -0.0037755617 -0.034784473 -0.010224167 0.02414056 0.12864631 -0.054121155
0.0060503483 0.2146755 -0.060094047 0.20752569 -0.107093126 -0.06715172 -0.1345346 -0.14808711
-0.17247473 0.022126252 -0.04474394 -0.079264514 0.12708777 0.060480334 -0.1505661 0.016740728
0.08780077 0.1505134 -0.10422725 -0.18934947 0.16351803 -0.17001873 0.18765986 -0.04899319
0.16047233 0.01958747 0.124483086 0.10639678 -0.18863471 -0.098207876 0.17827456 0.15629464
0.106340185 0.12021355 0.048744746 -0.15813227 -0.11878229 0.0068562482 0.11977363 -0.012944534
0.045627363 0.037208177 -0.13571738 0.01816988 -0.061122946 -0.2317467 -0.17546211 -0.06908165
0.09105234 -0.0002478732 0.15230978 -0.099327855 0.15405086 -0.013884192 -0.09454039 -0.08946734
-0.04863128 0.13860327 0.0019937928 0.07220034 -0.07095007 0.08567051 0.07167784 0.15977792
-0.033363707 0.14610027 -0.118655525 -0.079713196 -0.11017923 0.02515184 -0.08096694 -0.025065642
0.026043167 -0.10351207 0.11801671 0.03327916 -0.20738724 -0.0197113 0.093251176 0.0579419
-0.075270794 -0.045839146 -0.0458894 0.15222088 0.18015994 0.0031128523 0.061194614 -0.019454919
0.04180423 0.026940485 0.07602841 -0.14454035 -0.15701787 0.15291543 0.022072878 -0.089941286

bias f4 [10]
00000000: 9c58 08be 2813 783c 08af 5c3d 3063 c33d
00000010: 61ec aa3d ef99 0f3c d941 e83c e9c9 983d
00000020: c5df 683d 4f74 82bc
-0.13315052 0.015141286 0.05387786 0.09540403 0.08345867 0.008764728 0.028351711 0.07460386
0.05685403 -0.0159246
