tudui_6.pth (torch, 587399 bytes, 10 tensors)

weight f4 [32, 3, 5, 5]
00000000: 6200 5b3c 2426 8c3b 2ade 7bbd ebc5 f8bd
00000010: a2f7 cabb 824a dc3d 601c f5ba 1b72 733d
00000020: bdd3 0d3e 466e 99bc cfa3 14bc 2d58 babc
00000030: 6c47 74bc 6560 883d 1dc2 8bbd dfd8 b5bd
00000040: 1f75 8a3d 0a91 81bd 2518 e0bd 615c f5bd
00000050: b2d9 0fbe fbb5 1bbd 64ce 4dbe c9bf 44be
00000060: 6f48 1dbd 11ae 153c a533 8c3d 7723 7a3b
00000070: 313f d2bd 71f7 063d 5154 003d 7a34 6abd
00000080: 49a9 0a3e 4c4e 1a3e b8c1 003e 74a5 8fbd
00000090: dc18 ce3d dbcc d03d 0804 093e 3df8 c13b
000000a0: 1a95 96bd 1d84 c43d 5568 3e3d a4d4 4fbd
000000b0: aa46 b93b 4018 b43c 9913 ddbd 1c72 6cbc
000000c0: 5ed3 abbd bad4 58bd 7f5f 9ebc 1b4b 94bd
000000d0: 98d4 b7bd 4b80 93bc 7ee5 d43d 9d7e 133e
000000e0: df50 093e 826d d83d 1b9f c93d 0e50 643d
000000f0: 0929 fd3c b2bd 283d cb56 64bc 8c0b 1d3c
00000100: 26d4 f1bc b720 833d 12e5 e13d aa9c 663d
00000110: cbc2 333d 88dc d13d 139c 0ebe 74d8 21be
00000120: 7dd6 8bbd cdd1 03bd 1467 053d 8063 1bbe
00000130: 0809 00be 47b2 24be d6b2 24be 4ace 08be
00000140: 0cc5 10be 2099 2bbd a9bb 6dbd fe3d 8fbd
00000150: 5e5c 81bd 8b8b 013d 51fd 9a3d 5170 7bbc
00000160: 38e2 ccbd 0ea8 aebd 539d e3bd 4f80 f23b
00000170: d09b 5d3c a75a 6fbc 05c3 163d 32d8 b63a
00000180: b098 d2bb 4cb2 b3bc ab7b f23d 50cd c73d
00000190: 7f57 c8bd a5c5 a5bc 3064 07be c1bb 30be
000001a0: 7070 0ebe a8cc c9bd 965e 1dbe 47c6 2cbe
000001b0: 4e87 2dbd 8f06 543d edd9 0b3d 2463 343d
000001c0: a2d2 0f3d 3f28 843d be15 e5bc cb9e 9a3d
000001d0: fe0b 14bd 2a0d d23a 3d25 903d f0da 0c3e
000001e0: f043 113e ed2a 6b3d a3b9 fc3d 20ae b2bc
000001f0: e933 5abc f820 93bd 5280 103d 1bc4 01bd
00000200: 86c7 28bb ac57 d1bd 1112 c93d 4689 e8bd
00000210: da22 483b 097e 763d 19e2 3ebd 0453 d23d
00000220: ff25 303e 189c 16bc 2fa8 0d3e 3b82 14bd
00000230: ebd9 a23d 3728 893a 9a53 423e c8be 653d
00000240: 34fc 313e 62ce 103d 0fde 373e 27bf 473e
00000250: 921e 523d 0a07 ce3d 8fd9 943b f26a 0ebd
00000260: 774d 23be dca0 db39 e989 72bd f3ec b73b
00000270: fc68 7ebd 56cd efbc 3880 b93c c5b6 aa3d
00000280: f2c4 1bbe 3749 83bd 3dea 863d 477e dabc
00000290: dcbb e93d a525 9ebd 1a68 cfbd bc0a 253d
000002a0: 9e45 25bd 837c 6ebd 906b 5bbc 4bcb c2bd
000002b0: ab56 b9bd e3fb c03d 9c43 51bd 2ac6 c2bd
000002c0: 0c99 dfbd 0ae0 b03c 95ca 5fbd c928 30bd
000002d0: c95c 97bd cad9 df3d b8f8 993b e00a a83d
000002e0: 0bbe 1a3e e380 0f3c 9eb1 dc3c 016b 4fbd
000002f0: 3882 983d 0363 c33d c6a4 f73c 990b 54bd
00000300: 77d3 d53d 77ca dcbd eefd 8fbd 3509 b63d
00000310: b857 d03d 458d ef3d e808 bd3d a1e6 cb3d
00000320: 58c0 9abb ccc3 c9bd ccb0 d0bd a8e2 1fbd
00000330: a1d2 523d e021 653d 69e3 84bd 39bc 9b3d
00000340: e8f5 7fbc 10e0 82bd 4d37 c3bd 5432 8bbd
00000350: 5ac3 ad3d 0a48 023e a0f6 223e e16f bebd
00000360: f93c ca3d d984 f33d ba6f aebd 3d27 c2bd
00000370: 0c9c 8dbc 858e 4d3d 891a 3a3d 3d2a d43d
00000380: d6e5 283d 540f f9bd a355 703c edc1 7abd
00000390: 5e73 5fbd e3ec ad3d b422 b2bd 707d 97bb
000003a0: 3f21 14be c211 173b 8876 0abe 4c07 ac3d
000003b0: a940 46bd 6da1 d6bd 1e53 12be be50 e8bd
000003c0: d94b f6bd a85a 09be fa02 21be c6f1 943d
000003d0: 5780 7c3d da50 d7bd b8d8 373d 232d c13d
000003e0: 106f 0dbd 5ec8 dabd b78e 14bd af7a 89bd
000003f0: 422a b5bd bd62 a33d 39dc 8fbd 67e2 3fbd
0.0133667905 0.0042770077 -0.06149117 -0.12147125 -0.006194071 0.10756399 -0.0018700473 0.05943499
0.13850303 -0.01872934 -0.009072258 -0.022747124 -0.014909606 0.06659011 -0.068241335 -0.088792555
0.0676062 -0.06326492 -0.10942105 -0.119805105 -0.14047888 -0.038015347 -0.20098263 -0.19213785
-0.038399156 0.009135739 0.06845788 0.0038168111 -0.10265959 0.032950822 0.03133041 -0.05717895
0.1354114 0.1506893 0.12573898 -0.070139796 0.10063335 0.10195323 0.13380444 0.005919485
-0.073526576 0.09595511 0.046486218 -0.0507399 0.0056541758 0.02198422 -0.107947536 -0.014431503
-0.083899245 -0.052937247 -0.019332645 -0.07240888 -0.08976096 -0.01800551 0.10395335 0.14403768
0.13409756 0.10567762 0.098448 0.05574041 0.030903356 0.041196533 -0.013936709 0.0095852725
-0.029520106 0.06402724 0.1103002 0.05630175 0.04388694 0.10247141 -0.13926725 -0.15805227
-0.0682802 -0.032182503 0.032569006 -0.15174675 -0.12503445 -0.16083632 -0.16083845 -0.13359943
-0.14137667 -0.04189408 -0.058040295 -0.06994246 -0.06316446 0.03162722 0.075678475 -0.015346603
-0.10004085 -0.08528148 -0.111139916 0.0074005495 0.013525918 -0.014609016 0.03680708 0.0013949929
-0.006426893 -0.021935605 0.11839994 0.09755957 -0.097823136 -0.020235846 -0.13221812 -0.17259122
-0.13910079 -0.09853488 -0.15368113 -0.16872512 -0.042365365 0.051764067 0.034143377 0.04403986
0.035112984 0.06452989 -0.027964469 0.075498186 -0.03614425 0.0016025652 0.07038353 0.13755393
0.14186072 0.057413984 0.12340095 -0.021811545 -0.01331804 -0.07184023 0.035278626 -0.03168116
-0.002575369 -0.102218 0.09817899 -0.11354308 0.0030538351 0.06017879 -0.046602342 0.1026974
0.17201994 -0.009192489 0.13833688 -0.03625701 0.07951721 0.0010464255 0.18977204 0.056090146
0.17381364 0.035353072 0.17955802 0.19506513 0.051298685 0.10059936 0.0045425366 -0.03476996
-0.15947519 0.00041890785 -0.059213553 0.0056129633 -0.06211184 -0.029272716 0.022644147 0.08335642
-0.15211847 -0.06410449 0.06587646 -0.026671542 0.114127845 -0.07722024 -0.10127278 0.04029344
-0.040349595 -0.058224212 -0.013392344 -0.09511431 -0.09049734 0.094230436 -0.051089868 -0.09510453
-0.10917863 0.021591205 -0.054636557 -0.043007646 -0.07390744 0.10930212 0.004698839 0.08205199
0.15111558 0.008758756 0.026940163 -0.050639156 0.07446712 0.09540369 0.030229937 -0.051768873
0.10440724 -0.107808046 -0.07030855 0.08888475 0.10172981 0.11696867 0.09230214 0.09956098
-0.004722636 -0.098517984 -0.10189971 -0.039034516 0.051470403 0.05594051 -0.064886875 0.0760426
-0.015622593 -0.06390393 -0.09532032 -0.06796709 0.08484526 0.12722793 0.15914392 -0.09298683
0.09874911 0.11890573 -0.08517404 -0.0948014 -0.017286323 0.050184745 0.045435462 0.10359619
0.041234814 -0.12161127 0.014668855 -0.0612201 -0.054553382 0.08492448 -0.08698025 -0.0046231076
-0.14465807 0.0023051356 -0.13521779 0.08399829 -0.04840151 -0.10480008 -0.14289519 -0.11343525
-0.120261855 -0.13413489 -0.15723792 0.07272677 0.061645832 -0.10513468 0.044884413 0.09432437
-0.034529746 -0.10682748 -0.036268916 -0.06712853 -0.08845951 0.07977817 -0.07024426 -0.046846773

bias f4 [32]
00000000: 84e8 373d 70e6 2fbd bdbe c9bd 082c 8e3d
00000010: 6f0d 0d3e 2bf2 c7bc 6157 bfbb 7be2 8b3d
00000020: 9cd0 02be 032b 383e 9b88 ef3d 4505 fbbd
00000030: e47a f33d 33d3 87bd 20ab 673e ee62 0d3e
00000040: 27d7 3bbe e243 b03a 2949 3f3e 5ced 503c
00000050: cc33 ac3c a06f 88be 4798 fabd e5e0 1abd
00000060: 2b1c 71be b957 123e af9a 9a3d c097 83be
00000070: 9b80 3bbe 2e51 e2bd fd33 59be 523d 163e
0.04489948 -0.04294437 -0.098508336 0.06941992 0.13774656 -0.024407467 -0.005839274 0.06830307
-0.1277489 0.17985158 0.11695977 -0.122568645 0.11888674 -0.0663208 0.22623873 0.1380727
-0.18343793 0.0013447965 0.18680252 0.012751903 0.021020792 -0.26647663 -0.12236076 -0.037812132
-0.23545901 0.14291276 0.07549035 -0.25701714 -0.18310778 -0.1105064 -0.21211238 0.1467183

weight f4 [32, 32, 5, 5]
00000000: 70c0 a93c 9abf cf3c 470f d5bb f8c5 ae3c
00000010: 1153 12bd 0034 9cbc 3e80 213d 321e 6dbc
00000020: 201e d33c 275e 0c3d 3807 2f3c 12e0 b63c
00000030: 8efa 06bd f94c 18bd 58e6 08bd 5633 20bd
00000040: e1a3 f83c 5c44 593c b7ac b03c 2522 18bc
00000050: 74f7 a03b 1e3b ea3c 0640 64bc 7eb8 1b3d
00000060: 5c93 ff3c 5bc0 733c 6daf 05bc f307 74bc
00000070: 8e90 223d 854f 8cbc a6a7 71bc 842a 15bb
00000080: 7c71 293d 2098 813c 6088 1e3d bc69 4abc
00000090: 514d afbc 4fbf 99ba d600 003d db34 2fbc
000000a0: 4630 8cbc 110f e73c f6bb 0e3d 6b1e 223d
000000b0: 9a84 0e3b 2de7 e73b aa8d e23b 43e4 553c
000000c0: ef74 31bd 7932 02bd f39e 29bc f03b a93c
000000d0: b694 583c 495b 9ebb d0ad 8fbc f7d6 1a3d
000000e0: a9f9 023d 1224 263c 2f5e 8fbc c544 5ebc
000000f0: 8aa1 ff3c 6d89 97bc 03b7 a8bc 34a4 d53c
00000100: f1f9 873b 2476 dfbc 487a e4bc 2b8a 66bc
00000110: 6e81 793c c20f a83b ab09 983c fb0a d23c
00000120: a0bb bb3c ff82 143c 2e2d 04bd f9f2 7ebc
00000130: 8703 5bbc ef57 ba3a a462 d8bc 049a 7c3c
00000140: ddf6 5abb 7ccd 86bb c9ba 313c b230 943c
00000150: dfba 60bc 536e d03c 6e55 3c3c c5fe 133d
00000160: 4428 2b3d 2c89 b8bc 5852 a0bc 96c4 193c
00000170: 3725 d23c 94a5 843b eb66 8e3b d882 e5bc
00000180: 9c31 b43c 2166 10bd bb6d d6bc 6250 8d3c
00000190: 462c 473c 1a45 883c cb2a 78bc 2eaf c3bc
000001a0: c88a b03c c3b7 d7bc d340 e93b 22dd f2bc
000001b0: 6973 923c 009d c6bc 03a4 613c 81ec 49bb
000001c0: 2d98 4e3c 392a 15bd 3dc9 b2bb 6b5b de3c
000001d0: 7595 bf3c 2128 fc3c 69d2 01bc a86c 223b
000001e0: 8bab 7b3c bdb0 6e3b 3827 b43b 46da 213b
000001f0: a749 2e3c 8327 e3bc f637 9b3b c620 8d3b
00000200: ca73 a8bc 1eaa ec3c 6857 babb 3e75 303c
00000210: 8e1f 1d3c 68e3 97bb 6a7e 883c ae53 f9bc
00000220: 63df 4f3b 5d0f d93c 9619 1d3c fdbc c13c
00000230: b507 05bb 722f 6cbc 812e 083d 20cf 5abb
00000240: 22ba 993c 6174 cbbc 823f f0bb f1bb 033c
00000250: b341 fe3c e551 283d 86d5 bcbb 7893 a9bc
00000260: af92 c23b 7d70 513c 7601 6abc 4b09 973c
00000270: b905 223c f5a4 913c 4791 afbb 1c28 90bc
00000280: 4683 fc3c 2ef1 0b3d 36e0 4d3c 5c47 003d
00000290: 9716 d43c 4d90 9cbc 09a7 e93b 2382 e8bc
000002a0: 5673 183a 5128 93bc b6b6 383c 076b e13a
000002b0: b188 cabb 8214 843c 6c8c b5bc 54ab f63c
000002c0: 81d7 2f3c e8b7 323c 823c 413c e2f2 19bd
000002d0: 712d 7abc e1fa 283c 15ac f33c 5159 813c
000002e0: 5473 2fbd be1c 9a3c 4369 ec3c e72a 72bb
000002f0: 69cd 163d d98c 94bc 3e45 dd3c 24f9 0ebb
00000300: a58e 973c 5a75 2a3d 61b9 ecbc 9eaf b3bb
00000310: d8d3 8c3c 20f0 d63c 5f76 7cbc 9fa5 c7bc
00000320: ac67 c83c b578 d6bc 5f54 03bd 6fe2 babc
00000330: 783e 1ebc abd1 acbc 9dd7 f33c e415 f2bc
00000340: bad6 c6bb 85f8 bc3c 81ab e1bb a2a2 763c
00000350: 5907 633c ecd6 583c 1124 113c 2d24 b6bc
00000360: 0f01 dcbc 26d0 8ebc 7001 073d 4891 d83c
00000370: 58c7 5bbb 1166 7b3c 7774 dfbc c154 bb3b
00000380: db40 33bc 8242 cabc 3129 e73c ece3 003d
00000390: 0b12 203c 79a3 a83c f79b f33b 82e3 ee3c
000003a0: 4462 05bd 3e36 9ebc 4023 533c 1ed0 473c
000003b0: d8a4 16bc 0f81 a83c c515 ffbc 98a2 1fba
000003c0: ffcf d9bc 4aed c1bc 6f11 70bc 815b 993c
000003d0: e4eb 00bd 3195 13bc 48ee f23c 8ebb bf3c
000003e0: 64da 9abb fd92 3d3c 17be c7b9 2b3c b63c
000003f0: 3b24 bd3c 0a82 0bbc 952c 9abc 3333 61bc
0.020721644 0.025359917 -0.0065020653 0.021334633 -0.03572375 -0.019067764 0.039428942 -0.014472531
0.0257712 0.03426948 0.010682873 0.022323642 -0.03295379 -0.03718278 -0.033422798 -0.039111458
0.030351581 0.013260927 0.021566732 -0.009285484 0.004912311 0.028592642 -0.01393128 0.038017742
0.031198196 0.014877404 -0.008159501 -0.014894473 0.03968864 -0.017127762 -0.014749443 -0.0022760937
0.041367993 0.01581961 0.038704276 -0.012354311 -0.021399172 -0.0011729988 0.031250797 -0.010693754
-0.017112862 0.028205426 0.034847222 0.03957979 0.0021746517 0.007077119 0.0069138603 0.01305491
-0.043324407 -0.031786416 -0.010352838 0.020658463 0.013219049 -0.0048326594 -0.017538935 0.037802663
0.031976376 0.010140436 -0.017500965 -0.013566201 0.031204958 -0.018498147 -0.02059508 0.026079275
0.0041496684 -0.027278014 -0.02789034 -0.014071028 0.015228612 0.0051288316 0.018559298 0.025640002
0.022916615 0.009064435 -0.03226965 -0.015560859 -0.01336754 0.001421688 -0.026414223 0.01541758
-0.0033411302 -0.004113851 0.010847756 0.018089626 -0.013716429 0.025443232 0.011494977 0.03613164
0.041786447 -0.022526346 -0.019570515 0.009385249 0.025652511 0.0040480588 0.004345765 -0.028016493
0.021996312 -0.035253648 -0.02617537 0.017250244 0.012156552 0.016634513 -0.015146921 -0.023887243
0.021550551 -0.026332742 0.0071183234 -0.02964646 0.017877297 -0.024244785 0.013772014 -0.0030811133
0.012609524 -0.03641722 -0.0054561184 0.0271432 0.023386696 0.030780854 -0.007923701 0.0024784002
0.015360723 0.0036421262 0.0054978393 0.0024696751 0.010637677 -0.027728802 0.0047368957 0.0043068854
-0.020563025 0.028889712 -0.005686689 0.01077014 0.009590043 -0.0046352632 0.016661841 -0.03043541
0.0031718842 0.026496584 0.00958862 0.023649687 -0.0020298783 -0.014415609 0.033247475 -0.0033387616
0.018765513 -0.024835767 -0.0073317895 0.008040414 0.031037187 0.041093726 -0.0057627587 -0.020700201
0.005937896 0.012783167 -0.014282575 0.018437048 0.00988906 0.017778853 -0.0053578946 -0.01759725
0.030824315 0.034165554 0.012565663 0.031318054 0.025889678 -0.019111777 0.007130508 -0.028382367
0.0005815526 -0.01796356 0.01127403 0.0017198034 -0.0061808457 0.01612306 -0.022161685 0.030110992
0.0107325325 0.0109081045 0.011794211 -0.037585147 -0.015269623 0.01031372 0.029745141 0.01578966
-0.042834595 0.018812533 0.028858786 -0.0036951841 0.03681699 -0.018133568 0.027010556 -0.002181598
0.018500635 0.04161582 -0.02889699 -0.0054835817 0.017190859 0.026237547 -0.015409081 -0.024370966
0.024463497 -0.026180604 -0.032062884 -0.02281305 -0.009658448 -0.021096071 0.029765898 -0.029551454
-0.006068078 0.023067722 -0.0068869 0.015053423 0.013856732 0.013234835 0.008858697 -0.022234047
-0.026855974 -0.017433237 0.032960355 0.026436463 -0.0033535566 0.015344159 -0.027277214 0.0057168906
-0.010940756 -0.024689917 0.028217884 0.031467363 0.009769927 0.020585762 0.007434364 0.029161219
-0.032564417 -0.019312974 0.012886822 0.012195615 -0.009194575 0.020569352 -0.03113831 -0.0006089597
-0.026588438 -0.023672719 -0.014652594 0.01872039 -0.031474963 -0.009007738 0.029654637 0.023404863
-0.004725741 0.011570689 -0.00038097866 0.022245487 0.023088565 -0.00851489 -0.018820086 -0.013745117

bias f4 [32]
00000000: b116 e9bc b075 28bc 61ee 7abd 4564 693d
00000010: 8eed 833d 8ef2 49bd 1c6b 8ebd 98ab 00bb
00000020: 36b8 273b d9a4 99bd c9ba 4bbd f03c a5bd
00000030: 8a70 3ebd df65 62bc 9671 693d 4e66 50bb
00000040: 2a8a acbc d377 9bbd b069 1abc 90a9 103d
00000050: 368b 76bd 94ed 16bc 2fa2 75bd e531 ecbc
00000060: 746c c1bc e4b2 3ebd 03db 323d bc50 2f3d
00000070: 3890 99bc ddbc bcbd 383d a9b9 9596 58bd
-0.028453203 -0.010281965 -0.061262492 0.05698039 0.06441794 -0.049303584 -0.06954023 -0.0019633528
0.0025591976 -0.07502145 -0.04973868 -0.080682635 -0.046494044 -0.013818233 0.05699309 -0.003179926
-0.021061976 -0.07591214 -0.009424612 0.035317957 -0.060191356 -0.0092119165 -0.059969123 -0.028832385
-0.023611285 -0.046557322 0.043665897 0.042801604 -0.018745527 -0.0921571 -0.00032279803 -0.05287798

weight f4 [64, 32, 5, 5]
00000000: 216f 003d f70e f3bb d624 413c 5bd5 e9bc
00000010: d6e8 5bbc aeee b3bc edaa a53a bf48 e2bc
00000020: 63a1 ddbc 4664 6e3c f2b4 00bd c445 b9bb
00000030: 75c2 b73c 87dd 463c f1a3 84bc d6d4 1abc
00000040: c3e6 9abc d67d a53b 8731 97bb 5954 33bc
00000050: fd97 fe3b 241a b13b 7a33 babb 5be4 873c
00000060: 41bc 31bd bf9f a23b 1a2d 0ebd aac1 e4bc
00000070: 7e55 3d3c 5961 c03c d74f ae3c 0303 8bbc
00000080: 1b65 22bd 8ae6 b13b dcd6 c93c 6808 f73c
00000090: 9583 c7bb 6536 84bc cd12 ad3c 8fe4 06bd
000000a0: f3b0 c73c ca1f d93c 0c15 98bc 7fcd 1ebd
000000b0: 0977 b73c 5701 eebc f738 5b3c 40b1 4dbc
000000c0: 4cc0 69bc 7016 a23c 96fc e43c c9ef 97bb
000000d0: b5e6 f23c 3787 5abc 3df9 aebc 75aa 093d
000000e0: e324 47bc 4365 7c3c 978b 803b 5835 3f3c
000000f0: 9e82 3c3c 0f6e 1cbd 4539 08bd 08a7 0c3c
00000100: abff a1bc 87ba 3ebc 4032 4c3c 3fe5 c83b
00000110: dbe5 c3bc 562a c5bb 12b4 9e3c 4970 363c
00000120: 05e3 14bd 6f02 cb39 29bc dd3c adbc d0bc
00000130: 647b 75bc b694 e9bc 4114 9fbc 3e7f efbb
00000140: 14b1 dc3c b5b3 633c de14 e43c c4ff 1dbc
00000150: 2634 bf3c eef0 d1bc 7ff1 233d 0882 303d
00000160: e6b5 67bc d711 2cbd 94ba 75bc cb96 353c
00000170: 727d acbb 5d29 94bc a6e1 d83b 4311 f8bc
00000180: b663 17bd 53b0 28bc eed6 8dbc 473e fa3b
00000190: d00e cabc 5511 d63c 8ed6 013c 8415 da3b
000001a0: fed1 b23c e94a 973b 9c37 0c3d fe82 3e3c
000001b0: 4378 75bc 6572 43bc d8e4 d23c dbcb 563c
000001c0: 14d8 933c 1a04 cebc 3644 29bd 08e8 383c
000001d0: 1f5a d83c 8051 393c 232d 113d 3cc3 13bd
000001e0: 445d a33c 9ee6 61bc e65d 263d 5456 c139
000001f0: 01be 1abc aea4 05bd ffc7 42bc eca0 6b3b
00000200: 2bfb 59bc d425 e2bc b35d abbc f478 0abc
00000210: 3b58 08bc 6a6a ca3c d368 153c 6c63 033b
00000220: 6f6c 51bb c3ab 7d3c 7d0c 493d d5be 063d
00000230: e00d 72bc e2f5 6a3c 0a6e dd3c d0c3 8dbc
00000240: 28b4 abbc d473 b23c c8fd 1d3b 9490 8c3c
00000250: 12b4 fa3c 1ee7 1ebb 6a39 88bc 4c04 16bc
00000260: 6af0 3fbd 16ac 783c f562 2abd ddef c7bc
00000270: 664d a23b ebd5 aebc 7ca9 82bb 951c d2bb
00000280: 0d4a 843c 39a4 13bc 0546 ec3c 0b3f 0d3d
00000290: b6f8 af3c dbb4 07bd 5152 32bb 1bdd cfbb
000002a0: 6018 8f3b f2df 08bc f1a9 dabc 921c a2bc
000002b0: b797 013b c19d 59bc c4bf 583c 5755 01bd
000002c0: 485b d03c ae8c 0dbc e8bc d53c b587 88bc
000002d0: 2d69 783c 705f 423c 70b0 0bbd b8da f13c
000002e0: 86ba 88bc 5a2d 02bc 44a1 243c dbd3 253c
000002f0: e9ea 3a3c b115 a3bb 9e7e 82bc 0ee4 9dbc
00000300: 0c5d 03bd e2fa b3bc a28b e8bc 0945 fdbb
00000310: 2335 38bd e718 23bd ae73 2dbd 5931 cf3a
00000320: b89d d13c e0be 1b3b 0ec9 643b 90aa 17bd
00000330: a140 3bbd 4d1c 963c c952 933c 8be9 fbbc
00000340: ddc4 dbbc 041f db39 464c dd3b cf16 a03c
00000350: 80bd c0bc 4553 ebbc f656 82bc 1878 debc
00000360: c5e0 f5bc de1b ce3b fce0 59bd c47c c6bc
00000370: dcc2 1e3c f247 03bb ce49 17bd a0cf 6dbd
00000380: d516 57bd 2094 8e3c dc95 f33c f7b9 46bc
00000390: 06a6 563c 883b c03a e07c 4ab6 faba 35bd
000003a0: c2a9 e4bc d9af 243c e4b6 c7bc d5c4 093c
000003b0: e0e7 8c3b 4595 17bc dfe2 1f3d db21 3bbc
000003c0: dcbe e1bc 560b f939 f9a4 fcbb f09f 103d
000003d0: 9530 d53c 88f4 35bc afc9 87bc c84f a8bc
000003e0: 259b e4bb fd9c 323d 439d 19bc 4701 f8bc
000003f0: c402 e5bc af40 52bd a22b debc a1f1 90bc
0.03135598 -0.0074175554 0.0117885675 -0.028544119 -0.013422212 -0.021964397 0.0012639441 -0.027622579
-0.027054494 0.014550274 -0.031422563 -0.0056540687 0.022431592 0.012137777 -0.016191455 -0.009450158
-0.018908864 0.005050401 -0.0046140584 -0.010945403 0.0077695833 0.0054047275 -0.005682406 0.01658838
-0.043392424 0.004962891 -0.03471098 -0.027924377 0.011556027 0.023483919 0.021278305 -0.01696921
-0.039647203 0.0054290937 0.024638586 0.030155376 -0.006088684 -0.016139219 0.021127129 -0.032932814
0.024376368 0.026504416 -0.018564723 -0.038770195 0.022395628 -0.029053373 0.013380281 -0.012554467
-0.014267039 0.01978609 0.027952474 -0.004636739 0.029651025 -0.013337902 -0.02135908 0.033609826
-0.012154791 0.015405002 0.0039228904 0.011670433 0.011505751 -0.038190898 -0.03325774 0.008584745
-0.019775232 -0.011641151 0.012463152 0.006130844 -0.023913315 -0.0060170097 0.019372974 0.011135169
-0.036349315 0.0003872099 0.02706726 -0.025480593 -0.014983032 -0.028513294 -0.019418838 -0.0073088696
0.026939906 0.013897826 0.027841982 -0.009643499 0.023340296 -0.02562758 0.04002523 0.043092757
-0.014142489 -0.0420092 -0.014998097 0.011083315 -0.0052639777 -0.01808613 0.0066186963 -0.030281669
-0.036960326 -0.010295945 -0.0173144 0.0076368186 -0.024665266 0.026131311 0.007924689 0.006655397
0.021828648 0.0046170843 0.03423272 0.011627911 -0.014982286 -0.011929129 0.025743887 0.013110126
0.01804737 -0.02514844 -0.041324817 0.011285789 0.02641016 0.011310935 0.035443436 -0.036074862
0.019941933 -0.013787894 0.040616892 0.00036876148 -0.0094447145 -0.032627754 -0.011888503 0.0035954071
-0.013304512 -0.027605928 -0.020918703 -0.008451689 -0.008321817 0.024708945 0.00911923 0.0020048274
-0.00319555 0.015482846 0.049084175 0.032896835 -0.014773816 0.01434085 0.02703001 -0.017305285
-0.020959929 0.021783747 0.0024107564 0.017158784 0.030603442 -0.0024246643 -0.01662894 -0.009156298
-0.046860136 0.015177747 -0.04159828 -0.024406368 0.0049530743 -0.021342238 -0.0039874893 -0.0064120986
0.016148591 -0.009011322 0.028841982 0.03448395 0.0214809 -0.03313146 -0.002720971 -0.0063434965
0.0043669194 -0.008354174 -0.026692363 -0.019789014 0.0019774267 -0.01328224 0.013229314 -0.031575527
0.025434151 -0.008639498 0.026091054 -0.016666273 0.015161795 0.011863574 -0.03410381 0.029523239
-0.016690504 -0.007945383 0.010048214 0.010121311 0.011408546 -0.004976951 -0.015929516 -0.019273784
-0.03207116 -0.021970216 -0.028386895 -0.007729177 -0.04497255 -0.03981867 -0.04234665 0.0015807553
0.025587901 0.0023764893 0.0034909877 -0.037027895 -0.04571593 0.018324042 0.017983811 -0.03075101
-0.02682727 0.00041794043 0.0067534773 0.019542126 -0.02352786 -0.02872623 -0.015910607 -0.027156875
-0.030014405 0.006289943 -0.053193077 -0.024229415 0.009690013 -0.0020031896 -0.03693562 -0.058059335
-0.05251201 0.017404616 0.029734544 -0.012129298 0.0131011065 0.0014666179 -3.0173032e-06 -0.044367768
-0.027912978 0.010051691 -0.024379201 0.008408745 0.0043001026 -0.009251897 0.03903472 -0.011421646
-0.02755683 0.00047501427 -0.007710096 0.03530878 0.026024142 -0.011105664 -0.016575662 -0.020545855
-0.0069765025 0.043606747 -0.009375873 -0.030274047 -0.02795542 -0.05133122 -0.027120415 -0.017693343

bias f4 [64]
00000000: 8732 0bbb 32cb 9b3a c7a5 32bb ad1e a53c
00000010: a4cf e3bc ad08 0cbd cb86 20bd 11f2 6f3c
00000020: 28eb d0bc 9099 bcbc cfd7 4abc 88d7 81bc
00000030: 1a45 ccbc bf64 63bd c419 e6bc 5b1d 1abd
00000040: 73b2 4abd cdbd 11bd b072 9a3c e148 1b3c
00000050: 06f7 07bd 2349 de3c b4b2 6bbd 1f65 fb3c
00000060: de31 0b3c acf1 aabd 7c71 cdbc aea7 9dbd
00000070: 2bbf 133c 50ea 2bbd 3654 1c3c 4d81 0abd
00000080: 4ac6 183c fa37 a6bd 60d8 b63c e2a6 963a
00000090: 4f9e 883c 73f6 08bd 3292 f53b 1e8f 38bd
000000a0: ceee 2ebd 960b 8bbd 9080 72bc 71be 17bc
000000b0: 63ad 1dbd f4fb f7bc 6025 e5bc d0d4 ca3c
000000c0: 5e24 25bc 4c0b 8b3a c4dc ef3b bb6b 8cbd
000000d0: ba75 45bd 4363 bb3c 0a28 113c 57b0 9dbc
000000e0: 6e6a e43c fe06 4dbd 4475 c7b9 8d50 adbc
000000f0: bc2a 8cbd bb97 11bd e594 6bbd 3875 35bd
-0.0021239833 0.0011886118 -0.0027259456 0.020156229 -0.027808972 -0.03418796 -0.03919105 0.0146451155
-0.025502756 -0.023022443 -0.012380554 -0.015849844 -0.024935294 -0.055516 -0.028088458 -0.03762565
-0.04948659 -0.0355814 0.018853515 0.009477825 -0.033194564 0.027134484 -0.05754347 0.030687867
0.008495776 -0.083468765 -0.025078528 -0.07697998 0.009017746 -0.041971505 0.009541562 -0.033814717
0.00932462 -0.081161454 0.022319973 0.0011493827 0.01667705 -0.033438157 0.0074942345 -0.045058362
-0.04270821 -0.06789319 -0.0148011595 -0.009261713 -0.038495433 -0.030271508 -0.027971923 0.02475968
-0.010079471 0.0010608225 0.0073200185 -0.068564855 -0.048207976 0.02287448 0.008859644 -0.019249124
0.02788278 -0.050055496 -0.00038043607 -0.021156574 -0.068440884 -0.035545092 -0.057515044 -0.04430124

weight f4 [64, 1024]
00000000: bf6b a5bc 5a0a 8bbc b8e3 46bd e0fe 9abb
00000010: 1276 9f3b 1b31 c83c 403e 643c 7037 c93c
00000020: 0c21 a9ba 00a1 713b 0e98 143c 82e6 cebc
00000030: deef eabc c83c 8e3b 7f46 9abc ffe2 69bc
00000040: a682 253c 2900 babc f1a5 c5ba 6f4a 18bc
00000050: f842 e13c fc68 e33c b058 a0bb deb4 26bb
00000060: b44b b13b d70f f33b ceee d4bc c1c5 9c3c
00000070: 468d 9d3a 33d1 ca3c cbe0 ecbc 964b 09bc
00000080: f38e 70bc 7c18 3b3c 6a5f 62bb 3ac1 81bc
00000090: 78a1 1cbd e494 2a3d bdd0 88bc f78c 923c
000000a0: e70c 5b3c 9b10 2d3d aaee de3c 5368 62bb
000000b0: dd67 80bc 8dc4 023b 8743 343d 0db8 d93b
000000c0: f78f 51bc f916 363d bc75 8abb 729e e03c
000000d0: 0f5e 953b 22f3 913c 6348 fa3c d5ad e13a
000000e0: d998 e93c a672 67bc 4d66 12bb ae0e ebbc
000000f0: b537 16bd e47a f2bc 5aae c2bc 50e9 14bc
00000100: 9def bebc 8f30 bd3c 85a3 5abc da32 9b3a
00000110: 23a7 8abc 35fc b3bc f546 c43c 6d94 2f3d
00000120: d000 063d 1077 023d c123 9b3c 1a62 feba
00000130: be86 e5bc 04f6 91bc 4cf5 64ba 8aac 9abb
00000140: 0371 a5bc acd8 92bc edef b1bc 3dc0 8abc
00000150: 4f58 3a3d 5814 0c3d d439 b33c a271 293c
00000160: d728 0bbc f3eb aabb aff0 a7bb 5274 bbbb
00000170: f7ef 963c 5ba8 dd3c ea8b 9dbc b3fd 4f3c
00000180: 922a 55bc d298 a73c 623a bd3c 25c2 05bc
00000190: 5489 c83c ea64 943c 54b8 de3b a27d 4d3c
000001a0: f3c1 c03a 9124 22bb cfdc 8b3c 2a77 74bc
000001b0: 34ee 5cbc 6608 c93b 71a5 2ebd 1d36 cd3c
000001c0: ac2d 443c 6f70 e3bb cf4b 1f3d 9f01 953b
000001d0: dbe6 9fbc 20de 6bbc baaf b33c 4585 d5bc
000001e0: a957 893b 1187 0a3c 1c0d 403d 4b36 07bc
000001f0: a3b8 e4bc 7e71 2d3c d585 703c c8e6 fb3c
00000200: ef54 163c b1df 113d ca3a 3a3d f2ef 7f3c
00000210: 36bd 8d3c c6bb 043d add8 65bc 3db9 04bd
00000220: ec50 563b 5c75 013d 04d6 00bd dfe8 dbbc
00000230: 8d85 cfbc 7513 ff3c c9f2 673b 1084 0bbd
00000240: d30e 143d 7fce 243d 1be7 30bb 377e 343c
00000250: 1c8c ef3b df61 e6bb 8453 f9bb c340 fcbc
00000260: c4dd 853c 5e55 053d 1915 b23c 2e08 0b3b
00000270: 31a9 f3bc 3a8b 9b3b 28b8 863c 95e2 a2bc
00000280: 43be c83c 6e38 083b fc13 403d fa25 d8bb
00000290: f7bb d3bb 6fce b63b ace4 443c 7509 683c
000002a0: 79b5 a7bc 8665 8d3b 5d1c 1cbd bfee 89bc
000002b0: ec98 733c 71ac 79bc 4e2d fabc 5fb0 1fbd
000002c0: 3ec3 d13c b22f 793c a623 333c fd90 0cbd
000002d0: 9362 9a3c 3858 b53c f563 41bc f5d6 973c
000002e0: 5776 333c 9fc6 35bd 65fd c9bc 7853 3f3c
000002f0: 3759 0abd 8875 8abc 59cb d63b ade7 d43c
00000300: b9f9 aebc ca1f f4bb 52da 4ebc f6fd 55bb
00000310: b00d 2fbd aa6c 9c3c 60cc 8c3b 1968 b3bc
00000320: 8337 0abd 941d 28ba 57f4 103c f149 293c
00000330: cb2c 6bbc 8447 e1bb 1eec b5bc 4885 243c
00000340: 7a8f 363c a891 68bc 12c4 043d 0db2 afbc
00000350: 27ea f6bc 814d 073d f666 7ebb cb3c 953b
00000360: 1eae d93c 86ac 913c 8d2d de3c 1038 45bc
00000370: 89be ce3c e257 29bb 46af 483c 225f cbbc
00000380: 218a ec3c 7889 373a 24a0 ebbc aa10 48bc
00000390: 2868 6abc 8718 273d 97d7 afbc e673 8abc
000003a0: e427 053d 4d41 85bc 6d93 e3bb 6905 0a3d
000003b0: 3e55 bf3a 8997 653c 1d33 273c a041 a13b
000003c0: 4028 35bc 0ea6 74bc d26e d9bc 0849 03bd
000003d0: e806 bebb 4c94 e63c 131b ff3c ff9a e23c
000003e0: 3233 b938 7f89 0d3d 87ad b63b 7f32 54bb
000003f0: 46e9 5c3c 8606 ddba 0e1e b63b c77e 103d
-0.020192979 -0.01697271 -0.048557013 -0.0047300905 0.00486637 0.024437478 0.013930857 0.024562567
-0.0012903525 0.0036869645 0.009069456 -0.025256399 -0.02867883 0.004340742 -0.018832443 -0.0142753115
0.01010195 -0.022705154 -0.0015079362 -0.00929509 0.027497754 0.027760021 -0.004893385 -0.0025437395
0.005410636 0.0074176597 -0.025992777 0.019137265 0.0012020252 0.024757957 -0.028915783 -0.0083798375
-0.014682519 0.011419412 -0.0034541734 -0.015839208 -0.038239926 0.0416459 -0.016701097 0.017889483
0.013369775 0.042252164 0.027213413 -0.0034547045 -0.015674526 0.001995358 0.04400971 0.006644255
-0.012790672 0.044455502 -0.004225461 0.027419303 0.004558332 0.01781613 0.030552095 0.0017217944
0.028515266 -0.014126455 -0.0022338808 -0.028693523 -0.03667422 -0.029599614 -0.023764778 -0.009088829
-0.023307616 0.023094444 -0.01334465 0.0011840716 -0.0169254 -0.021970848 0.023959616 0.04286616
0.03271562 0.031851828 0.018937947 -0.0019407899 -0.028018352 -0.017817505 -0.0008734062 -0.0047202753
-0.02019549 -0.017925583 -0.02172085 -0.01693737 0.045494374 0.03419909 0.02187816 0.010342034
-0.008493624 -0.0052161156 -0.0051251273 -0.0057206536 0.018424971 0.027057817 -0.019231755 0.012694764
-0.013010638 0.020458613 0.023099128 -0.008163963 0.024479546 0.018114526 0.006796876 0.01254216
0.0014706239 -0.0024741034 0.017073063 -0.014920989 -0.013484526 0.0061350344 -0.042638246 0.025050217
0.01197378 -0.0069408934 0.038890656 0.0045473124 -0.01951926 -0.01439622 0.021934379 -0.026064524
0.004191358 0.008455054 0.046887502 -0.008252691 -0.027920073 0.010586141 0.014680346 0.030749694
0.009175523 0.03561372 0.045466222 0.015621172 0.017302137 0.032405637 -0.01402871 -0.03240322
0.0032702042 0.031606063 -0.0314541 -0.02684444 -0.025332237 0.031137208 0.0035392514 -0.03406149
0.03614695 0.040235993 -0.0026993218 0.01101642 0.0073104035 -0.00703071 -0.007608833 -0.0307926
0.016341098 0.032552116 0.021738576 0.0021214592 -0.029743763 0.0047468217 0.016445234 -0.019883433
0.024504786 0.0020785588 0.04689406 -0.006596324 -0.006461616 0.005578808 0.01201741 0.014162411
-0.020472275 0.004315081 -0.038112987 -0.016837476 0.014868002 -0.015238867 -0.030539181 -0.03898656
0.025605794 0.015209125 0.010933792 -0.03431796 0.018845832 0.022136793 -0.011803617 0.018535117
0.010953507 -0.044378873 -0.02465696 0.011677615 -0.03377649 -0.016901746 0.0065550026 0.025989378
-0.021359311 -0.0074500786 -0.012625294 -0.0032652593 -0.042737663 0.019094784 0.0042968243 -0.021900224
-0.033744346 -0.0006413099 0.008847318 0.01033257 -0.014353941 -0.0068749804 -0.022207316 0.010041542
0.011142606 -0.014194883 0.03241355 -0.021447206 -0.03014095 0.033032898 -0.0038818694 0.004554366
0.026572283 0.01778246 0.02712133 -0.012037292 0.025237339 -0.0025839736 0.01224882 -0.024825636
0.028874459 0.00070013804 -0.028762884 -0.012211004 -0.014307059 0.040794875 -0.021465106 -0.016900968
0.032508746 -0.01626649 -0.0069450648 0.033696566 0.0014597548 0.01401318 0.010205057 0.004921153
-0.01105696 -0.014932169 -0.026542101 -0.03205207 -0.005799163 0.028146885 0.03114084 0.027661799
8.831023e-05 0.034554955 0.0055748853 -0.003237873 0.013483351 -0.0016862906 0.005557782 0.035277154

bias f4 [64]
00000000: 8441 08bc 49ce df3b 3d12 453d b868 f3bc
00000010: aae6 ebbc 9a49 9abc 6dc2 54bc cd7b d7bb
00000020: 414a 813c c619 b8bc c096 dd3c c955 c03c
00000030: cf90 be3c 5104 cebc fd31 b3bc be52 39bd
00000040: 37bb da3b 67e6 1a3d d661 133d b056 16bd
00000050: 5688 38bb 795b 803d ccf5 93bc 927a 0d3d
00000060: b1c5 55bd 7162 3a3d bb76 b4bb 4ad8 fabb
00000070: 0267 92bc 5775 ff3c 09d6 e33c 3a58 873a
00000080: 6867 e63c 7be8 cdbc b029 f2bc 2181 28bb
00000090: 2c23 a1bc d9e0 413c da90 b1bc e5d7 c53c
000000a0: de35 543b e1f9 04bb 7281 3abc c6bb eb3c
000000b0: fefa 86ba 3533 86bd d4ca 2bbd 0cda 16bd
000000c0: 267c e83c c8c3 8a3c 3cf9 2dbc 8265 913a
000000d0: 4cf4 4fbb 2f49 37bd c4d6 a1bc 6383 72bc
000000e0: e8e3 08bb 4205 6e3d 373b e93b c800 e7bb
000000f0: e022 20bd 94eb 8c3c 1886 c6bc 8855 7abc
-0.008316401 0.006830011 0.048113097 -0.02971302 -0.028796513 -0.018833924 -0.012985808 -0.0065760375
0.015782477 -0.022473227 0.027049422 0.023478406 0.02326241 -0.025148543 -0.021874422 -0.045244925
0.00667515 0.037817385 0.035981975 -0.036703765 -0.0028157434 0.06267447 -0.018061541 0.03454072
-0.052190486 0.045504037 -0.005507318 -0.007655178 -0.017871384 0.031183882 0.02781202 0.0010325976
0.02812548 -0.02513527 -0.029560894 -0.0025711732 -0.019670092 0.011833393 -0.021675516 0.024150798
0.003238074 -0.002029054 -0.011383401 0.02877606 -0.001029819 -0.06552736 -0.04194148 -0.03682904
0.028379511 0.016939059 -0.010618504 0.0011092874 -0.0031731306 -0.044747528 -0.019755729 -0.014801833
-0.0020887796 0.058110483 0.0071176547 -0.0070496537 -0.03909576 0.017202176 -0.024233863 -0.015279181

weight f4 [10, 64]
00000000: 5a07 82ba de00 693d 6ccd afbd 8ce5 92bc
00000010: dc26 873d 7959 243c bc12 cc3d c00e 5b3e
00000020: ae4f 0d3d bea7 593c f7bf 573c c97f 323d
00000030: e93b 8f3d 999c 373e 1c5a 083e 3921 c03d
00000040: dac5 1abe 8ef2 18be 7b7f 90bd da92 873d
00000050: b0b5 183b 21fa 52be e77f 8d3d 2acd 183c
00000060: 9f77 f63c 3a39 e6bd 344e c3bc a2fd de3c
00000070: 5b88 c1bd e771 4abd 3867 b6bd f7c5 00bd
00000080: abfa 28bd 5fa3 58be 7d24 26bd 07ee 9ebd
00000090: 74c7 203e 71b1 2bbe 77e1 c03c 25a8 89bd
000000a0: df77 b9bd 518e 523c 64b5 943d 9eb4 a83d
000000b0: ead2 923d cf83 d93d 963d f53d a919 c93d
000000c0: e2e0 e7bd 3f2f 183e f560 163e 81a3 a43d
000000d0: 66fb bb3c 515c a43d 67fe b83d fcb8 9cbd
000000e0: 72b2 573e 4517 12be 1776 1fbe 1b8c f23d
000000f0: d869 03be 1d18 d7bd ff2e 293e bc9f c13d
00000100: 40ec 103e 9a7d 95be 70a3 12be 5172 9fbd
00000110: 54fe 403e a25a 19be 74ab 3cbe 96a6 a8bd
00000120: 658a 84bd 7f2d ccbd 8c9f 94be 9d03 f2bd
00000130: 6ab6 91bc d48b 743e ffd8 983e abc6 ed3d
00000140: 85e3 acbd bd12 1cbe 414e dabc 8aec da3d
00000150: 55d9 09be a9e9 c33d d89b edbd c9aa 0b3e
00000160: 5a84 983c 5364 2a3e 588e 313d 5b19 31be
00000170: 6bd2 38be 5fd2 3cbc 10b1 bcbd 1721 5dbc
00000180: 81a2 febd 6861 69bc af69 8ebd b7d5 5abe
00000190: 7978 f7bd 4603 de3c cf9b f3bd 5550 0f3e
000001a0: 4d35 203e 6800 c1bd 495b 2fbe a9a7 1bbe
000001b0: 5728 ca3b d3f7 5bbe 75e0 373c 5d66 d53c
000001c0: 860b d63d 8cd4 9c3c 801d d83d 0872 4ebc
000001d0: 33ed 00be 4308 c53d 8220 09be b98a 383d
000001e0: 4d5d f53d 2e55 cf3b 5247 eebd 70a2 2a3e
000001f0: a93f 233d 69b2 093e 2ab3 12be 07b1 84be
00000200: 7023 cc3d e6df 243e f1c6 17be 056c 073e
00000210: 8d5d 88bd 1447 8d3b ce46 e23d 8f00 f0bd
00000220: 2a39 b93d 6042 e2bd 69aa cb3d de56 183d
00000230: 0216 133d 61a9 a13c 87db f4bd 8eea 623d
00000240: 44c9 4f3d 7642 fa3d 8765 5f3d 1f78 edbc
00000250: 6b75 98bd ffc6 27be f870 aebd 11af a43d
00000260: f71a f0bd 9355 a53d 4da5 a9bb 2eb2 54bd
00000270: 8c40 b639 7f37 a13c 81d6 d23d a897 46bd
00000280: e239 3abb 0882 433e 7a1c 68bd 5cb7 3b3e
00000290: 64df aebd c1eb 82bd e877 f9bd d85d 0fbe
000002a0: ecad 1ebe 0552 e23c 019f 4fbd 780b 90bd
000002b0: 71eb fa3d 5a8c 6d3d b48f 0abe 4da6 823c
000002c0: fa67 9c3d 9e02 003e cbf2 98bd 40fd 1cbe
000002d0: a056 263e 3580 0fbe 8d96 263e ec50 dfbc
000002e0: caf5 153e 035e 8e3b e017 ea3d ffb9 c53d
000002f0: d717 35be 8d0f a5bd ece3 243e 8a30 043e
00000300: 0d59 e83d 8c94 023e a0f2 293d 0f15 0ebe
00000310: d284 01be 5914 e93b 5113 f13d f270 d3bc
00000320: 58b6 383d 8117 a13c 3084 e7bd fb2a e13c
00000330: 82f5 67bd 02ed 5abe 4dd4 2ebe 23a8 94bd
00000340: 01fe bf3d eb0b 933b 6880 163e a291 c7bd
00000350: f6c0 0d3e a3a9 52bb 4c33 b9bd 62cf 91bd
00000360: d51d 76bd 6715 083e d8f5 ea3b 0b76 9c3d
00000370: 9a01 77bd 20c1 c63d 20f2 b33d 6ed6 123e
00000380: 6d30 dabc 5332 263e 7982 e0bd e47c 8fbd
00000390: 1093 d6bd a786 bc3c e415 c4bd faa2 c8bc
000003a0: cd7b ff3c 4a0e cdbd c262 d43d 5b28 193d
000003b0: 942c 33be ecdc 01bd c3fa 963d f8f3 683d
000003c0: 512b 92bd 25bf edbc ec3a 7abd 1bf3 013e
000003d0: b020 333e d007 08bc 4cb8 7f3d 9e92 e2bc
000003e0: 0699 283d 8a96 163d a549 973d 3dea 0abe
000003f0: 8799 17be 7686 fd3d d966 3b3c 4659 92bd
-0.0009920404 0.056885593 -0.08584103 -0.017931722 0.06599209 0.010031098 0.09964511 0.21392345
0.034499817 0.013284622 0.013168327 0.043578897 0.06993849 0.17930831 0.13315624 0.09381337
-0.15114537 -0.14936277 -0.07055565 0.066198066 0.0023301654 -0.20603229 0.06909161 0.009326259
0.030086337 -0.11241384 -0.023841001 0.02722055 -0.09449836 -0.049425032 -0.08906406 -0.031438794
-0.04125468 -0.21156071 -0.04056214 -0.07760244 0.15701085 -0.16766907 0.02354501 -0.06721524
-0.09056067 0.012851314 0.0726116 0.08237575 0.07169135 0.106208436 0.11974637 0.098193474
-0.1132219 0.14861773 0.14685424 0.080389984 0.022947025 0.080254205 0.090328984 -0.076524705
0.21064165 -0.14266689 -0.15572391 0.11843129 -0.12833345 -0.10502646 0.16521834 0.09454295
0.14152622 -0.2919739 -0.14320159 -0.07785476 0.18847018 -0.1497598 -0.18424779 -0.08234899
-0.06471709 -0.09969615 -0.29027975 -0.118170954 -0.017787177 0.23881465 0.29853055 0.116101585
-0.084418334 -0.15241523 -0.026648642 0.106896475 -0.13461812 0.095660515 -0.116019905 0.13639368
0.018617798 0.16639833 0.04334864 -0.17294829 -0.18049018 -0.011524766 -0.092134595 -0.013496659
-0.12433339 -0.014244415 -0.06953751 -0.21370588 -0.12083525 0.02710117 -0.118949525 0.13995488
0.15645333 -0.094239056 -0.17124666 -0.15200676 0.0061693597 -0.21481256 0.011222948 0.026049787
0.10451417 0.019144319 0.10552502 -0.012600429 -0.12590484 0.096207164 -0.13391307 0.04505417
0.11980686 0.006327293 -0.11634697 0.16663527 0.039855633 0.13446964 -0.14326158 -0.2591631
0.09967697 0.16101035 -0.14821984 0.132248 -0.066584684 0.0043114517 0.11048661 -0.117188565
0.09044106 -0.11047816 0.099446125 0.037192218 0.03590966 0.019734086 -0.11955934 0.05539947
0.05072905 0.12219708 0.054540183 -0.028987942 -0.07444271 -0.16384505 -0.08517641 0.08041204
-0.11723893 0.080729626 -0.005177176 -0.051927738 0.00034761836 0.019679783 0.102948196 -0.048484474
-0.0028415849 0.19092572 -0.056667782 0.18331665 -0.08538702 -0.06392623 -0.121810734 -0.14000642
-0.15496033 0.027627 -0.050688747 -0.070334375 0.12251938 0.057995178 -0.13531381 0.015948439
0.076370195 0.12500998 -0.07468184 -0.15330982 0.16243982 -0.14013751 0.16268368 -0.027260266
0.14644542 0.004344703 0.11430335 0.096546166 -0.17684875 -0.08059607 0.1610257 0.12909141
0.1134511 0.12751979 0.04149115 -0.1387522 -0.12648323 0.0071130213 0.117712624 -0.025810692
0.04509577 0.019664528 -0.1130451 0.027486315 -0.05663062 -0.21379474 -0.17073174 -0.07258632
0.09374619 0.0044875047 0.1469742 -0.09744574 0.1384314 -0.0032144568 -0.09042987 -0.07119633
-0.060087044 0.13289414 0.00717042 0.076397024 -0.06030426 0.097048044 0.08786416 0.14339611
-0.02663442 0.16230135 -0.10962386 -0.07006243 -0.10477269 0.023013426 -0.09574488 -0.024491776
0.031186963 -0.10012491 0.10370399 0.037392 -0.17497474 -0.03170483 0.07372048 0.05687329
-0.07137168 -0.029021809 -0.06109135 0.12690394 0.17492938 -0.008302644 0.06243162 -0.027657803
0.04116156 0.03676466 0.073870935 -0.13565917 -0.1480466 0.12379162 0.011438095 -0.07145934

bias f4 [10]
00000000: ee73 04be 66b9 803c 623c 863d 37d3 bb3d
00000010: e51f 8d3d ecc5 813c 114b 813c 503f 9c3d
00000020: 4e7a 6b3d a2f0 2cbc
-0.12934849 0.015713405 0.06554486 0.091711454 0.06890849 0.015841447 0.015782865 0.076292634
0.057489686 -0.010555418
