tudui_8.pth (torch, 587399 bytes, 10 tensors)

weight f4 [32, 3, 5, 5]
000000 a0 fc 94 3b 52 a6 da bb dc 65 97 bd a0 82 09 be
       0.004546717 -0.006672659 -0.07392475 -0.13428736
000010 fc c6 10 bc bd a0 de 3d b8 e6 09 bc 5f 05 86 3d
       -0.008836504 0.10870502 -0.008416824 0.06543993
000020 88 21 1d 3e ac 04 7f bc a7 59 6b bc f4 7c c2 bc
       0.15344822 -0.015565079 -0.0143646365 -0.023741223
000030 b8 ff 09 bc 7b 96 9c 3d f9 12 9e bd 8e 78 c3 bd
       -0.0084227845 0.07645889 -0.077184625 -0.09544478
000040 9f 0a 8b 3d 9d 99 96 bd 39 cb 01 be 8c 28 07 be
       0.06789135 -0.07353518 -0.1267518 -0.13199061
000050 f7 20 19 be 9e be 75 bd 4d 45 69 be 19 4b 5b be
       -0.14953981 -0.05999624 -0.22780342 -0.21415366
000060 78 16 39 bd a4 de 20 3c 49 96 8a 3d 92 2a b6 3a
       -0.045187443 0.009818707 0.06766946 0.0013898185
000070 e4 c5 d8 bd de 7d 24 3d 7d 78 3b 3d e6 3e 49 bd
       -0.1058462 0.0401591 0.045769203 -0.04913225
000080 af eb 1f 3e 3b 6f 38 3e b3 7b 12 3e 74 52 72 bd
       0.1561725 0.18011181 0.14305 -0.059160665
000090 ff c6 f0 3d 43 31 01 3e 4f a8 24 3e 91 cb 5c 3c
       0.117567055 0.12616448 0.1607983 0.013476268
0000a0 6b 57 83 bd cd d3 e8 3d 22 f0 5a 3d f4 2f 53 bd
       -0.06413158 0.11368523 0.053451665 -0.051559404
0000b0 0d 0e 18 3c f5 bf e5 3c 08 ca e8 bd 69 b0 cb bc
       0.009280694 0.028045634 -0.113666594 -0.024864392
0000c0 35 26 b9 bd d6 c6 36 bd 51 4b f2 bc e6 ca ab bd
       -0.090404905 -0.04462322 -0.02957693 -0.08388309
0000d0 f9 53 d2 bd 64 01 00 bd 8d 28 ce 3d 9a b7 16 3e
       -0.10269923 -0.031251326 0.10066328 0.14718476
0000e0 ac 82 05 3e 71 54 e7 3d 30 fd e8 3d 4d 73 77 3d
       0.13038129 0.11295403 0.11376417 0.060412694
0000f0 71 42 f6 3c 92 dd 37 3d 97 17 98 bb d9 94 b2 3c
       0.030060979 0.04488904 -0.004641484 0.021799492
000100 a1 70 0e bd 66 2c 75 3d a2 4b e9 3d 1d a0 4a 3d
       -0.03477538 0.059856795 0.11391379 0.049469102
000110 31 65 f9 3c 78 f9 be 3d 11 80 14 be 48 bb 32 be
       0.03044376 0.09324926 -0.14501978 -0.17454255
000120 bc fd b5 bd 88 0c 46 bd b3 eb f3 3c f7 0f 27 be
       -0.088862866 -0.048351794 0.029775476 -0.16314684
000130 e0 1e 15 be a0 5c 3d be 62 4f 35 be a1 9d 0f be
       -0.14562559 -0.18492365 -0.17706063 -0.14024974
000140 04 4c 20 be 00 36 85 bd 6e b2 a8 bd c9 e8 ae bd
       -0.15653998 -0.0650444 -0.08237158 -0.08540494
000150 10 e3 91 bd 75 69 c6 3c 84 96 8d 3d f4 fd b4 bc
       -0.07123387 0.024220208 0.06913474 -0.02209375
000160 5b d8 d5 bd 3f 41 bb bd b5 50 eb bd 9d 10 27 3c
       -0.10441657 -0.09143304 -0.11490003 0.010196832
000170 ab 4f ac 3c 3a 94 b6 bb 45 5e 25 3d 0e 29 98 3b
       0.021034082 -0.005571869 0.040373106 0.004643566
000180 ec 75 58 3b ad 21 34 bc 0e c9 03 3e 89 2d ce 3d
       0.0033029271 -0.010994357 0.12869665 0.10067279
000190 8a 01 cc bd 13 a7 f3 bc 72 ff 14 be 9b f5 37 be
       -0.09961231 -0.029742753 -0.1455057 -0.17964785
0001a0 25 29 0d be d9 95 cf bd d2 9f 26 be 8a 56 37 be
       -0.13785227 -0.10136003 -0.16271904 -0.17904106
0001b0 41 0e 39 bd 66 79 5f 3d 50 18 24 3d a7 b8 58 3d
       -0.04517961 0.054559134 0.04006225 0.052910473
0001c0 f6 f1 33 3d 4b 7f 98 3d 61 f2 b2 bc 66 5b a9 3d
       0.043931924 0.07446154 -0.02184409 0.08269386
0001d0 09 ad a6 bc 82 33 b4 3c 0e 52 b9 3d 07 21 1a 3e
       -0.020346181 0.021997217 0.09048854 0.15051661
0001e0 4b cf 19 3e 17 7a 97 3d 3e 27 10 3e be 52 ee bb
       0.15020482 0.07396334 0.1407747 -0.007273047
0001f0 34 7e ed bb 87 8f a3 bd 10 fb b1 3c d4 be 40 bd
       -0.0072477106 -0.0798636 0.021726161 -0.047056988
000200 b8 fb 4f bc 99 8b d7 bd 3b 33 b7 3d 3a ab 01 be
       -0.012694292 -0.10524673 0.08945318 -0.12662974
000210 1f ff 20 bc 3f 46 5b 3d 77 b2 47 bd 4c d1 cf 3d
       -0.009826451 0.05353379 -0.04875418 0.10147342
000220 45 de 32 3e 80 22 b2 bb 2c d8 11 3e af 81 15 bd
       0.17467602 -0.0054362416 0.1424262 -0.03650063
000230 51 6c 9f 3d c2 62 08 3c e5 5f 4f 3e a3 b9 8a 3d
       0.077843316 0.008324327 0.20251425 0.06773689
000240 e8 76 36 3e 45 db 0a 3d e6 0b 3f 3e c2 7b 50 3e
       0.17818797 0.033900518 0.18656883 0.2035971
000250 59 be 66 3d 00 2f c7 3d cb 6e b8 3b 8b 26 31 bd
       0.056333873 0.097257614 0.005628442 -0.043249648
000260 52 57 30 be 34 64 f1 bb 4c 8c 76 bd 00 39 79 b9
       -0.1722081 -0.0073666815 -0.06019239 -0.00023767725
000270 c3 6c 93 bd 7d 99 12 bd c0 82 c1 3c ba 47 ba 3d
       -0.07198479 -0.03579091 0.023621917 0.09095712
000280 6f 7c 2b be 02 4f 99 bd 65 f3 85 3d 33 1e e7 bc
       -0.16746686 -0.07485773 0.065405644 -0.028212642
000290 df f4 ee 3d 22 b6 bc bd 9c e8 e2 bd fe c5 1e 3d
       0.11667799 -0.092144266 -0.11079523 0.03876304
0002a0 bf be 5e bd 48 cc 99 bd 15 b8 83 bc b0 ce c4 bd
       -0.05438113 -0.07509667 -0.016078988 -0.09609735
0002b0 de 9f b5 bd 21 c1 bf 3d 4f 23 6d bd bf 75 ba bd
       -0.08868383 0.09363008 -0.057895 -0.091044895
0002c0 c1 91 e7 bd 0e 67 83 3c c8 5e 62 bd ce eb 19 bd
       -0.11307097 0.016040351 -0.05526617 -0.037578396
0002d0 8c 00 93 bd 97 25 e0 3d 63 3f 24 3c 42 a9 c1 3d
       -0.07177839 0.1094467 0.010024878 0.094561115
0002e0 8c 00 2d 3e a2 1f 95 3b 65 7d ef 3c 85 30 18 bd
       0.1689474 0.00455089 0.029234597 -0.037155647
0002f0 0a 1c b0 3d 3c 69 e0 3d ad ef d4 3c db 8f 48 bd
       0.08599098 0.10957572 0.025993193 -0.048965316
000300 b5 3e ec 3d 42 05 e3 bd 2f c0 9e bd af 0a c3 3d
       0.11535398 -0.11084987 -0.077515 0.09523522
000310 79 7a e3 3d 09 05 04 3e 16 2e ce 3d f1 37 ce 3d
       0.11107344 0.12892546 0.10067384 0.10069264
000320 26 69 9d bb 2e 54 d7 bd 45 d0 e0 bd 8e 40 2e bd
       -0.0048037944 -0.10514103 -0.10977224 -0.042542033
000330 b2 63 5b 3d 06 6e 5f 3d 39 63 8a bd 0c 15 a0 3d
       0.053561874 0.054548286 -0.067572065 0.078165144
000340 0e 69 f1 bb dc 9e 50 bd c9 d8 d1 bd 4b 36 8c bd
       -0.00736726 -0.05093275 -0.102464266 -0.06846293
000350 5d 96 c1 3d 8a ba 09 3e f8 e6 2c 3e 51 b9 cd bd
       0.09452508 0.13450065 0.16884983 -0.10045112
000360 14 c9 c9 3d 02 80 00 3e 0a 4a bc bd 42 2d d7 bd
       0.09852806 0.12548831 -0.09193809 -0.10506679
000370 34 f3 78 bc 14 e5 62 3d 5d d5 55 3d d0 6b db 3d
       -0.015194703 0.055394247 0.052205432 0.10713923
000380 83 aa 1e 3d 99 95 03 be a9 a0 22 3c 2d d7 87 bd
       0.03873683 -0.12850036 0.009926 -0.066328384
000390 5d b0 5b bd ad 53 ad 3d f2 75 ad bd 7c 6f a7 bb
       -0.05363499 0.084632255 -0.08469762 -0.0051097255
0003a0 5f c4 1f be 06 61 d5 bb f9 10 15 be 0a ba b9 3d
       -0.15602253 -0.0065118102 -0.14557256 0.09068687
0003b0 fb 32 66 bd 93 1c 01 be d5 39 20 be 3a 3b 03 be
       -0.056200963 -0.12608556 -0.15647061 -0.12815562
0003c0 aa 0e 05 be f8 dd 1b be 9a 27 30 be 87 2a 9b 3d
       -0.12993875 -0.15221393 -0.17202607 0.07576471
0003d0 91 12 71 3d 41 bf e6 bd d3 57 22 3d 50 e2 c4 3d
       0.058855597 -0.112669475 0.039634537 0.09613478
0003e0 27 d3 00 bd 15 2c e2 bd d0 d4 12 bd 5f 37 83 bd
       -0.03145137 -0.11043564 -0.035847485 -0.064070456
0003f0 f1 f5 aa bd 99 72 bb 3d b2 65 7f bd 79 31 01 bd
       -0.08347691 0.09152717 -0.062352844 -0.03154132

bias f4 [32]
000000 97 1b 2d 3d e6 b0 2b bd 20 b7 d2 bd 5a 31 9b 3d
       0.04226264 -0.04191675 -0.102888346 0.075777724
000010 a0 4d 0c 3e 4c c5 d2 bc a0 59 b5 3b 28 6e 73 3d
       0.13701487 -0.025728844 0.005534366 0.059431225
000020 dc 75 0f be 6b 88 35 3e c7 d4 0a 3e 59 64 03 be
       -0.14009804 0.1772782 0.1355773 -0.12831248
000030 13 2e 07 3e 12 77 75 bd 19 ae 6f 3e cd de 04 3e
       0.1320117 -0.059928007 0.23406257 0.12975617
000040 81 2e 4b be 60 96 8c 37 20 cf 50 3e 5b da 95 3c
       -0.19841959 1.6759324e-05 0.20391512 0.018292597
000050 0e 45 b2 3c 43 d7 90 be a3 48 0e be 73 c4 2f bd
       0.021761443 -0.28289232 -0.13894896 -0.042911958
000060 43 bd 82 be 08 58 20 3e 02 92 93 3d dd 76 8f be
       -0.2553502 0.15658581 0.07205583 -0.28020373
000070 00 9f 46 be f2 a9 f9 bd 17 d9 6a be 08 59 25 3e
       -0.19396591 -0.121906176 -0.22934376 0.16147244

weight f4 [32, 32, 5, 5]
000000 bc e1 a7 3c b3 60 c4 3c 61 46 0e bc 0a cb 97 3c
       0.02049338 0.023971891 -0.008683772 0.018529434
000010 bd a1 1e bd 8f 47 71 bc 70 2a 30 3d be 21 34 bc
       -0.038728464 -0.014726534 0.04300922 -0.010994373
000020 d0 86 f1 3c 05 ac 19 3d 01 60 15 3c ce aa 9e 3c
       0.029483229 0.037517566 0.009117127 0.019368555
000030 be 86 15 bd f3 bc 24 bd 04 d0 13 bd 9e 43 24 bd
       -0.036505453 -0.04021926 -0.03608705 -0.040103547
000040 05 fd fc 3c d9 7f 5c 3c f1 68 b2 3c 80 09 1d bc
       0.030882368 0.013458216 0.021778556 -0.0095847845
000050 00 61 14 3c bf e5 08 3d 04 1e 2a bc 99 68 2a 3d
       0.00905633 0.033422228 -0.010383133 0.04160366
000060 6b e5 0a 3d 7d 15 7a 3c 0b 7f ca bb f7 b3 40 bc
       0.033910196 0.015263912 -0.0061796955 -0.011761657
000070 16 2b 37 3d 5a 50 55 bc c5 07 8f bc 55 7c 61 bb
       0.044718824 -0.013019646 -0.01745976 -0.0034406383
000080 df 08 27 3d 75 0a 86 3c 82 9d 1e 3d cd 98 57 bc
       0.040779945 0.016362408 0.03872443 -0.013158989
000090 1c 00 a5 bc ae ce 89 3a 6c 18 0a 3d 79 b6 24 bc
       -0.020141654 0.0010513866 0.033714697 -0.0100532705
0000a0 0f 07 0f bc 07 c9 17 3d 7a 4e 30 3d db 81 41 3d
       -0.00872971 0.03705695 0.04304359 0.04724298
0000b0 1b 18 10 3c f8 9e 8a 3b a6 be 17 3b 23 eb 0a 3c
       0.00879481 0.0042303763 0.0023154407 0.0084789125
0000c0 0d 97 3d bd ee 42 0a bd 47 cd 3f bc 7a c0 a6 3c
       -0.04628663 -0.033755235 -0.011706657 0.020355452
0000d0 cf 1b 47 3c 16 b8 92 bb 7a dd 8a bc 9d 81 17 3d
       0.012152626 -0.004477511 -0.016951311 0.036988843
0000e0 09 0f 02 3d 78 7b 10 3c 16 93 8c bc 20 39 66 bc
       0.03175262 0.0088185 -0.01715998 -0.014051706
0000f0 ae 37 ff 3c f1 85 8e bc 02 ab ad bc c5 1e d1 3c
       0.03115448 -0.017397853 -0.021199707 0.025527367
000100 7f 20 58 3b eb d0 d1 bc 87 83 cf bc 96 ac 5f bc
       0.0032978354 -0.025612315 -0.025331272 -0.013651988
000110 4e 47 7d 3c 27 b8 89 3b 80 20 99 3c 21 8c d9 3c
       0.015458895 0.004202861 0.018692255 0.026556076
000120 c4 74 b1 3c a5 53 01 3c 87 a4 07 bd 16 39 63 bc
       0.021662124 0.007893478 -0.03311589 -0.013868591
000130 08 8c 59 bc f4 25 8a 3a 8d 31 d7 bc 55 61 80 3c
       -0.013278015 0.0010539875 -0.026268745 0.015671412
000140 e2 d7 72 ba f6 dd 28 bb 85 c2 4b 3c d4 16 a6 3c
       -0.00092637364 -0.0025767065 0.012436514 0.020274557
000150 97 a1 3e bc 7b 34 e8 3c b6 81 6b 3c a8 03 1e 3d
       -0.011635206 0.028345337 0.014374187 0.038577706
000160 09 df 37 3d c0 64 a0 bc 77 cc 9a bc 88 09 12 3c
       0.044890437 -0.019579291 -0.018896325 0.008913405
000170 23 7e cc 3c c9 29 92 3b 95 8a 9f 3b 72 c5 ee bc
       0.02496249 0.0044605476 0.004868815 -0.029146884
000180 a0 6d ae 3c 45 76 15 bd 7c 2a df bc 3e e6 82 3c
       0.021292508 -0.036489744 -0.027241938 0.015978929
000190 ac df 21 3c 17 8a 77 3c db b9 8b bc 96 b1 d9 bc
       0.009879988 0.015108607 -0.017056396 -0.026573937
0001a0 eb aa 9d 3c f2 47 e7 bc 0c 63 a7 3b ac be 02 bd
       0.01924654 -0.028232548 0.005108243 -0.03192012
0001b0 b2 39 77 3c 1d 5d da bc 66 72 62 3c f7 13 8d bb
       0.015089439 -0.026655728 0.01382122 -0.0043053585
0001c0 02 d2 3a 3c 11 a5 19 bd 8f 41 cc bb 0e a6 db 3c
       0.011402609 -0.037510935 -0.006233401 0.02681258
0001d0 8a 4d bc 3c a2 e5 f9 3c 63 32 f6 bb 9d da 25 3b
       0.022986192 0.030505005 -0.007513331 0.0025307306
0001e0 64 ef 8f 3c d8 12 b1 3b c7 c8 e1 3b fc 7a 78 3b
       0.017570205 0.0054038577 0.0068903896 0.0037915101
0001f0 9a 2d 3c 3c 24 90 e3 bc 2e c5 66 3b 4b 5b 8e 3b
       0.011485482 -0.027778693 0.0035212743 0.004344379
000200 15 cb b5 bc 8f 17 e0 3c 25 e2 c6 bb 86 32 22 3c
       -0.022191564 0.027354984 -0.006069439 0.009899741
000210 0d ab 1b 3c ba 80 da bb f0 e2 7b 3c 55 9e eb bc
       0.009501231 -0.0066681774 0.01537393 -0.028762022
000220 96 30 85 3b e9 51 e0 3c 62 eb 15 3c 13 8d c0 3c
       0.00406463 0.027382808 0.009150358 0.02350477
000230 98 0f 35 b9 0e 39 60 bc 66 d2 0f 3d c4 7c 14 bb
       -0.00017267314 -0.013685478 0.03511276 -0.0022657374
000240 47 b1 a3 3c ee 99 c3 bc 6e b3 db bb d8 78 19 3c
       0.019981993 -0.02387711 -0.0067047393 0.00936719
000250 f1 ae 00 3d f4 ab 29 3d e1 dc aa bb 49 e4 aa bc
       0.031416837 0.041423753 -0.005214319 -0.020860808
000260 8c 82 b6 3b 9e 4a 22 3c fa 48 83 bc dc cc b2 3c
       0.0055697616 0.009905485 -0.016026009 0.0218262
000270 4e df 4c 3c 4e e1 aa 3c 6f 24 19 bb aa d5 74 bc
       0.012504412 0.020859387 -0.0023367663 -0.01494352
000280 5b 37 0e 3d 29 5e 16 3d c3 1b 79 3c d2 a6 0b 3d
       0.03472076 0.036710892 0.015204373 0.03409464
000290 0d 78 f1 3c 6f 21 a5 bc 0e b5 c5 3b 97 10 f2 bc
       0.02947619 -0.020157544 0.0060335463 -0.029548926
0002a0 80 2d ed b9 66 82 96 bc ef f7 6f 3c 94 80 b1 3b
       -0.00045238063 -0.018372726 0.014646514 0.005416939
0002b0 20 e4 15 bb c5 65 98 3c 6b b2 a3 bc c2 1a f0 3c
       -0.0022871569 0.018603215 -0.019982537 0.029309634
0002c0 ac 9b 56 3c 75 4d 2d 3c c0 68 39 3c dc 34 1f bd
       0.0130986385 0.010577549 0.011316478 -0.03886877
0002d0 ef 1f 89 bc ac 54 35 3c 45 65 e0 3c fe 19 5f 3c
       -0.01673886 0.011067551 0.02739204 0.013617037
0002e0 25 12 3a bd ff fb 9c 3c f5 1e f1 3c 13 5a 83 bb
       -0.04542746 0.01916313 0.029433707 -0.0040085404
0002f0 91 e8 20 3d 82 1f 99 bc 1d 84 de 3c 0b 28 c6 ba
       0.039284293 -0.018691782 0.027162606 -0.0015118135
000300 16 7c 93 3c 6d d4 36 3d 44 b6 ea bc 20 bd ed bb
       0.018003505 0.04463618 -0.028651364 -0.0072552115
000310 ae 46 67 3c d1 a3 b1 3c f0 a9 85 bc 74 f2 d9 bc
       0.014115972 0.021684559 -0.016316384 -0.026604868
000320 e1 10 c9 3c a3 73 cc bc fe 6c 0a bd 9e 68 b4 bc
       0.024544181 -0.024957484 -0.03379535 -0.022022542
000330 6e 2b 16 bc 1b d8 a5 bc 4e ff 03 3d 0b 14 f9 bc
       -0.009165628 -0.020244649 0.0322259 -0.030405065
000340 a1 ee 9c bb 2b 55 b8 3c 2b 9a 9c bb 09 e9 9b 3c
       -0.004789189 0.022501549 -0.0047791204 0.019032018
000350 f9 c8 5f 3c a4 a9 5f 3c 73 43 f1 3b b3 86 ad bc
       0.013658755 0.013651285 0.007362777 -0.021182394
000360 a7 96 b3 bc 39 5c 97 bc 47 c4 fb 3c 76 6b c5 3c
       -0.021922423 -0.018476592 0.03073324 0.024099093
000370 b2 d0 8f bb 88 33 95 3c 59 92 ec bc 00 95 30 3b
       -0.004388892 0.018213049 -0.028878378 0.002694428
000380 6d e9 5d bc 5a d5 ce bc 9e 90 eb 3c 03 96 05 3d
       -0.013544423 -0.025248218 0.028755482 0.032613765
000390 2e e1 19 3c 4d ee 9f 3c 8b b3 dd 3b 77 e5 ef 3c
       0.009392066 0.01952281 0.006765788 0.029284222
0003a0 f1 ed 05 bd fc 52 aa bc a4 f3 44 3c d7 4d 57 3c
       -0.03269762 -0.020791523 0.012020979 0.013141117
0003b0 6e 7a 05 bc b3 39 ad 3c 49 ef fd bc f4 b7 11 ba
       -0.008146865 0.021145677 -0.03099789 -0.0005558722
0003c0 01 89 d7 bc 90 25 c2 bc e6 36 67 bc e2 59 a0 3c
       -0.026310446 -0.023699552 -0.01411221 0.01957411
0003d0 ee a7 fb bc a7 09 0f bc 38 fc f6 3c db 96 c2 3c
       -0.030719724 -0.008730329 0.030149564 0.023753574
0003e0 a0 39 5f bb 4f 32 49 3c 17 17 1e 3b 68 f5 c5 3c
       -0.0034061447 0.012280061 0.002412265 0.02416487
0003f0 f5 27 dd 3c c8 2e bc bb 88 82 8a bc b4 df 51 bc
       0.026996592 -0.0057428814 -0.016907945 -0.012809683

bias f4 [32]
000000 a4 dd 03 bd e1 55 96 bc 0d a7 95 bd b8 91 89 3d
       -0.032193795 -0.018351497 -0.07307253 0.06717247
000010 52 a5 81 3d 16 16 3d bd 25 06 a3 bd d6 82 49 bc
       0.063303605 -0.04616364 -0.07960156 -0.01229926
000020 ee da f0 3b fa 48 b3 bd cd e4 6a bd ef 2e b3 bd
       0.007350317 -0.087541535 -0.057347108 -0.08749186
000030 07 d5 5e bd 04 35 6f bc c4 86 85 3d fb 4d 79 bb
       -0.054402377 -0.014600042 0.06519845 -0.0038040865
000040 f1 03 bd bc 76 45 9a bd df 43 00 bd 30 5a 1a 3d
       -0.023073168 -0.0753278 -0.031314727 0.037683666
000050 4d d1 87 bd c8 ec 5f bc 77 db 80 bd 60 ba 1d bd
       -0.06631718 -0.013667293 -0.062918596 -0.03850782
000060 90 b0 f6 bc 8f af 43 bd 22 5d 4d 3d a4 17 dc 3c
       -0.030113488 -0.047774848 0.050137646 0.026866741
000070 89 4d d2 bc 1d dc dc bd 98 ac fa bb a6 4e 88 bd
       -0.025671737 -0.10784171 -0.0076499693 -0.06655626

weight f4 [64, 32, 5, 5]
000000 47 c2 fc 3c 47 20 1b bc 6b 86 21 3c e2 0a 00 bd
       0.030854357 -0.009468145 0.009858708 -0.03126038
000010 5a 10 7f bc 13 d8 c2 bc e7 04 ec ba 81 47 f7 bc
       -0.015567863 -0.023784673 -0.0018006832 -0.030185463
000020 8c 9e ef bc 33 88 54 3c b7 b9 f7 bc 25 7a 81 bb
       -0.029250406 0.012971926 -0.030239923 -0.0039513283
000030 0e 23 d1 3c 7b 19 51 3c 72 7a 74 bc 33 d2 f1 bb
       0.02552941 0.012762423 -0.014921771 -0.007379794
000040 b1 51 82 bc db e0 c3 3b 8b fa 8d bb 63 78 15 bc
       -0.015908094 0.0059777326 -0.0043328456 -0.009122941
000050 a9 a2 22 3c 6a b6 cc 3b 6d ed f3 bb 86 35 39 3c
       0.0099264765 0.0062473314 -0.007444075 0.011304265
000060 34 6e 42 bd db 28 85 3a 0d f0 0a bd 20 af f6 bc
       -0.04746838 0.0010159271 -0.033920337 -0.030112803
000070 53 ab 00 3c 22 13 9d 3c f6 78 99 3c 04 38 87 bc
       0.007853347 0.019174162 0.018734436 -0.016506203
000080 81 09 26 bd 2f 8f 7a 3b bc 43 bd 3c a5 d4 f6 3c
       -0.040536407 0.0038232317 0.023103587 0.030130694
000090 d8 de 69 bb ce 59 7d bc c3 74 a7 3c 80 ca ff bc
       -0.0035685804 -0.015463306 0.020441419 -0.03122449
0000a0 de a4 d7 3c e8 00 f2 3c ee f4 9e bc ce 9e 1d bd
       0.026323732 0.029541448 -0.019403901 -0.038481526
0000b0 71 c7 bb 3c ec bb e0 bc cc 97 84 3c 8c 1e 56 bc
       0.02292225 -0.027433358 0.016185664 -0.013068806
0000c0 2c 76 7c bc b5 1e a7 3c 15 32 e7 3c ec 5b 31 bb
       -0.015409034 0.020400384 0.028222123 -0.0027062846
0000d0 d9 b5 b5 3c 88 0c 1e bc 5f a3 b5 bc 34 62 06 3d
       0.022181438 -0.009646542 -0.022172628 0.032808498
0000e0 f0 1d 4e bc 68 c1 5c 3c cf d2 57 3c 44 c2 91 3c
       -0.01258038 0.013473846 0.013172819 0.017792828
0000f0 e2 b4 11 3c 94 94 36 bd af f2 04 bd c0 7d 83 3c
       0.0088932235 -0.04457529 -0.032458004 0.016051173
000100 b7 86 7a bc f7 63 9f bc 1e 14 16 3c f4 b5 b9 3b
       -0.015290908 -0.019456847 0.00916007 0.0056674425
000110 86 87 b0 bc 75 04 0a bb d2 1b 8f 3c dc a0 45 3c
       -0.021548998 -0.0021059786 0.01746932 0.012062278
000120 9b 18 22 bd c5 96 ac 3b ec 0d 08 3d 78 0e c9 bc
       -0.039574247 0.0052669966 0.033216402 -0.024543032
000130 d8 f4 9d bc 74 c1 e1 bc 82 c4 8c bc a9 fd 8a bb
       -0.01928179 -0.027558066 -0.017183546 -0.0042416644
000140 f4 5d de 3c 9a 66 51 3c 7d 6c 03 3d 99 72 16 bc
       0.02714441 0.01278081 0.032085884 -0.009182596
000150 8c 45 b9 3c 47 f0 f3 bc 74 86 1d 3d 38 c3 34 3d
       0.02261617 -0.02977766 0.038458303 0.044131488
000160 80 c2 a6 bc a8 59 3e bd 3b 2b 84 bc fc 48 e8 3b
       -0.020356417 -0.04647222 -0.016133895 0.0070887785
000170 d4 9c ff bb 7b ef af bc 25 82 8d 3b 4f ea 01 bd
       -0.007800678 -0.021476498 0.004318493 -0.031717595
000180 e7 4c 22 bd 3c 7e 07 bc f0 8f 8b bc 40 0f 23 3c
       -0.03962412 -0.008269843 -0.017036408 0.009952366
000190 8a 49 bc bc 97 94 ac 3c 94 e7 7c 3c e2 6b 5c 3b
       -0.022984285 0.021066947 0.015436072 0.003363364
0001a0 32 ad 95 3c 6f bd 00 3c 88 f9 0c 3d 84 54 9d 3c
       0.018271063 0.0078576645 0.03441766 0.01920534
0001b0 64 74 54 bc a3 7b 62 bc 3a d4 da 3c f9 50 36 3c
       -0.012967203 -0.013823423 0.026712526 0.011127704
0001c0 ac d3 a6 3c c2 00 ca bc 1e 71 3f bd 49 cc 4b 3c
       0.020364605 -0.024658564 -0.046738736 0.012438842
0001d0 a1 3a c3 3c 31 bb 4a 3c 52 d1 10 3d 01 08 20 bd
       0.023831667 0.0123737315 0.035355873 -0.039070133
0001e0 e6 65 8f 3c 45 0e 8a bc 61 2e 2a 3d 04 95 5c bb
       0.017504644 -0.016852507 0.041548137 -0.0033658156
0001f0 14 fb 45 bc 02 0e 17 bd 97 90 46 bc f1 1f 99 3a
       -0.0120837875 -0.036878593 -0.012119434 0.0011682493
000200 90 09 52 bc c2 9e c4 bc 9a 67 bb bc 11 1a 62 bb
       -0.012819663 -0.024001483 -0.02287655 -0.00345004
000210 33 3c 35 bc 39 36 c2 3c d4 11 16 3c 68 a7 86 3b
       -0.011061716 0.023707496 0.009159524 0.004109312
000220 2c e3 6b bb 0b 59 7d 3c ba b5 61 3d f5 74 16 3d
       -0.003599356 0.015463124 0.05510495 0.036732633
000230 62 e5 58 bc 7d fc 5c 3c 3d 76 d2 3c 97 b7 83 bc
       -0.013238283 0.013487932 0.025691146 -0.016078753
000240 98 00 96 bc ea fc bd 3c b6 c7 e8 3b c4 a0 9a 3c
       -0.01831083 0.023191888 0.0071038855 0.018875487
000250 67 8f 06 3d 71 a9 7f 3b e1 51 9c bc ff 49 16 bc
       0.032851603 0.0039010907 -0.019082012 -0.0091729155
000260 42 58 5a bd 1c 00 5c 3c e1 bd 2d bd 01 00 ca bc
       -0.053306825 0.01342776 -0.04241741 -0.024658205
000270 85 8e f5 3b 58 0a b2 bc 5c 05 84 39 20 38 a8 bb
       0.0074937963 -0.021733448 0.00025180995 -0.0051336437
000280 30 a6 93 3c 23 b6 1b bc a9 77 ec 3c c4 df 1b 3d
       0.01802358 -0.009503874 0.028865652 0.038055196
000290 1d 55 d4 3c 4c e8 11 bd 2f 71 d3 bb 75 8b cc bb
       0.025919491 -0.035621926 -0.0064527015 -0.0062422105
0002a0 93 1d e0 3b 99 30 0f bc 04 db f6 bc 61 e1 b1 bc
       0.006839463 -0.008739614 -0.030133732 -0.021713914
0002b0 b3 38 d7 ba 65 f4 76 bc d2 1c 7a 3c bf 80 ec bc
       -0.0016420096 -0.015072917 0.01526566 -0.028869985
0002c0 d2 4b e3 3c 6e 0a 09 bc 02 2d f7 3c b4 e9 26 bc
       0.027746115 -0.008364303 0.030172829 -0.010187555
0002d0 3a 3b 86 3c 6c 11 49 3c 09 1c 0a bd 55 ed 0e 3d
       0.016385663 0.01227222 -0.033718143 0.034894306
0002e0 fa 5e 21 bc c2 04 2d bc 35 e7 f4 3b 7d ec 20 3c
       -0.009849304 -0.010560216 0.007473851 0.009822008
0002f0 7f 77 8b 3c f6 30 89 38 80 8d a0 bc ef 8c c4 bc
       0.017024754 6.541789e-05 -0.019598722 -0.023992984
000300 57 fa 0f bd 09 67 9b bc 54 b2 c4 bc e0 23 0b bc
       -0.035150852 -0.01897003 -0.024010815 -0.00849244
000310 91 42 44 bd 09 c6 2e bd 1a da 26 bd 4b 8f be 3b
       -0.047915045 -0.04266933 -0.04073534 0.0058154217
000320 3e 55 e4 3c 2f 35 5c 3b 1c 3c d0 b9 e3 17 2e bd
       0.027872678 0.0033601036 -0.00039717637 -0.04250325
000330 c4 5e 40 bd 98 56 c2 3c 3b 96 9e 3c e2 ac df bc
       -0.046965376 0.023722932 0.019358745 -0.027304117
000340 e6 db c6 bc 7e c7 5f 3b d5 2f fe 3b e5 2e 6f 3c
       -0.024274778 0.0034146006 0.007757167 0.014598583
000350 d1 33 ef bc a7 24 f3 bc 61 27 92 bc a0 59 e7 bc
       -0.029199513 -0.029680563 -0.017841043 -0.028240979
000360 00 30 fa bc 77 7e ab 3b 13 e6 5e bd 53 91 c1 bc
       -0.030540466 0.0052335816 -0.054418635 -0.023628866
000370 c6 7b 85 3c 26 9a 88 3b 59 58 1a bd 15 5f 70 bd
       0.016294371 0.0041687666 -0.03768191 -0.058684427
000380 b1 c4 4b bd 19 35 9f 3c bd 7a eb 3c f7 45 85 bc
       -0.049748126 0.019434499 0.02874505 -0.016268713
000390 bb 9d 47 3c 35 e2 98 3b aa 28 c8 bb 28 69 5f bd
       0.012183602 0.004665638 -0.006108363 -0.054543644
0003a0 02 0f 1a bd 60 5a a6 3b 91 5b e9 bc 85 d5 4d 3c
       -0.03761197 0.0050766915 -0.028486045 0.012563114
0003b0 b4 8d f6 3b a9 61 0f bc 19 5f 2e 3d e5 1f d4 bb
       0.0075242165 -0.008751311 0.04257116 -0.0064735287
0003c0 05 2e c0 bc 8e dd 4b 3a 3f ec 9e bb f4 2b 22 3d
       -0.023459444 0.00077768497 -0.00484994 0.0395927
0003d0 da fd eb 3c 44 6b 11 bc 10 3e 2a bc 3f d2 ab bc
       0.02880757 -0.008875672 -0.010390773 -0.020974277
0003e0 92 d1 1a bc ac 0b 31 3d d4 f1 2f bc a4 f1 0c bd
       -0.0094493795 0.04322402 -0.010738809 -0.034410134
0003f0 05 fa 03 bd d3 57 60 bd 3e f9 fd bc f3 af 89 bc
       -0.03222086 -0.054771256 -0.031002637 -0.016807532

bias f4 [64]
000000 11 61 55 bb cd a8 02 bb 77 78 2d bc af 33 98 3c
       -0.0032559077 -0.001993704 -0.010587803 0.018579332
000010 9b 75 03 bd 62 7d 1e bd 7d 83 36 bd 11 6b 47 3c
       -0.03209458 -0.038693793 -0.04455899 0.012171523
000020 66 25 00 bd 2a a2 bc bc 5e b1 9c bc 68 6b ac bc
       -0.031285666 -0.023026545 -0.019127544 -0.021047309
000030 8b 64 be bc a3 4d 7f bd ab 4d fe bc 58 80 33 bd
       -0.023241302 -0.0623299 -0.031042894 -0.04382357
000040 16 1f 60 bd 5d f8 19 bd c1 ac 25 3c 48 8f 80 3a
       -0.054717146 -0.037590373 0.0101119885 0.0009808326
000050 de c6 1a bd 69 ca 8e 3c 89 64 84 bd 93 7c d2 3c
       -0.03778731 0.017430501 -0.06464488 0.025694167
000060 38 29 7f 3b fc 1e bc bd 7e 90 fa bc 4b 52 a5 bd
       0.003893448 -0.09185597 -0.030586477 -0.08072337
000070 89 d6 a7 3b 16 41 2a bd eb 5f 98 3b 8d 3a 16 bd
       0.00512201 -0.041565977 0.004650106 -0.036676932
000080 67 38 94 3b c9 0c a9 bd 55 01 9b 3c ca ca 2a bc
       0.0045233252 -0.08254392 0.018921534 -0.010424325
000090 3b 16 8c 3c 96 5c 0c bd 2d 10 ea 3a 02 b3 50 bd
       0.017100444 -0.034267984 0.0017857604 -0.050951965
0000a0 92 a3 56 bd 67 65 9b bd 4e f0 ab bc b4 24 77 bc
       -0.052402087 -0.075877 -0.02098861 -0.015084434
0000b0 40 e5 30 bd de 25 03 bd d9 0a f9 bc e0 99 a7 3c
       -0.04318738 -0.032018535 -0.03040068 0.020459116
0000c0 75 dd 82 bc 76 1a 50 3b a6 0b 2c 3b da d3 9c bd
       -0.01597474 0.0031754053 0.002625206 -0.07657595
0000d0 01 18 51 bd 8e 81 c2 3c 6e 7f 98 3b 89 2a a7 bc
       -0.051048283 0.023743417 0.0046538627 -0.020406025
0000e0 c0 15 b6 3c f1 46 6e bd da 29 18 bc 1c cf e3 bc
       0.022227168 -0.058173124 -0.009287322 -0.027808718
0000f0 42 f5 9b bd 9a ba 16 bd 05 6c 83 bd 0f 87 41 bd
       -0.076151386 -0.03679905 -0.064170875 -0.047247943

weight f4 [64, 1024]
000000 8f 0c a6 bc 7b 3c b6 bc df 26 57 bd 7d 30 23 bb
       -0.02026966 -0.022245636 -0.052527305 -0.0024900727
000010 63 30 fa 3b df 44 a8 3c 26 a5 45 3c 4a 5e a6 3c
       0.0076351627 0.020540653 0.0120633 0.020308632
000020 c4 2f 06 bc 87 66 95 ba 84 40 8a 3b b0 7f e2 bc
       -0.008190099 -0.0011398353 0.0042191166 -0.027648777
000030 25 d2 0e bd 9e 88 d5 3b 77 f7 80 bc 0c dd 8b bc
       -0.03486838 0.00651653 -0.015743 -0.017073177
000040 3a cf 3b 3c 42 a4 a4 bc 60 86 29 bb e9 94 67 bc
       0.011462981 -0.020097855 -0.0025867447 -0.014134624
000050 cc 5b ce 3c 5c 5d e1 3c 08 3c 18 bc 02 22 83 bb
       0.025190257 0.027510338 -0.009291656 -0.004001857
000060 e0 37 2d 3c 82 a4 ef 3b a9 8b db bc a4 96 b4 3c
       0.010572404 0.007313312 -0.026799994 0.022044487
000070 82 ec 28 3c 44 17 03 3d 33 a7 ce bc 13 92 a3 bb
       0.010310294 0.03200461 -0.025226211 -0.0049917786
000080 54 49 6f bc e2 25 15 3c c1 a0 ee bb 59 ff 94 bc
       -0.014604885 0.00910327 -0.007282347 -0.018188166
000090 a5 8d 29 bd 37 23 16 3d a4 77 97 bc ae eb 94 3c
       -0.04139485 0.036654677 -0.018489666 0.018178787
0000a0 d2 68 50 3c b8 51 32 3d d2 74 1c 3d 55 80 a1 bb
       0.012720304 0.043534964 0.038197346 -0.0049286284
0000b0 98 4f 80 bc ca 5b 02 bb e0 4f 3a 3d 4e 13 87 3b
       -0.015662953 -0.0019891136 0.04548633 0.0041221743
0000c0 f8 c4 52 bc 99 d9 3b 3d aa cc 95 bb f8 2f df 3c
       -0.012864344 0.045861814 -0.004571517 0.027244553
0000d0 1e 8c bf 3b ca 80 90 3c 0e eb fe 3c 1b ac 7f 3b
       0.0058455607 0.017639536 0.031117942 0.0039012495
0000e0 52 dc d1 3c 3f 99 9a bc 5a dc 90 bb f9 45 02 bd
       0.025617752 -0.018871902 -0.004420799 -0.031805012
0000f0 0f 49 18 bd 3a 4e 03 bd eb 21 10 bd 4c 4c 2c bc
       -0.03717905 -0.032057025 -0.035188597 -0.0105162375
000100 df 14 c5 bc b1 a2 b0 3c 43 c0 47 bc 0c a5 6c 3b
       -0.024057804 0.021561952 -0.012191835 0.0036109118
000110 31 b6 76 bc 1b 43 cb bc 69 a4 cc 3c 77 dd 3d 3d
       -0.015058086 -0.024812272 0.02498074 0.046353783
000120 de 56 0e 3d 11 d7 1e 3d c4 b4 ce 3c 35 87 6c 3b
       0.03475081 0.038779322 0.02523268 0.0036091332
000130 19 1c 04 bd fa ba ad bc e1 d4 c9 bb 89 99 34 bc
       -0.03225336 -0.021207321 -0.0061594103 -0.011022934
000140 29 86 a5 bc 9f cb 82 bc 70 d2 ab bc 7a 82 91 bc
       -0.020205574 -0.015966235 -0.020974368 -0.017762411
000150 71 4a 4a 3d ec 80 13 3d e9 10 ad 3c 04 99 25 3c
       0.0493874 0.03601162 0.021126227 0.010107283
000160 90 8a 26 bc 85 81 c2 bb 9f e9 0c bc 16 a5 6f bb
       -0.010164872 -0.00593585 -0.0086006215 -0.0036566905
000170 dd b3 93 3c 46 12 c8 3c 55 03 a2 bc 1f b5 5f 3c
       0.018030101 0.024422776 -0.01977698 0.0136540225
000180 9c 9a 4a bc b0 93 97 3c 76 bf b6 3c dc a0 00 bc
       -0.012365963 0.01850304 0.022308093 -0.007850852
000190 48 7b c8 3c 40 40 84 3c 67 5e 9c 3b be f7 da 3b
       0.024472848 0.016143918 0.004771996 0.006682365
0001a0 ae 1e 81 3a d0 5d bf ba 68 5c 71 3c f8 43 5c bc
       0.0009851062 -0.0014600102 0.014731504 -0.013443939
0001b0 d5 77 6b bc 56 f3 c4 39 de 36 4c bd 31 ee b0 3c
       -0.014371832 0.00037565333 -0.049857013 0.021597954
0001c0 cc 97 56 3c bd f1 be bb 01 fc 10 3d aa 0b 9f 3a
       0.013097715 -0.0058271573 0.03539658 0.0012134213
0001d0 39 ed 84 bc ea c9 55 bc 14 58 bf 3c d6 10 d3 bc
       -0.016226398 -0.013048628 0.023357429 -0.025764864
0001e0 f5 b8 0d 3b ee df 50 3c 71 08 52 3d 76 bc cf bb
       0.0021625136 0.0127487015 0.05127758 -0.006339605
0001f0 a9 6a fd bc bb a9 23 3c c4 6d 85 3c 72 fa 06 3d
       -0.030934649 0.009989197 0.016287692 0.032953687
000200 03 be 19 3c 10 da 27 3d 84 11 4d 3d d4 83 a3 3c
       0.009383681 0.040979445 0.050065532 0.019960321
000210 c8 4e a6 3c 97 26 0d 3d 05 cd 94 bc 6a 4f 1f bd
       0.020301238 0.03446063 -0.018164167 -0.038894095
000220 6c 55 98 3a 90 91 e2 3c ef 4b 24 bd 56 0d f8 bc
       0.0011622137 0.0276573 -0.04011148 -0.030279797
000230 5d c6 c3 bc 9c f6 d9 3c 5a ac 28 bb 54 60 0b bd
       -0.023898298 0.02660685 -0.0025737495 -0.034027413
000240 2e a3 1b 3d 0a 98 2f 3d 3a 00 41 3a c5 1d 3d 3c
       0.037997417 0.042869605 0.00073623995 0.011542742
000250 d6 90 87 3b 2f 76 0f bc 02 80 7d ba 91 cb 04 bd
       0.004137139 -0.0087562045 -0.0009670259 -0.0324207
000260 dd f9 58 3c 27 b9 ef 3c ae 85 b6 3c c6 e0 1b ba
       0.013243166 0.029263092 0.02228054 -0.00059462746
000270 d5 40 05 bd 4c 4a 00 bb ad 73 15 3c 82 b3 bc bc
       -0.03253253 -0.0019575534 0.009121818 -0.023034815
000280 e4 3a f3 3c 67 10 9e b9 f8 94 57 3d 54 39 16 bb
       0.029691167 -0.0003014833 0.052632302 -0.0022922354
000290 e5 40 a2 bb f6 fc 04 3a 77 c1 f4 3b a9 55 92 3c
       -0.0049515837 0.00050730945 0.007469352 0.017863112
0002a0 14 94 84 bc 08 02 f3 3a ed b5 30 bd 37 50 7f bc
       -0.01618389 0.0018540034 -0.043142248 -0.01558309
0002b0 0a 5e 74 3c 8f 6e a7 bc 0a 20 20 bd 09 da 27 bd
       0.014914999 -0.02043846 -0.039093055 -0.04097942
0002c0 f0 17 cb 3c bb bb 8f 3c c6 df 21 3c 49 95 15 bd
       0.024791688 0.017545572 0.009880012 -0.036519323
0002d0 68 25 94 3c 2a c6 ac 3c 18 49 7b bc ed 97 7d 3c
       0.018084243 0.021090586 -0.015337251 0.015478116
0002e0 4b b8 87 3c f8 c8 4d bd 06 4b 07 bd cb 4c 1d 3c
       0.01656737 -0.050240487 -0.033030532 0.009600828
0002f0 ce 46 1b bd 48 91 b1 bc e4 53 08 3b c9 86 d7 3c
       -0.03790932 -0.02167572 0.0020801956 0.026309388
000300 80 a3 b1 bc 37 c2 2f bc b2 fa 63 bc f5 b5 a9 ba
       -0.021684408 -0.010727457 -0.013914751 -0.0012947904
000310 4d bd 30 bd 25 3e 67 3c 3c d1 51 3b 8d 97 a4 bc
       -0.04314928 0.0141139375 0.0032015583 -0.020091796
000320 49 a2 20 bd bb 84 f8 ba ce e0 ef 3b 24 0a 02 3c
       -0.039217267 -0.0018960455 0.0073205 0.007936988
000330 a4 9e 52 bc 13 1b 0b bc a2 bd 9c bc 8e 59 63 3c
       -0.012855206 -0.008490342 -0.019133393 0.013876332
000340 b6 3f 2e 3c c9 e7 50 bc ac 52 03 3d b7 da c3 bc
       0.010635307 -0.012750574 0.032061264 -0.023908002
000350 a8 83 ff bc 78 b2 09 3d 37 f5 e7 bb a2 a0 df 3b
       -0.031190708 0.033617467 -0.0070787924 0.006824569
000360 a5 12 f4 3c 76 3e 95 3c 13 1b ea 3c 97 ee 52 bc
       0.029794047 0.01821826 0.028577363 -0.012874267
000370 40 88 e3 3c b5 04 25 3b d3 91 6f 3c a6 a5 cb bc
       0.02777493 0.0025179808 0.01462217 -0.02485926
000380 07 be 00 3d 66 4a 6d bb 51 26 e8 bc 71 b4 63 bc
       0.031431224 -0.0036207675 -0.028338583 -0.013898001
000390 51 e0 1c bc da 06 21 3d b0 1d 9e bc 50 72 8c bc
       -0.009574966 0.039313175 -0.019301265 -0.017144352
0003a0 f2 02 0b 3d fa 2c a3 bc 50 1c 4c bc 8a 15 06 3d
       0.033938356 -0.019918907 -0.012457922 0.032735385
0003b0 32 ba a2 39 a1 d1 68 3c 35 5d 05 3c 08 9c f6 3b
       0.00031037774 0.014210136 0.008139898 0.0075259246
0003c0 b3 a9 5e bc ce db 85 bc 41 59 b2 bc d8 21 15 bd
       -0.013590264 -0.016340163 -0.021771075 -0.03640923
0003d0 6e 07 9c bb 8f 16 f6 3c 90 7c 1d 3d 18 30 d3 3c
       -0.004761628 0.030040054 0.03844887 0.025779769
0003e0 b8 5e c2 3a c9 04 10 3d 7b f2 1a 3c fb 60 97 ba
       0.0014829254 0.035160813 0.009457226 -0.0011549288
0003f0 7f cd 8e 3c 17 3d 18 3a 0a 72 ff 3b 0a a7 37 3d
       0.017431973 0.0005807443 0.007795577 0.044837035

bias f4 [64]
000000 cf d4 3f bc 66 ce eb 3b f3 14 56 3d 8b 7b 00 bd
       -0.011708452 0.0071962355 0.052266072 -0.03136782
000010 7b 42 f2 bc 94 9a a7 bc 01 3e 4f bc cf c7 79 bb
       -0.029572716 -0.02045945 -0.01264906 -0.003811348
000020 4a bf 78 3c b6 60 c1 bc f9 65 e4 3c 01 1a bc 3c
       0.015182326 -0.023605686 0.027880656 0.022961618
000030 1f 0d c6 3c 55 0b ca bc 60 3f c1 bc 90 7a 41 bd
       0.024176179 -0.024663607 -0.02358979 -0.047236025
000040 b6 d8 ea 3b 8f e9 29 3d 64 ec 19 3d 3c 4f 1e bd
       0.0071669472 0.041482504 0.037578955 -0.038649783
000050 70 2f df ba 66 4c 89 3d d9 23 a9 bc 73 68 0a 3d
       -0.0017027687 0.06704025 -0.020646976 0.033791017
000060 a0 2f 5c bd d2 c6 35 3d 7f fc 15 bc 21 9d c5 bb
       -0.053756356 0.044379063 -0.009154438 -0.006030694
000070 09 e2 9a bc cd 3f 01 3d 5a 57 d3 3c 60 01 6c ba
       -0.01890661 0.031554986 0.025798488 -0.00090028904
000080 94 50 fd 3c d2 e5 e8 bc 4b 58 fb bc 78 55 d8 bb
       0.030922212 -0.0284299 -0.03068175 -0.0066019855
000090 42 a0 96 bc c9 93 66 3c 81 18 b0 bc f0 ac d4 3c
       -0.018386964 0.014073321 -0.02149606 0.02596137
0000a0 65 d2 af 3b 2d 77 2f bb a1 16 3b bc 26 5b 08 3d
       0.005365657 -0.0026773915 -0.011418969 0.03329005
0000b0 9c 48 d0 b9 f2 39 8c bd a3 e0 2b bd 48 19 23 bd
       -0.0003972695 -0.0684699 -0.041962277 -0.039819032
0000c0 b7 27 de 3c a5 0b 8d 3c b4 33 1a bc f4 ff 99 3b
       0.027118547 0.017217467 -0.009411741 0.0046997014
0000d0 6e 07 ed bb 32 76 2f bd 16 b4 aa bc 6d d6 80 bc
       -0.0072335517 -0.04283733 -0.020837825 -0.015727246
0000e0 8e d6 7e bb 8d 89 73 3d 30 22 bd 3b cd 73 22 bc
       -0.0038885209 0.05945735 0.0057718977 -0.009915304
0000f0 99 e8 23 bd 1d b6 9b 3c 78 3a cd bc 99 31 99 bc
       -0.040016744 0.019007737 -0.025052294 -0.018700408

weight f4 [10, 64]
000000 39 87 0d 3c d4 3e 82 3d 40 32 b3 bd 4e 98 49 bc
       0.008638197 0.0635964 -0.08749819 -0.012304379
000010 f4 73 89 3d 55 10 8e 3c 78 5b d8 3d 4e 7c 76 3e
       0.067115694 0.017341772 0.10564321 0.24070856
000020 00 d3 77 3d 2c 53 d9 3c f6 90 56 3c e2 83 63 3d
       0.06050396 0.026528917 0.013096085 0.055545695
000030 76 f1 83 3d f0 36 36 3e 6a 31 14 3e 1e 20 d1 3d
       0.064425394 0.17794394 0.14471975 0.10211204
000040 c1 34 23 be 87 50 25 be 3e aa 94 bd 5a 4a a0 3d
       -0.15938093 -0.16144 -0.072590336 0.078266814
000050 2e 06 36 3c 44 c7 70 be 0b 01 ae 3d 59 cd 69 3c
       0.011109872 -0.23513514 0.08496293 0.01427015
000060 0c ba 04 3d dd bd e2 bd 47 fe b6 bc 99 ce d2 3c
       0.03240399 -0.1107137 -0.022338046 0.025733279
000070 08 72 c9 bd 16 ab 50 bd ba f6 b0 bd 17 d1 e2 bc
       -0.09836203 -0.05094441 -0.08640809 -0.027687592
000080 fb a8 49 bd 42 41 64 be 66 61 2c bd f1 b4 a8 bd
       -0.049233418 -0.22290519 -0.042085074 -0.08237637
000090 bd 2e 32 3e 53 98 3a be 9c 73 db 3c 20 2c 85 bd
       0.17400642 -0.1822217 0.026788525 -0.06502557
0000a0 6f 99 c2 bd d2 32 20 3b d7 34 9a 3d f3 35 a6 3d
       -0.095019214 0.0024444354 0.0752961 0.08115759
0000b0 96 35 a3 3d 6c c7 fb 3d 60 63 0a 3e 65 9a f3 3d
       0.07969205 0.12293896 0.13514471 0.11894683
0000c0 b6 81 ee bd d9 35 2a 3e f7 0c 0a 3e 70 bd 9f 3d
       -0.11645834 0.16622104 0.13481508 0.07799804
0000d0 30 56 aa 3c 76 50 8e 3d 85 b0 dd 3d a4 1b c4 bd
       0.02079305 0.069489405 0.10824684 -0.095755845
0000e0 60 86 73 3e b5 34 1d be d4 68 21 be a3 1c 08 3e
       0.23781729 -0.15352137 -0.15762645 0.13292174
0000f0 2d 8f 0d be fd e0 08 be 15 fa 38 3e 80 b3 f4 3d
       -0.13824148 -0.13367076 0.18064149 0.119482994
000100 28 03 1c 3e 32 02 a5 be 18 c0 14 be 5b df b8 bd
       0.15235579 -0.32228237 -0.14526403 -0.09026977
000110 cb c5 48 3e 11 17 26 be 1e 7d 4c be 3c 76 be bd
       0.19606702 -0.16219737 -0.19969603 -0.09299895
000120 6d 01 90 bd c0 cc e2 bd 77 bd a2 be 21 7b 05 be
       -0.07031522 -0.11074209 -0.31785175 -0.13035251
000130 0f ad 90 bc fe 32 7f 3e 3e 12 a3 3e 1a 71 eb 3d
       -0.017660646 0.24921796 0.31849855 0.11496182
000140 4f 94 a8 bd 77 c5 1e be 8f 4b 88 bc 34 3a da 3d
       -0.082314126 -0.15505014 -0.016637592 0.106556326
000150 25 91 0e be 3b b7 f8 3d cb 2b fd bd 0a 05 09 3e
       -0.13922556 0.121443234 -0.123618685 0.13380828
000160 ce c9 bb 3c 67 b8 35 3e 53 4c 42 3d 96 41 3b be
       0.022923376 0.17746125 0.04743607 -0.18286738
000170 c3 dd 3c be 8b dc 37 bc 1e ef ca bd 2a f0 40 bc
       -0.1844397 -0.011222015 -0.09908889 -0.01177601
000180 c3 44 00 be 66 52 78 bc 0f a7 a2 bd fc bb 73 be
       -0.1252623 -0.015156364 -0.0794202 -0.23802179
000190 b3 8f 03 be 4a 5e 40 3d d8 24 06 be 16 4f 1d 3e
       -0.12847786 0.04696492 -0.13099992 0.153622
0001a0 64 9a 39 3e 70 ec db bd 57 bd 3e be 99 de 22 be
       0.18125302 -0.10738456 -0.18626915 -0.15905227
0001b0 97 97 04 3c 06 ef 78 be db 99 73 3c d4 0d 95 3c
       0.008092782 -0.2430993 0.014868225 0.01819507
0001c0 3d d1 e0 3d 95 29 85 3c fc cf e4 3d f0 73 35 bc
       0.10977409 0.01625518 0.11172482 -0.011075005
0001d0 c8 60 16 be 49 09 de 3d 92 6e 17 be 77 52 4f 3d
       -0.14685357 0.10841615 -0.14788273 0.050615754
0001e0 57 db db 3d a8 e8 a2 3c db 3b e8 bd 68 ec 2e 3e
       0.10735195 0.01988633 -0.113395415 0.1708237
0001f0 ee d9 2b 3d 05 e7 1d 3e 27 22 28 be fa f2 92 be
       0.04195588 0.15420158 -0.16419278 -0.28701
000200 55 7c c2 3d 1c 6a 3a 3e 5e c6 19 be 07 8d 10 3e
       0.09496371 0.1820454 -0.15017077 0.14116298
000210 20 2c 96 bd 33 e7 43 3b 14 c7 fa 3d 65 41 f0 bd
       -0.07332635 0.0029892444 0.122450024 -0.11731223
000220 a4 fb e5 3d 84 3c 03 be 54 4b eb 3d 17 2c 21 3d
       0.11229637 -0.12816054 0.11488977 0.039348688
000230 e4 fd 0c 3d 92 47 39 3b f3 16 0d be ad 42 86 3d
       0.034421816 0.002827142 -0.13778286 0.06555686
000240 51 6e 52 3d 46 70 00 3e bc cd 73 3d f3 44 19 bd
       0.051374737 0.12542829 0.059522375 -0.03741927
000250 53 a4 ac bd cc a4 34 be c2 f9 b9 bd 3e 07 c4 3d
       -0.0842978 -0.1764099 -0.09080841 0.09571694
000260 09 e4 12 be 00 8b b5 3d b8 18 be bb ba 49 1e bd
       -0.14344801 0.08864403 -0.0058012865 -0.03864453
000270 3c ce 13 bc 0c 3c c3 3c 0c 2d f3 3d 56 85 54 bd
       -0.009021338 0.023832344 0.118738264 -0.05188497
000280 26 49 af 3b 9e e6 52 3e 10 c0 6c bd 69 0d 4d 3e
       0.005349296 0.20595786 -0.057800353 0.20024647
000290 5e e7 cd bd 92 2f 86 bd 2c 06 04 be 0a 47 13 be
       -0.100538954 -0.06552042 -0.1289298 -0.14382568
0002a0 d1 da 2a be 4d 05 c6 3c 61 f0 33 bd ff 47 98 bd
       -0.16685034 0.02417245 -0.043930415 -0.07435607
0002b0 51 42 fd 3d 49 68 78 3d c7 cc 16 be a6 1f 84 3c
       0.123661645 0.06064633 -0.14726554 0.016128372
0002c0 08 32 af 3d 10 c4 11 3e 23 df c0 bd da 2a 34 be
       0.085544646 0.14234948 -0.0941756 -0.17594472
0002d0 79 a9 27 3e 22 43 24 be c1 05 38 3e ef 5c 27 bd
       0.16373242 -0.16041234 0.17970945 -0.040860113
0002e0 eb 5b 1e 3e 82 22 75 3c cd b6 f5 3d 98 61 cf 3d
       0.15464751 0.014961841 0.11997757 0.101260364
0002f0 e9 b0 3b be f5 54 b8 bd f0 73 32 3e 39 6d 16 3e
       -0.18329205 -0.09000579 0.17427039 0.14690103
000300 a8 ef d9 3d 5b 8b fb 3d bb c4 35 3d 1e 72 1a be
       0.10641414 0.12282439 0.04437707 -0.15082595
000310 a6 e2 f6 bd bf 08 c8 3b e5 c9 f3 3d c8 ac 8f bc
       -0.120549485 0.0061045582 0.11903743 -0.017538443
000320 84 e6 38 3d e4 a4 04 3d 95 c8 02 be 09 40 a9 3c
       0.04514171 0.032383814 -0.12771828 0.020660417
000330 47 63 74 bd ea 22 65 be ea 78 30 be be b3 8d bd
       -0.05966499 -0.223766 -0.17233625 -0.06919049
000340 12 ec b8 3d 7a 51 8c 3a 9a 92 18 3e 3a d6 ca bd
       0.09029402 0.0010705434 0.14899674 -0.09904142
000350 d1 da 16 3e 4b 2d 2a bc b5 3f bc bd 46 dd a8 bd
       0.1473191 -0.010386775 -0.09191839 -0.082453296
000360 a6 45 57 bd f9 67 0b 3e d9 28 5e 3b b3 cb 96 3d
       -0.052556656 0.13613881 0.0033898859 0.07363071
000370 c8 13 86 bd d0 ec b4 3d 99 57 9b 3d e2 7d 1c 3e
       -0.06546742 0.08834231 0.07585067 0.15282395
000380 01 70 01 bd d9 0a 19 3e b6 3c ea bd ce 12 9c bd
       -0.031600956 0.14945544 -0.11437361 -0.07620774
000390 43 d6 db bd 29 0b c3 3c ee 7a b0 bd 09 c9 c7 bc
       -0.107342266 0.023809033 -0.08617197 -0.024387853
0003a0 33 27 d7 3c b1 6b cd bd 85 b2 e7 3d 54 5a 0f 3d
       0.026263809 -0.10030306 0.11313347 0.034998253
0003b0 2c 51 49 be e6 55 bb bc 46 47 ad 3d 1c cc 6d 3d
       -0.19659871 -0.022868108 0.0846086 0.058055982
0003c0 e8 5a 99 bd f4 df 26 bd 59 11 4e bd 1e 46 13 3e
       -0.07488042 -0.040740922 -0.050309513 0.14382216
0003d0 c0 bb 36 3e 40 65 fd ba 6b a1 7c 3d 2b 4e a8 bc
       0.17845058 -0.0019332543 0.061677378 -0.020545086
0003e0 31 c6 2a 3d b1 cd f8 3c 7a 12 97 3d 26 d1 10 be
       0.041692916 0.030371519 0.07376571 -0.14142284
0003f0 7a 30 1d be af f9 10 3e 18 e3 9d 3c 72 b2 aa bd
       -0.15350524 0.14157747 0.019273326 -0.08334817

bias f4 [10]
000000 04 e9 07 be c6 42 85 3c c2 d2 65 3d 71 c8 bf 3d
       -0.13272482 0.016267192 0.056109197 0.09364403
000010 ed b4 a4 3d 84 a8 3a 3c a4 e5 c0 3c 6a d5 9b 3d
       0.08042321 0.011392716 0.023547001 0.07609065
000020 13 63 6d 3d b5 11 7b bc
       0.057955813 -0.015324046
