tudui_3.pth (torch, 587399 bytes, 10 tensors)

weight f4 [32, 3, 5, 5]
000000 72 98 07 3d cb cf d9 3c 37 8d 1c bd f8 2c c9 bd
       0.033104368 0.026588341 -0.03822061 -0.0982303
000010 de b5 0b 3c ae 57 df 3d 2a ce dc 3b aa 7a 5e 3d
       0.008527247 0.109053954 0.006738444 0.0543162
000020 68 46 fb 3d b8 7e a9 bc c4 7b b3 3a fb f6 85 bc
       0.12269288 -0.020690307 0.0013693501 -0.016353121
000030 3b a0 70 bc 0f 97 72 3d d9 63 67 bd 2a 4d 8a bd
       -0.014686639 0.059226092 -0.056491707 -0.06752999
000040 85 87 a5 3d 43 bb 19 bd 75 e8 a2 bd 66 7b c2 bd
       0.08082489 -0.037532102 -0.07954494 -0.09496193
000050 fd 09 dd bd 79 12 05 3c f4 bb 18 be d3 c1 17 be
       -0.10792921 0.00812208 -0.14915448 -0.14820032
000060 44 ba 2d bc cc 10 f6 3b 1d e0 8b 3d 0f b1 92 3b
       -0.010603491 0.0075093266 0.068298556 0.0044766734
000070 32 eb cf bd 8d 64 c9 3c 8e f0 e9 3b 21 67 9c bd
       -0.10152282 0.02458408 0.007139272 -0.07636858
000080 09 27 d0 3d 9d aa da 3d 4d 76 c3 3d ac b3 b5 bd
       0.10163695 0.10677073 0.095440485 -0.0887216
000090 27 9f 9a 3d 44 a0 8f 3d 94 46 c3 3d 2c ca 54 bc
       0.07549887 0.0701299 0.09534946 -0.012987655
0000a0 6d 7b aa bd d9 08 9d 3d 47 54 20 3d a3 41 5a bd
       -0.08324323 0.07667703 0.039142873 -0.053285252
0000b0 50 05 a2 ba 67 d4 cb 3c 60 ff bc bd ea 14 c2 3b
       -0.0012361202 0.024881555 -0.092283964 0.0059229033
0000c0 fc 4b 91 bd 70 5e 62 bd 28 bd ca bb 9b 8e 6d bd
       -0.07094571 -0.055265844 -0.0061871 -0.057997327
0000d0 3f e7 98 bd f8 4c 1b bb 0e 92 e1 3d 58 2d 0a 3e
       -0.07465982 -0.0023697 0.11014186 0.1349386
0000e0 f1 e4 05 3e b6 88 b8 3d 3e 7c 97 3d 7d 3f 2f 3d
       0.13075615 0.090104505 0.07396744 0.042785157
0000f0 39 0c d6 3c b1 6a 01 3d 64 0e e6 bc a8 de 2f bc
       0.026128875 0.03159589 -0.028083034 -0.010734238
000100 d4 e4 05 bd 33 ba 89 3d 12 14 d6 3d 9f c5 7d 3d
       -0.03268893 0.06724968 0.10453047 0.061956044
000110 4f 0b 5a 3d fd f4 dc 3d 1e a0 fe bd 94 26 07 be
       0.05323344 0.10788915 -0.12432884 -0.1319831
000120 ab 71 1e bd 3b b7 26 bc 90 ba 28 3d d4 89 f6 bd
       -0.03868262 -0.0101755215 0.041193545 -0.120380074
000130 d7 59 a3 bd 3f a1 e3 bd 6d cd f7 bd 8a 4f da bd
       -0.0797612 -0.111147396 -0.12099729 -0.10659702
000140 50 73 dc bd 01 ca 59 3b 46 c3 46 bc a1 96 07 bd
       -0.107641816 0.0033231976 -0.012131518 -0.033102635
000150 70 c2 11 bd db 55 3c 3d 46 20 ba 3d fd 48 d4 ba
       -0.03558582 0.045980316 0.09088187 -0.0016196069
000160 c8 c5 ae bd 98 b5 85 bd e8 f8 d1 bd e1 8d 2c 3c
       -0.085338175 -0.06528777 -0.10252553 0.010531873
000170 9b 8d 00 3c 05 ff b4 bc 32 47 24 3d 64 e6 f1 bb
       0.007846261 -0.022094259 0.04010696 -0.007382201
000180 6a 62 9d bc 48 20 21 bd 4d b9 cd 3d 3e f7 b7 3d
       -0.019211967 -0.039337426 0.10045109 0.089827046
000190 64 e9 c6 bd ce 1d e0 bb 23 d8 e8 bd ef 49 25 be
       -0.097124845 -0.0068394905 -0.1136935 -0.16141485
0001a0 81 42 0e be b9 aa c7 bd 8e cf 11 be af 2c 20 be
       -0.13892557 -0.0974936 -0.14239332 -0.15642045
0001b0 ab 89 19 bd c9 2a 4c 3d f3 d3 71 3c da 85 c1 3c
       -0.037484806 0.04984549 0.014760005 0.023623396
0001c0 10 4e 57 3c b0 c7 37 3d 4b 74 22 bd 46 c7 68 3d
       0.01314117 0.04486817 -0.039661687 0.056830667
0001d0 0c 94 7f bd a7 d8 07 bd f7 f6 14 3d c9 7c ee 3d
       -0.062397048 -0.0331656 0.036368337 0.11644895
0001e0 fb 51 f3 3d be 77 e7 3c 14 2a b9 3d 0d 6b 54 bd
       0.11880871 0.02825534 0.09041229 -0.051859904
0001f0 3a 46 01 bd e9 ff 8c bd 30 0b 42 3d 08 13 8d bc
       -0.031561114 -0.068847485 0.04737395 -0.017220989
000200 02 96 fa 3b db 56 ce bd 8f 7f cc 3d 84 ad d6 bd
       0.007647277 -0.1007516 0.09985267 -0.10482314
000210 38 e2 2f 3c df dc 82 3d a3 7d 44 bd ab 52 b2 3d
       0.010735087 0.06389784 -0.04797138 0.08707174
000220 f5 dc 1c 3e ac 3a 00 bd bb 2a f8 3d f4 12 38 bd
       0.15318663 -0.031305954 0.12117525 -0.04493995
000230 6d df 88 3d 8b 8f aa bc 80 e3 21 3e 49 27 e3 3c
       0.0668324 -0.0208204 0.1580944 0.027728694
000240 49 f8 21 3e 92 76 b5 3c 86 8d 22 3e 7b 4f 2d 3e
       0.1581737 0.022151265 0.158743 0.1692485
000250 73 79 fb 3c 68 ed ba 3d a7 19 54 3c 65 9f 7e bc
       0.03069756 0.09127313 0.012945569 -0.015540932
000260 f7 32 0c be 88 b9 80 3c 5d ff 5c bd b8 3f 9e 3c
       -0.13691317 0.015713468 -0.05395447 0.019317493
000270 7c 41 3e bd f7 5b aa bc bd 6b a7 3c 22 83 93 3d
       -0.04644917 -0.020795805 0.020437116 0.07202746
000280 54 78 02 be 2e eb 43 bd ae 98 87 3d 9b f7 e2 bc
       -0.12741214 -0.047831707 0.06620918 -0.027705958
000290 55 d7 d7 3d 46 d6 5b bd df 8c ae bd 45 11 3a 3d
       0.10539118 -0.053671144 -0.08522963 0.045426626
0002a0 a2 a5 ac bc 5c 31 15 bd 5d a6 07 bc 06 a4 c0 bd
       -0.021075074 -0.036424026 -0.00827941 -0.09406285
0002b0 27 35 c3 bd 4c b8 ba 3d 9d ba 3b bd df 6b d0 bd
       -0.095316224 0.09117183 -0.045832265 -0.10176825
0002c0 a4 3b da bd 83 ca c9 3c 6b d2 6e bd a1 a0 62 bd
       -0.10655907 0.024632698 -0.05830614 -0.05532897
0002d0 1b ec a6 bd b3 78 d0 3d 30 52 40 bc d7 d3 64 3d
       -0.08150502 0.101792715 -0.011738345 0.05586609
0002e0 3e 5a f1 3d da 50 1b 3c 7e 59 90 3c 63 9c 9c bd
       0.117847905 0.009479726 0.017620798 -0.07647016
0002f0 c6 d0 47 3d e8 9d 83 3d 1c b1 01 3d 75 0f 73 bd
       0.048783086 0.064266026 0.031663045 -0.059340913
000300 4a 39 b0 3d 3a 09 e1 bd ee b1 8a bd dd 31 9c 3d
       0.08604677 -0.10988088 -0.06772219 0.07626698
000310 b6 fc ab 3d af 10 c0 3d bf 13 94 3d 5e 25 b7 3d
       0.0839781 0.09378182 0.07230329 0.08942674
000320 9a 23 03 bc 27 73 c0 bd 5f e6 c4 bd 48 02 1d bd
       -0.008004094 -0.093969636 -0.09614252 -0.038332254
000330 2f 21 37 3d 51 bf 53 3d 08 58 8e bd 38 07 84 3d
       0.04470938 0.051696125 -0.069503844 0.06446689
000340 76 4a 0e bd 4e f5 b5 bd 8a 7f bc bd 59 0f 99 bd
       -0.03473898 -0.08884679 -0.09204014 -0.074736305
000350 1f 8c 83 3d 16 2b dd 3d 58 39 0a 3e 44 cf b2 bd
       0.0642321 0.107992336 0.13498437 -0.08730939
000360 3a ec c2 3d 63 b0 db 3d 1a 92 a5 bd 0f 9e b1 bd
       0.09517713 0.107270025 -0.08084507 -0.086727254
000370 16 85 be bc 71 cb 1f 3d 4c ca fc 3c d3 60 bc 3d
       -0.02325682 0.039012376 0.030858181 0.09198155
000380 9f 53 1b 3d 19 8a e2 bd a7 4e cd 3c e9 d1 5c bd
       0.037921544 -0.11061496 0.025061918 -0.053911123
000390 28 24 69 bd 07 62 a0 3d 5c c3 b1 bd 4e d5 28 3b
       -0.056919247 0.07831197 -0.0867984 0.0025761905
0003a0 9d 6b 01 be 20 7c 8f 3c f6 ec ff bd ea 34 a9 3d
       -0.12638707 0.017515242 -0.124963686 0.08262046
0003b0 6a d7 05 bd 37 cd 98 bd 7d 56 ef bd fa 7d ba bd
       -0.032676138 -0.074610166 -0.11686418 -0.09106059
0003c0 7e d0 d3 bd 77 a1 dc bd e2 04 0a be 25 c2 a0 3d
       -0.10342501 -0.107729845 -0.13478425 0.0784953
0003d0 63 a7 8c 3d c6 35 c5 bd a0 34 55 3d 10 0a c2 3d
       0.06867864 -0.09629397 0.05205214 0.094745755
0003e0 39 a1 0b bd 05 49 d2 bd f1 93 36 bd 34 00 9c bd
       -0.0340893 -0.102678336 -0.04457468 -0.07617226
0003f0 ba 7b d3 bd eb ae 61 3d b2 73 c4 bd 79 47 98 bd
       -0.10326333 0.055098455 -0.0959238 -0.07435507

bias f4 [32]
000000 d7 21 4b 3d 07 1b 46 bd e9 7e c4 bd 8d f2 1f 3d
       0.04959282 -0.04836562 -0.09594519 0.039049674
000010 82 7f 08 3e f8 6e d2 bc b6 ea cd bc 31 74 ae 3d
       0.1332989 -0.02568768 -0.025136333 0.085182555
000020 2f 8f d2 bd b2 a9 2e 3e 9b dd 78 3d 00 e3 d1 bd
       -0.10281216 0.17056921 0.060758214 -0.10248375
000030 cc 02 b7 3d 59 60 a0 bd e7 fe 4e 3e fe 5a 0e 3e
       0.0893608 -0.07830877 0.20214425 0.13901898
000040 ac 25 19 be c0 d8 aa 3a 1d de 09 3e 27 35 7c bc
       -0.14955777 0.0013034567 0.13463636 -0.015393532
000050 e3 b2 3d 3b 1b 22 6f be d1 3e ac bd 52 bc 98 bc
       0.0028945736 -0.23352854 -0.08410419 -0.018644486
000060 5f 75 47 be 27 d7 bb 3d ff 57 a6 3d 22 5d 48 be
       -0.19478367 0.091718964 0.08122253 -0.19566777
000070 d7 d0 17 be 5a ad 99 bd 9a cd 27 be 8e 61 c7 3d
       -0.1482576 -0.07503767 -0.16387025 0.09735404

weight f4 [32, 32, 5, 5]
000000 a2 17 ad 3c df 85 e2 3c e6 1b 4a bb 0e 89 c5 3c
       0.021129433 0.027651725 -0.0030839383 0.024113204
000010 ad ff 02 bd f5 0b cb bc 9a fe 09 3d cd 7e a5 bc
       -0.031982113 -0.024785975 0.033690073 -0.020202065
000020 b7 c6 a8 3c cb 88 f5 3c 7c 8c 3e 3c 91 02 cc 3c
       0.020602567 0.029972455 0.011630174 0.024903568
000030 f7 5a ee bc ac b2 0b bd da 4a 00 bd 1c 4f 0f bd
       -0.02909611 -0.03410594 -0.031321384 -0.034987554
000040 07 3b 04 3d 0f 67 7b 3c 0b 25 bc 3c 2f 0f f8 bb
       0.032282855 0.015344395 0.022966882 -0.0075701694
000050 e0 b7 b0 39 a0 ed bb 3c 6a de 98 bc aa 52 07 3d
       0.00033706333 0.022940457 -0.018660743 0.03303782
000060 10 44 e3 3c 4d 4c 6b 3c c0 01 2f bc 22 a2 9c bc
       0.027742416 0.014361453 -0.01068157 -0.01912028
000070 d9 7c 0a 3d 2f 6e bf bc d6 9b 55 bc ac d0 19 bb
       0.03381047 -0.02336797 -0.013037642 -0.0023470325
000080 72 c5 27 3d d7 5b 6a 3c 68 7c 15 3d 42 83 1e bc
       0.040959783 0.014304123 0.036495596 -0.009674849
000090 71 d3 a6 bc 92 bd 11 bb ca b1 eb 3c f0 f5 4c bc
       -0.020364495 -0.0022238237 0.0287713 -0.012509808
0000a0 65 90 d7 bc 32 44 9c 3c 40 8b d0 3c cb 9e f7 3c
       -0.02631397 0.019075487 0.025457025 0.030227086
0000b0 32 d2 c0 bb 0f 6f 39 3c 78 2d 77 3c 62 fb af 3c
       -0.0058844322 0.011317982 0.015086524 0.021482173
0000c0 79 fe 14 bd 06 83 de bc 98 2d 2f bc 8c c4 a9 3c
       -0.036375497 -0.027162086 -0.010692023 0.020723604
0000d0 bb 74 5f 3c da ed e5 bb d7 85 9e bc a0 20 14 3d
       0.013638671 -0.0070168795 -0.01935093 0.036163926
0000e0 fd a2 fc 3c c8 e2 2b 3c 91 84 9a bc 14 77 77 bc
       0.030839438 0.010491081 -0.01886204 -0.015104074
0000f0 ab fc f1 3c cc a9 a0 bc 64 d9 a1 bc 3b 93 cf 3c
       0.029539427 -0.019612215 -0.01975698 0.02533876
000100 5b 6a 1a 3b 42 31 00 bd df 01 01 bd 3e 62 75 bc
       0.0023561928 -0.031296976 -0.031495925 -0.014977036
000110 b3 c8 5a 3c 51 62 82 3b ed 7c 86 3c 59 64 ca 3c
       0.0133535145 0.0039790054 0.016416991 0.024706053
000120 64 8b c9 3c 39 76 2b 3c 81 4a 02 bd 5e 2f 8c bc
       0.0246026 0.010465198 -0.031809334 -0.01711243
000130 dd ae 5b bc d3 3b c9 3a cb e0 dc bc 8a 00 68 3c
       -0.01340839 0.0015352912 -0.026962658 0.014160285
000140 3d 82 b6 bb e0 58 a9 bb 8d 74 0e 3c 70 4b 6e 3c
       -0.005569725 -0.0051680654 0.00869478 0.014544353
000150 65 45 88 bc 41 eb ae 3c 7c b2 01 3c 19 54 05 3d
       -0.016634652 0.021352412 0.007916089 0.032550905
000160 9c a6 17 3d 8c 89 de bc 92 0e 9f bc fd c5 3a 3c
       0.037024125 -0.027165197 -0.019416127 0.011399743
000170 88 30 e3 3c c0 d2 8f 3b b8 81 58 3b 27 32 d0 bc
       0.027733102 0.004389137 0.0033036303 -0.02541454
000180 be 97 c9 3c 2b c6 03 bd 1d e1 c2 bc 0b fd 9b 3c
       0.02460849 -0.03217141 -0.023788983 0.019041559
000190 e5 8a 6a 3c 40 ed 92 3c 32 7c 64 bc 63 39 af bc
       0.014315342 0.017935395 -0.013945626 -0.021389669
0001a0 d2 ea bf 3c cf 6a c3 bc ba 7c 10 3c 22 de ea bc
       0.0234274 -0.023854641 0.0088188 -0.028670374
0001b0 44 81 a7 3c 5d eb a8 bc 43 28 5c 3c 00 d1 43 bb
       0.02044738 -0.020620042 0.0134373335 -0.0029879212
0001c0 0e d5 4e 3c 79 ca 11 bd 4c 77 8f bb e7 f6 dc 3c
       0.012624038 -0.035593484 -0.004378235 0.026973201
0001d0 bd 44 b7 3c 6e 75 ee 3c 08 c1 21 bc 85 a6 8c 3a
       0.022371644 0.02910873 -0.009872682 0.0010730779
0001e0 f2 34 3c 3c be dd 5b ba 08 19 d4 3a c5 5a 82 ba
       0.0114872325 -0.0008387229 0.0016181776 -0.0009945264
0001f0 9e 17 0e 3c 76 ea e7 bc d3 f8 95 3b 1c 13 5a 3b
       0.008672623 -0.028310042 0.0045767813 0.003327555
000200 36 78 a1 bc b7 2f ee 3c f1 46 c0 bb a8 e7 2e 3c
       -0.019710641 0.029075487 -0.005867832 0.010675348
000210 77 b9 0e 3c 75 e3 87 bb 21 12 85 3c 57 54 08 bd
       0.00871121 -0.004146988 0.016243996 -0.033283558
000220 b0 e2 91 39 4c 79 bc 3c a4 a2 07 3c 5a 0e b7 3c
       0.0002782545 0.023007058 0.008278523 0.02234571
000230 88 9c b9 bb f3 09 91 bc 3a cc eb 3c 5d 2d dc bb
       -0.005664412 -0.01770494 0.028783906 -0.006719275
000240 b0 29 81 3c d1 ac e2 bc bd 32 2c bc bf 9b 89 3b
       0.015766948 -0.027670296 -0.010510144 0.0041994746
000250 59 02 e4 3c 12 36 1d 3d e1 f9 94 bb 46 2c 95 bc
       0.02783315 0.038381644 -0.0045463894 -0.018209588
000260 2b 24 0f 3c de f0 8e 3c d0 8d 28 bc 7b cb 81 3c
       0.00873665 0.017448839 -0.010287717 0.015844097
000270 6e b9 13 3c 9e 31 84 3c df 2c 03 bc 3d db 9b bc
       0.009016378 0.01613694 -0.008006304 -0.01902544
000280 7c 78 cc 3c 99 66 fd 3c 2e 86 1c 3c f9 be e4 3c
       0.024959795 0.030932711 0.009553475 0.027923094
000290 36 dc a6 3c 9b 7d 63 bc a2 e6 41 3c c5 95 c2 bc
       0.020368677 -0.013884927 0.011834772 -0.023753056
0002a0 41 70 a2 3b 39 a1 85 bc ad 79 05 3c a2 b2 32 bb
       0.0049572294 -0.016312229 0.008146686 -0.0027267118
0002b0 9b 4b 36 bc fd 8e 46 3c 13 93 ce bc 39 34 fb 3c
       -0.011126424 0.012119052 -0.025216615 0.03066455
0002c0 fc 31 04 3c 01 f0 29 3c 3c 60 57 3c a2 29 1d bd
       0.008068558 0.010372163 0.013145503 -0.038369782
0002d0 b3 0d 4a bc cf 98 1b 3c 1d c0 fb 3c c2 e7 9a 3c
       -0.012332368 0.009496882 0.030731255 0.018909339
0002e0 71 68 1b bd 13 0b a1 3c 6b fe e2 3c 61 05 ab bb
       -0.0379414 0.0196586 0.027709207 -0.005219147
0002f0 fa fb 0b 3d 37 b8 87 bc fa 94 d8 3c 1a 86 9b bb
       0.03417585 -0.016567333 0.026438225 -0.0047462108
000300 77 d2 83 3c d5 46 17 3d 39 14 f7 bc 78 bc 72 bb
       0.016091568 0.036932785 -0.03016101 -0.0037038606
000310 68 54 a1 3c 49 28 f2 3c 33 f3 5b bc 58 83 a9 bc
       0.019693568 0.029560225 -0.013424682 -0.020692512
000320 f0 ee b6 3c 6c f6 d0 bc ad 08 ec bc 0e fa c3 bc
       0.022330731 -0.025508128 -0.02881273 -0.023922946
000330 d0 f3 0b bc c8 9b cf bc e0 b5 e9 3c c9 a4 d8 bc
       -0.008542016 -0.025342837 0.028529108 -0.026445763
000340 41 fc e3 bb 52 6c b6 3c e5 24 4d bc 60 b7 3c 3c
       -0.0069575612 0.022268448 -0.012521003 0.011518329
000350 b6 c1 80 3c 09 9c 4f 3c 45 08 d0 3b 97 7b cf bc
       0.015717369 0.012671479 0.006348642 -0.025327487
000360 0a fc 01 bd 6b c4 7f bc 8b 58 0d 3d 07 e0 d6 3c
       -0.031734504 -0.015610795 0.03450827 0.026229871
000370 91 28 9a bb 08 ec 52 3c 7f cd d1 bc 11 16 f7 3b
       -0.004704543 0.012873657 -0.025610683 0.0075404723
000380 97 69 34 bc a0 f0 c3 bc c5 bb dd 3c a5 4e f3 3c
       -0.011011503 -0.02391845 0.027067075 0.029700587
000390 b1 45 39 3c ed a0 aa 3c 3c 38 0c 3c 4f 3e ef 3c
       0.01130812 0.020828689 0.008558329 0.029204516
0003a0 eb a8 05 bd 97 64 8d bc 10 07 6a 3c a4 bb 35 3c
       -0.032631796 -0.017259879 0.01428391 0.0110921
0003b0 78 ba 38 bc b0 c5 90 3c 01 e5 03 bd 13 44 41 ba
       -0.011274926 0.01767239 -0.032200817 -0.00073725096
0003c0 d9 11 e7 bc 34 46 d0 bc 68 3a 8e bc 9b e6 85 3c
       -0.028206753 -0.0254241 -0.017361835 0.016345313
0003d0 75 5e 07 bd 94 ac 29 bc 9f a7 dd 3c 5e 5c ab 3c
       -0.033049066 -0.010356087 0.027057467 0.020918068
0003e0 29 5b f4 bb 71 68 1b 3c d0 ff d1 ba a9 de a9 3c
       -0.007457156 0.00948535 -0.0016021673 0.020736055
0003f0 76 72 a4 3c e6 c7 33 bc ae 89 b1 bc 0a cb 4c bc
       0.02007411 -0.0109729525 -0.021672096 -0.01249958

bias f4 [32]
000000 11 1b 91 bc fd 79 fa 3b db 3b 4e bd 6c 2d 09 3d
       -0.017713102 0.0076439367 -0.05035005 0.033490583
000010 2b af 53 3d eb 0b 3a bd f1 28 3a bd d9 28 a2 3c
       0.051680725 -0.045421522 -0.0454492 0.019794868
000020 b1 79 29 3b f0 74 61 bd 64 fa ed bc 00 17 87 bd
       0.0025859887 -0.05504316 -0.02905006 -0.06596184
000030 23 5c 23 bd 78 86 15 bc 1b 5d 1c 3d 52 a7 95 3b
       -0.03988279 -0.009126298 0.03817473 0.0045670653
000040 a1 8b e1 bc 74 36 9b bd 99 82 89 3c c6 d6 e8 3c
       -0.0275324 -0.075787455 0.016785907 0.028422724
000050 b6 63 46 bd 16 ed 3e bb 78 b9 75 bd bf f5 ac bc
       -0.048434936 -0.0029133013 -0.05999133 -0.021113275
000060 ff a6 b7 bc 29 e4 06 bd c1 a6 92 3c 31 35 6f 3d
       -0.022418497 -0.032932434 0.01790178 0.058400337
000070 28 00 65 bb f5 d6 88 bd 8f ff 6b 3c f5 d8 eb bc
       -0.003494272 -0.06681625 0.014404192 -0.028789977

weight f4 [64, 32, 5, 5]
000000 8f 8c 06 3d 2b ba ae bb 53 ae 80 3c 0c d0 c4 bc
       0.03284889 -0.0053322515 0.015708124 -0.024024986
000010 bf 15 1a bc 08 6c bb bc 0e 02 ee 3a 7e 3c cd bc
       -0.009404599 -0.022878662 0.0018158571 -0.025053259
000020 8a 2a d1 bc 98 a9 77 3c ac 80 04 bd 20 e2 d8 bb
       -0.02553298 0.015116118 -0.032349274 -0.006618753
000030 9e 7b b3 3c 51 1e 4f 3c f0 e4 8c bc 5a 6b 24 bc
       0.021909531 0.012641505 -0.01719901 -0.01003536
000040 af 2c a4 bc ef 28 c5 3b ad 6f 43 bb 9e 67 1b bc
       -0.020040838 0.0060168426 -0.0029821203 -0.0094851535
000050 02 b0 c8 3b 20 a4 92 3b 82 80 2a bb 89 22 bc 3c
       0.0061244974 0.0044751316 -0.0026016538 0.022965686
000060 0d 37 1a bd 77 51 cb 3b 45 21 0f bd 1e c6 ba bc
       -0.037650157 0.0062047797 -0.034943838 -0.022799548
000070 f3 dd 37 3c f6 05 e0 3c 60 f3 b0 3c 6c c4 85 bc
       0.01122235 0.027346592 0.021600425 -0.016329013
000080 56 b5 18 bd d8 3c 28 3b 64 44 c6 3c 1d cb f1 3c
       -0.03728231 0.0025671031 0.024202533 0.029515797
000090 89 f0 0c bc c6 a7 87 bc 3f 3f 9a 3c 22 b1 0f bd
       -0.00860227 -0.016559493 0.018828986 -0.035081036
0000a0 0e 06 c2 3c 5a 66 d1 3c 8b e1 81 bc 25 94 1e bd
       0.023684528 0.0255615 -0.015854618 -0.0387155
0000b0 eb f5 b6 3c 52 d3 f0 bc d9 c3 65 3c db 93 f3 bb
       0.02233406 -0.02939764 0.0140237445 -0.007433397
0000c0 85 bf 5c bc 95 fd 9f 3c 22 23 e6 3c e2 1a 58 bb
       -0.013473396 0.019530097 0.028092925 -0.0032975008
0000d0 a6 e8 00 3d ee 18 98 bc 31 67 87 bc f2 0b 12 3d
       0.03147187 -0.018566575 -0.016528698 0.035655923
0000e0 70 7a 40 bc b1 ad 92 3c cf d1 b3 ba 69 91 58 3c
       -0.011747941 0.017905088 -0.0013719144 0.013218262
0000f0 95 d7 6f 3c e6 9b 00 bd 02 6c ee bc 32 02 af 3a
       0.014638801 -0.031398676 -0.029104237 0.0013352095
000100 ee ac b2 bc ad 4e 37 bb 4e 2b 94 3c b2 5f 19 3c
       -0.021810975 -0.0027970478 0.018087056 0.009361194
000110 4e 43 fd bc d9 66 45 bc 7a 30 bb 3c 96 cd 37 3c
       -0.030915882 -0.012048447 0.022850264 0.011218449
000120 81 64 06 bd 49 0e 07 bc df c9 ba 3c 3b 6d e3 bc
       -0.03281069 -0.008243152 0.022801338 -0.027762046
000130 00 28 6a bc 9e b3 f6 bc 60 37 a8 bc df 82 49 bc
       -0.014291763 -0.030114945 -0.020534217 -0.0122992685
000140 be 26 c7 3c 0b 6c 78 3c 39 62 c8 3c eb 5d 4b bc
       0.024310466 0.015162478 0.024460899 -0.0124125285
000150 5a 79 a8 3c b2 bc c7 bc 08 00 2d 3d eb 7f 22 3d
       0.020565677 -0.02438197 0.042236358 0.039672773
000160 fe cb 54 bc 1b 03 11 bd 03 58 4e bc 85 59 9f 3c
       -0.012988089 -0.035403352 -0.012594226 0.019451866
000170 23 12 02 bb bd d9 79 bc c1 88 5a 3c 95 a5 ca bc
       -0.0019847236 -0.015249667 0.013338269 -0.024737159
000180 2a 77 e8 bc 79 b1 17 bc 5a da 82 bc 1b ab de 3b
       -0.028377134 -0.009258621 -0.015973259 0.0067952997
000190 46 24 cf bc 08 19 d5 3c a2 74 98 39 7e 7f 33 3c
       -0.025285851 0.026012912 0.00029078597 0.0109556895
0001a0 37 6c ab 3c 8f 7b 80 3b 24 1e 0b 3d 4a fa f2 3a
       0.020925624 0.0039209793 0.03396429 0.0018537727
0001b0 03 5f 6f bc 94 f0 35 bc 39 74 d3 3c be a1 81 3c
       -0.014610055 -0.011104722 0.025812255 0.015824195
0001c0 45 dc 20 3c d2 e2 d8 bc ee 2a 13 bd ee 72 2d 3c
       0.009818141 -0.026475344 -0.035929613 0.010586483
0001d0 95 95 ec 3c 84 a8 a6 3b 33 32 07 3d 49 b5 07 bd
       0.02887992 0.0050860066 0.033006858 -0.03313187
0001e0 24 19 c1 3c ad b4 45 bc 71 81 0a 3d 3d 66 2f 3a
       0.023571558 -0.012067002 0.03381485 0.0006690955
0001f0 65 8a 15 bc 59 12 04 bd 54 2b 11 bc 67 d5 e0 3b
       -0.009127234 -0.03224406 -0.008860428 0.006861377
000200 17 d1 88 bc 46 cf 00 bd 6e ba aa bc 57 fb 39 bc
       -0.016701264 -0.03144767 -0.02084085 -0.011351428
000210 f8 4f 0d bc 85 50 ad 3c 05 a1 66 3c 83 d6 3c bb
       -0.008625023 0.021156559 0.014076476 -0.0028814382
000220 e9 eb 91 bb 05 88 62 3c 92 a7 20 3d 0f 56 f1 3c
       -0.0044531715 0.013826375 0.039222308 0.029459981
000230 d5 57 3b bc 37 94 a3 3c 7b 74 05 3d 8a a6 7c bc
       -0.011434515 0.019968135 0.032581788 -0.015420565
000240 80 a3 bd bc 01 db da 3c e8 5b 3a 3b 5a 44 96 3c
       -0.023149252 0.026715757 0.0028436128 0.01834314
000250 da e5 e3 3c d3 c8 23 bc a8 c1 34 bc dc 8c 71 bb
       0.027819563 -0.009996611 -0.011032499 -0.003685764
000260 b2 cd 16 bd 70 d3 83 3c 80 bf 11 bd c1 23 9d bc
       -0.03681726 0.016092032 -0.03558302 -0.019182088
000270 67 f1 f3 3b f2 b2 8a bc 31 5e cf bb bf 15 34 ba
       0.007444549 -0.01693103 -0.006328367 -0.00068696955
000280 71 00 6c 3c 3d 3d 36 bc 7c bf f1 3c af 03 e9 3c
       0.014404402 -0.011122999 0.029510252 0.02844414
000290 fd b5 89 3c b0 e5 e6 bc ba 7b ba 3a 22 5d 33 bb
       0.016810412 -0.028185695 0.0014227547 -0.0027368744
0002a0 67 f3 9d 3a 57 01 30 bc 7d f7 ba bc e2 81 95 bc
       0.0012050689 -0.010742507 -0.02282309 -0.01825041
0002b0 25 01 8d 3b d7 76 82 bc d0 6d 0f 3c 5e b3 0b bd
       0.004303115 -0.015925808 0.008754209 -0.034106605
0002c0 13 5d df 3c d2 de 29 bc b6 3f ab 3c fa a5 ac bc
       0.027266061 -0.010368066 0.020904403 -0.021075238
0002d0 2a 9d 55 3c 1f 9c 59 3c 9b 35 0a bd ac 0e d1 3c
       0.013037959 0.013281851 -0.03374253 0.025519691
0002e0 c3 62 a9 bc 6f 62 04 bc f1 f8 4a 3c 6b f8 2f 3c
       -0.020676976 -0.008080109 0.012388454 0.01074038
0002f0 e2 d3 93 3b 34 fb 2c bc 22 cb 55 bc 37 3a 57 bc
       0.0045113424 -0.010557938 -0.013048919 -0.013136438
000300 2e 74 e1 bc 6e fc d6 bc 4d 66 10 bd 14 e2 9c bb
       -0.02752122 -0.026243415 -0.03525381 -0.004787693
000310 46 a2 20 bd 86 ec 09 bd 13 8b 33 bd 33 7c 33 bb
       -0.039217256 -0.033672832 -0.043833803 -0.002738726
000320 07 ae bb 3c 8b 9c 6a 3b 28 94 fb 3b 6d eb 0c bd
       0.022910131 0.0035798873 0.0076775737 -0.034404207
000330 f6 35 39 bd ad 87 77 3c d7 a3 98 3c 67 ff ee bc
       -0.045217477 0.015108031 0.018632812 -0.02917452
000340 e5 b2 ca bc 49 53 af 3a 5a bd c9 3b 04 5e c8 3c
       -0.024743507 0.0013376261 0.0061566057 0.024458893
000350 3c 58 80 bc b8 11 d2 bc 6b 21 8c bc a0 fa d4 bc
       -0.015667073 -0.025643215 -0.017105779 -0.025998414
000360 01 62 d2 bc fd 29 29 3c ad 51 57 bd 43 ce db bc
       -0.025681498 0.010324952 -0.052568126 -0.026831752
000370 df c2 31 3b d0 f8 da bb 89 f4 03 bd 63 64 64 bd
       0.002712421 -0.006682493 -0.03221563 -0.0557598
000380 62 7d 58 bd 63 a4 8b 3c b7 88 02 3d e6 50 28 bc
       -0.05285395 0.01704616 0.031868663 -0.010273194
000390 c5 da 35 3c 42 6c a7 ba b2 ac b4 3b 3a 43 11 bd
       0.011099522 -0.0012773352 0.005513751 -0.035464503
0003a0 d7 b6 b5 bc e6 00 47 3c b0 19 9d bc f6 a5 8f 3b
       -0.022181911 0.01214621 -0.019177288 0.0043837978
0003b0 34 61 b3 3a 03 75 24 bc 7b e9 13 3d 12 49 5c bc
       0.0013685585 -0.010037663 0.036111336 -0.013445156
0003c0 8a d3 e7 bc d5 16 28 3b 55 6a 8b bb eb 9b 14 3d
       -0.028299112 0.0025648375 -0.004254619 0.036281507
0003d0 95 b7 cb 3c 93 08 44 bc 14 26 ad bc 97 a2 9e bc
       0.024867812 -0.011964935 -0.021136321 -0.019364638
0003e0 12 97 b1 bb 0e 42 29 3d 01 89 8e bb 50 e7 c1 bc
       -0.0054196203 0.04132276 -0.004349828 -0.023669869
0003f0 88 e9 af bc 9f ab 2f bd 01 5f 8f bc ad 98 97 bc
       -0.021473661 -0.04288828 -0.017501356 -0.018505419

bias f4 [64]
000000 1c e6 61 bb a5 44 1c 3c f2 b1 5c 3c 3d 51 c0 3c
       -0.0034469431 0.0095378505 0.01347016 0.023476237
000010 75 2e 8b bc 65 bb c7 bc 26 cf f1 bc a0 f3 68 3c
       -0.016989926 -0.024381349 -0.029517721 0.014218241
000020 f6 ae ae bc 87 98 c6 bc 19 09 cf bb ce f5 93 bb
       -0.021323662 -0.024242653 -0.006318223 -0.004515386
000030 7f 94 e1 bc 17 22 2f bd d5 65 d5 bc 4e 4e 06 bd
       -0.027536629 -0.04275712 -0.026049534 -0.03278952
000040 7a ec 34 bd 0a be 1f bd b1 47 22 3d 0d 2c 96 3c
       -0.044170834 -0.038999595 0.03961915 0.018331552
000050 d7 73 dd bc f0 f3 5c 3d 5e 6e 22 bd d6 26 0e 3d
       -0.027032776 0.053943574 -0.039656036 0.034705006
000060 5b e8 5a 3c fb 43 81 bd 7d 00 8f bc 41 7f 86 bd
       0.013361062 -0.06311794 -0.017456288 -0.065672405
000070 20 e0 ab 3c c3 72 39 bd e3 bc 83 3c 30 34 fc bc
       0.020980895 -0.04527546 0.01608128 -0.030786604
000080 fe f6 9f 3c 73 75 9c bd e9 f1 f4 3c 57 9d c3 3c
       0.019526955 -0.07639589 0.029900508 0.023878736
000090 d8 3d 48 3c 2f 5c 12 bd c5 5c 73 3c bd 0e 0c bd
       0.012221776 -0.035732444 0.014853661 -0.034193743
0000a0 3d e4 b9 bc c5 78 55 bd 49 43 d5 3a 3b 43 cb bb
       -0.02269184 -0.052117128 0.0016270663 -0.006203083
0000b0 c2 14 f1 bc 89 54 f5 bc e4 16 f4 bc 2e f3 14 3d
       -0.029428843 -0.029947536 -0.029796071 0.036364727
0000c0 82 bf 2d 3a 03 2e 7e bb 59 84 35 3c 02 63 71 bd
       0.0006627963 -0.003878475 0.011078917 -0.05893231
0000d0 eb 9f 26 bd fb 32 bc 3c 73 c2 a5 3c d4 25 98 bc
       -0.040679853 0.022973528 0.020234322 -0.018572725
0000e0 0b 19 0a 3d 75 fe 17 bd cb 78 82 3c 59 e1 3a bc
       0.03371529 -0.037107904 0.01592674 -0.011406266
0000f0 52 31 65 bd 9a d7 08 bd 8a 21 33 bd d4 a9 14 bd
       -0.05595524 -0.03340874 -0.043733157 -0.036294773

weight f4 [64, 1024]
000000 b7 80 87 bc 00 3c 58 bc ef 18 31 bd b1 e7 da bb
       -0.016540868 -0.013197899 -0.04323667 -0.006680452
000010 14 be e3 ba c9 de aa 3c 69 88 2c 3c f4 65 d1 3c
       -0.0017375373 0.020858185 0.01053057 0.02556131
000020 48 d3 41 3c ba 95 0b 3c 3c 16 50 3c ce ae b0 bc
       0.0118301585 0.008519584 0.012700614 -0.021567728
000030 05 13 8f bc d5 20 58 3b ec 04 ab bc fe ff de bb
       -0.017465124 0.0032978554 -0.02087637 -0.006805419
000040 1c 3b 0e 3c 6d 35 a7 bc 78 34 a7 3a 4c eb 4a bb
       0.008681085 -0.020411218 0.0012756726 -0.0030963002
000050 e9 59 12 3d 80 7d fb 3c f1 7f 01 bb dc fa 49 bb
       0.035730276 0.030699492 -0.0019760097 -0.003081969
000060 6e 00 77 3a ce a0 1e 3c c4 17 ab bc 36 2d b2 3c
       0.0009422366 0.0096818935 -0.020885356 0.021750074
000070 60 2d 8d bb d2 3a 9f 3c b7 6e e0 bc db b7 00 bc
       -0.0043083876 0.019437227 -0.027396543 -0.007856335
000080 82 66 7c bc 2d 46 4b 3c b3 66 10 bc 30 ea 84 bc
       -0.015405299 0.012406868 -0.008813548 -0.01622495
000090 22 7b 16 bd 81 87 28 3d 61 3e bc bc 83 7c 45 3c
       -0.036738522 0.04114485 -0.022978963 0.012053612
0000a0 ab 34 54 3c 9b 83 04 3d 1b ed 83 3b 69 08 c2 bb
       0.01295201 0.03235207 0.004026068 -0.0059214127
0000b0 b6 b9 91 bc d6 59 73 ba 46 15 21 3d ad 61 2b 3c
       -0.01778875 -0.0009283101 0.03932693 0.010460299
0000c0 a9 32 6e bc 33 b7 11 3d 48 fb 03 bc cc 6c cf 3c
       -0.0145384455 0.035575103 -0.008055516 0.025320433
0000d0 65 59 c9 3a 43 32 93 3c fb 2d 01 3d 16 92 9b bb
       0.0015361725 0.017968303 0.03153799 -0.0047476394
0000e0 62 ce 0b 3d b5 c9 73 bb 66 db de 3b ac 38 a5 bc
       0.03413237 -0.0037199084 0.0068010567 -0.020168625
0000f0 04 6c 03 bd 07 e2 b7 bc 01 4e 16 bc 6f 6e 20 bc
       -0.032085434 -0.022446645 -0.009173871 -0.009791954
000100 1f f0 b5 bc 5f 70 b3 3c 22 00 7b bc 38 f9 41 bb
       -0.022209225 0.021904169 -0.015319856 -0.002959801
000110 7e 12 94 bc a1 53 da bc c1 2e 44 3c 56 8e 06 3d
       -0.018075224 -0.026651205 0.011974038 0.032850586
000120 ea 6d 01 3d 9e cf 9a 3c c5 8b 21 3c aa d8 3c bc
       0.031598963 0.018897828 0.009859984 -0.011526266
000130 c5 30 5b bc 03 17 21 bc 25 0f 07 3c ee 1d a3 3a
       -0.013378327 -0.009832147 0.008243357 0.0012444833
000140 5e af 9f bc 49 7c a2 bc d1 c4 c7 bc 73 63 7a bc
       -0.019492801 -0.019834654 -0.024385842 -0.0152825
000150 26 3a 12 3d 28 d4 da 3c 10 72 73 3c 4b 66 29 3c
       0.035699986 0.026712492 0.014858738 0.01033933
000160 af bb 8b bb 1a 3a 9c bb 3f 60 78 bb a7 fc 9d bb
       -0.004264317 -0.0047676684 -0.0037899164 -0.0048213783
000170 d6 c8 88 3c 69 1c f4 3c 27 b6 7b bc ce fa 85 3c
       0.016697329 0.029798703 -0.015363253 0.016354945
000180 70 db 58 bc f6 07 8a 3c 21 75 af 3c 43 b4 27 bc
       -0.013235912 0.0168495 0.021418156 -0.010235849
000190 d0 d3 e7 3c bb 15 92 3c f0 92 15 3c 2d 8f b8 3c
       0.028299242 0.017832628 0.009129271 0.022529209
0001a0 8c 92 41 3a 73 5b 04 bc 13 e9 90 3c 28 67 8c bc
       0.0007384203 -0.008078444 0.017689263 -0.017139032
0001b0 47 92 48 bc 36 a0 88 3c f3 72 f5 bc cd ed e7 3c
       -0.0122419065 0.016677957 -0.029962039 0.028311634
0001c0 f9 bb 4d 3c 60 50 0c bc c2 25 1e 3d dc e5 3e 3c
       0.012557023 -0.008564085 0.038610227 0.011651482
0001d0 e7 c6 a6 bc 37 4b 81 bc 86 a8 99 3c 70 a5 d0 bc
       -0.020358516 -0.015782936 0.018757116 -0.025469512
0001e0 86 d3 a4 3b 25 93 6a 3b 47 c4 1b 3d a1 bc 87 bc
       0.0050300984 0.0035793271 0.03802898 -0.016569437
0001f0 00 ea be bc 84 ac 4a 3c 3b 37 76 3c 9b d8 e5 3c
       -0.02330494 0.0123702325 0.015027816 0.028057387
000200 db 46 aa 3b 5b f1 cd 3c 09 f1 fa 3c 98 05 1d 3c
       0.005196435 0.025139501 0.030632513 0.009583853
000210 10 80 07 3c 06 40 b3 3c 4b 91 48 bc b4 38 dd bc
       0.008270279 0.021881115 -0.012241672 -0.027004577
000220 58 6e 49 3a 35 47 0c 3d 0c 02 bd bc 91 97 a6 bc
       0.0007683984 0.034247596 -0.023072265 -0.020335944
000230 47 22 ee bc ac a8 19 3d 12 3b 2b 3c 47 2c e2 bc
       -0.02906908 0.037514374 0.010451095 -0.027609004
000240 67 e4 0d 3d ee 2a 0f 3d 2b b3 00 bc 95 26 20 3c
       0.03464165 0.03495305 -0.007855217 0.009774824
000250 f3 d0 bf 3c ee 41 51 bb 9d 07 38 bc f8 d7 e3 bc
       0.023415064 -0.0031930166 -0.011232284 -0.027812943
000260 61 cc ad 3c 03 47 08 3d df df c8 3c 5c d0 c3 3b
       0.02121562 0.033270847 0.024520813 0.005975766
000270 a5 94 b3 bc 89 c0 82 3c ca ab d6 3c 0b 84 72 bc
       -0.021921465 0.015960949 0.026204962 -0.014801989
000280 44 3c 6e 3c 06 46 7f b9 35 e8 21 3d 59 eb b4 bb
       0.014540736 -0.00024344781 0.03952809 -0.0055212197
000290 2e ac eb bb ba 74 07 3c d1 17 c6 3c f8 8f 6f 3c
       -0.0071921563 0.008267576 0.024181278 0.014621727
0002a0 60 aa d6 bc ad 98 0a 3c 69 5a f4 bc e4 87 8d bc
       -0.026204288 0.008459252 -0.029828267 -0.017276712
0002b0 9d b9 7f 3c 3f 75 e7 bb 45 e0 b1 bc f1 f5 13 bd
       0.0156082185 -0.0070635374 -0.021713385 -0.03612322
0002c0 19 c2 ed 3c 5f 70 35 3c 92 3b 3c 3c 4a 0a f6 bc
       0.029023217 0.011074155 0.011488812 -0.030034203
0002d0 da 06 a4 3c cd c0 a5 3c ff ce 42 3a d8 6c b7 3c
       0.020022798 0.020233536 0.00074313575 0.022390768
0002e0 4e a1 93 3b 80 41 08 bd e1 93 a7 bc f1 b6 76 3c
       0.004505313 -0.03326559 -0.020456256 0.015058265
0002f0 f6 21 de bc 5f 11 46 bc 71 70 2d 3c ac c8 b4 3c
       -0.027115803 -0.0120891025 0.01058589 0.022068344
000300 20 5b 8b bc af 01 cf 3b 61 4d e3 bb 92 7d e8 bb
       -0.017011225 0.0063173394 -0.0069367145 -0.0070950473
000310 f9 b8 1f bd 12 48 12 3d b8 99 26 3c 94 62 79 bc
       -0.038994763 0.035713263 0.010168485 -0.015221257
000320 ef 6a d3 bc 49 6b 35 3c d9 eb 45 3c b9 d3 70 3c
       -0.025807826 0.011072942 0.012080156 0.014698916
000330 19 16 0e bc b8 7d 3d 3b 78 c5 86 bc ac 77 6a 3c
       -0.008672261 0.0028914046 -0.016451582 0.014310759
000340 95 67 3e 3c 62 0b 87 bc 79 57 02 3d ee e1 74 bc
       0.011621376 -0.01648492 0.0318217 -0.014946444
000350 42 11 d5 bc de 92 d3 3c e7 45 32 3b a4 76 08 bb
       -0.026009206 0.025826868 0.002720231 -0.0020822668
000360 8e 7c dd 3c 59 1b 78 3c 3e 1c c3 3c 90 ac 30 bc
       0.027036931 0.015143239 0.023817178 -0.01078333
000370 fb e7 b4 3c d1 b4 29 bc 17 82 0b 3c c9 b6 ca bc
       0.022083273 -0.010358051 0.008514903 -0.024745362
000380 cb 18 f4 3c 71 2d 9f 3a ec 8d f2 bc 1d 8a 20 bc
       0.029796978 0.001214428 -0.02960869 -0.009798554
000390 0d 03 69 bc e0 e0 17 3d 87 46 cb bc 6c 3a ba bc
       -0.014221919 0.037079692 -0.024813903 -0.022732936
0003a0 7d 5e e8 3c 06 52 95 bc 60 93 6a bb ad 62 f4 3c
       0.028365368 -0.018227588 -0.0035793409 0.029832209
0003b0 c2 52 b0 3b 72 40 66 3c c2 20 2c 3c 9c d0 1e bb
       0.0053809593 0.014053451 0.010505857 -0.0024233228
0003c0 5e bb 31 bc b0 34 61 bc 5e 10 e3 bc 0b 61 c7 bc
       -0.0108478945 -0.013745472 -0.027717765 -0.024338266
0003d0 cb b5 0f bc a6 98 d6 3c 12 c0 a1 3c 37 3e dd 3c
       -0.00877137 0.026195835 0.019744907 0.027007205
0003e0 d8 0f 40 bb 6d 56 00 3d ab 91 08 ba 18 9b 37 bb
       -0.0029306319 0.031332422 -0.00052096945 -0.0028016027
0003f0 4c 8e 68 3c 44 16 84 bb c3 0e 02 3b bf bc d8 3c
       0.0141940825 -0.0040309746 0.0019845224 0.026457189

bias f4 [64]
000000 c5 da 7c 3a 8c 74 63 3b 83 8f 26 3d 04 3e c7 bc
       0.00096456363 0.0034706919 0.040664207 -0.024321564
000010 4e 17 c7 bc cb 56 7e bc 23 99 80 bc 1c 65 22 bc
       -0.024303105 -0.015523623 -0.015698021 -0.009911802
000020 39 29 bc 3c d4 c9 b3 bc f5 81 cf 3c d7 18 e2 3c
       0.022968875 -0.021946825 0.025330523 0.027599735
000030 2a 3d ab 3c 50 a9 d0 bc 52 99 66 bc 1e 2c 1c bd
       0.020903189 -0.02547136 -0.01407464 -0.03812801
000040 78 cc 8b 3b d1 d9 d3 3c 6e 8d 01 3d b7 ae e9 bc
       0.004266318 0.025860699 0.03162902 -0.028525693
000050 ff 2c f9 bb 1e 58 45 3d 4a b0 31 bc 46 f4 19 3d
       -0.007604241 0.04817974 -0.010845253 0.037586473
000060 94 41 4b bd 93 30 49 3d 6b ed ae 3b 45 0d 3f bc
       -0.049623087 0.04911859 0.005338361 -0.011660879
000070 f8 48 93 bc 40 47 00 3d 43 06 0f 3d b2 94 b6 3b
       -0.01797913 0.03131795 0.03491808 0.005571925
000080 92 d5 9c 3c 15 11 94 bc e4 16 eb bc 8c cf 2b 3b
       0.019144807 -0.018074552 -0.028697439 0.0026216237
000090 25 23 be bc eb de 6d 3b d7 97 bd bc 9b 32 ae 3c
       -0.023210118 0.00362962 -0.023143692 0.021264365
0000a0 63 ed 26 ba c0 a5 1c bb d4 10 65 bc 70 ae 90 3c
       -0.0006367771 -0.0023902506 -0.013981063 0.017661303
0000b0 6c 72 ce b9 2d 17 78 bd 14 85 19 bd 3b 3e e8 bc
       -0.00039376633 -0.060568977 -0.03748043 -0.028349986
0000c0 a3 b7 0a 3d fa dd b1 3c ff f5 72 bc 77 0b 48 bc
       0.033866536 0.021712292 -0.014829158 -0.012209765
0000d0 54 1a b3 3a cb 0b 4a bd b7 a7 66 bc e8 5b 8c bc
       0.0013664463 -0.049327653 -0.014078072 -0.017133668
0000e0 bb bc e7 3b 2d 71 61 3d e8 6c 04 3c ea 55 9e 3b
       0.007072059 0.055039573 0.008082606 0.004832019
0000f0 60 28 25 bd 27 14 0e 3c 53 7e c8 bc 9c e3 03 bb
       -0.040321708 0.008671797 -0.024474299 -0.002012468

weight f4 [10, 64]
000000 43 1a 1e 3b d8 56 0e 3d 20 15 b7 bd ec 3f b0 bc
       0.002412454 0.03475079 -0.08939576 -0.021514855
000010 50 bd 7f 3d 37 92 9f 3c 0b af ae 3d e4 6a 24 3e
       0.0624364 0.0194789 0.085294805 0.160564
000020 2d ce a7 bc 19 23 a4 3c 15 77 31 3c 3e f4 df 3c
       -0.020484054 0.020036267 0.010831614 0.027338143
000030 a3 d4 95 3d bf de 32 3e c2 2f 08 3e 8d ec a8 3d
       0.07315948 0.17467783 0.13299468 0.082482435
000040 3a b8 01 be 3c 1e 07 be fc 2c 9f bd a8 01 50 3d
       -0.12667933 -0.13195127 -0.07772252 0.05078283
000050 46 ea 9d 3a 3b 31 1f be 09 89 68 3d 88 5a a1 bb
       0.0012047968 -0.15546124 0.056771312 -0.0049241222
000060 47 08 63 3d b0 e0 f1 bd 8e b2 20 bc b8 a5 7e 3b
       0.055427816 -0.11810434 -0.009808196 0.00388561
000070 fc 88 8f bd dc 49 1a bd 19 39 bc bd 1b 32 22 bd
       -0.070085496 -0.037668094 -0.09190578 -0.039598566
000080 97 56 21 bd 6b 56 38 be d0 c1 08 bd 83 94 63 bd
       -0.03938922 -0.18001716 -0.03338796 -0.055561554
000090 2d 83 1b 3e aa 3d 11 be 4b fa da 3c 39 e9 8e bd
       0.15186758 -0.14183679 0.026730677 -0.069780774
0000a0 c8 6e 95 bd d6 6e 08 3d da e3 89 3d 08 90 85 3d
       -0.072965205 0.033308826 0.06732912 0.065216124
0000b0 b0 23 70 3d 77 46 c5 3d 3c d4 c3 3d 5a 72 82 3d
       0.058627784 0.09632581 0.09561965 0.06369467
0000c0 47 3a c5 bd 9b bf df 3d 19 36 22 3e 1d 5e b2 3d
       -0.09630256 0.10925218 0.15840949 0.08709357
0000d0 0c 03 f1 3c 7d 5f d3 3d 82 6a 6e 3d 84 b2 2f bd
       0.029420398 0.10320947 0.058207043 -0.042894855
0000e0 b5 08 12 3e 7b 30 07 be 9d ff 0d be 52 98 c8 3d
       0.14261134 -0.13202088 -0.1386704 0.09794678
0000f0 fa 5b ab bd 06 7d 9d bd 69 63 0a 3e 44 8b 80 3d
       -0.083671525 -0.07689862 0.13514484 0.06276563
000100 84 39 01 3e 0c 96 6f be 18 4d e8 bd fb 77 5d bd
       0.12619597 -0.23397082 -0.113428295 -0.0540695
000110 b9 51 1e 3e 23 17 de bd 7a 8a 16 be 0a e7 8a bd
       0.15460862 -0.10844257 -0.14701262 -0.067823485
000120 22 f7 5a bd 03 19 a5 bd 73 0f 75 be 92 3b bb bd
       -0.05345834 -0.08061411 -0.23931675 -0.091422215
000130 65 c5 30 bc 7b e6 50 3e 7e 79 76 3e ba 54 c9 3d
       -0.01078925 0.20400421 0.24069783 0.098306134
000140 37 22 53 bd 7d 8f 05 be ee 75 bc bc 5c 81 ca 3d
       -0.0515463 -0.13043018 -0.023005452 0.098879546
000150 41 01 e3 bd d8 4c 91 3d 66 bc ed bd c0 92 ec 3d
       -0.110842235 0.07094735 -0.116082 0.11551428
000160 cd f5 50 3c d2 f9 0c 3e e2 14 24 3d 9a 87 22 be
       0.012753916 0.13767174 0.040058978 -0.1587204
000170 ea 87 29 be 68 5c 08 bc d5 9a 99 bd be 01 23 bb
       -0.16555753 -0.008322813 -0.07500235 -0.0024872865
000180 3a 96 f4 bd 32 32 d9 3b 1b 98 6c bd 15 e0 36 be
       -0.11942716 0.006628298 -0.057762247 -0.17858918
000190 64 77 dc bd 4e 85 7d 3b 3c 65 d7 bd 9e 24 d1 3d
       -0.107649595 0.0038684192 -0.10517356 0.10212062
0001a0 42 5f 07 3e 2a 92 ab bd 8f 80 12 be e4 1c 0d be
       0.13219932 -0.08377488 -0.14306854 -0.13780552
0001b0 7e e7 6b 3c 8f 81 2e be 09 c4 da 3c f7 2d ea 3c
       0.014398454 -0.1704161 0.026704805 0.02858637
0001c0 55 15 bb 3d 03 9e f8 3c 09 05 c3 3d f8 1e 80 bc
       0.09134928 0.030348783 0.09522445 -0.015639767
0001d0 06 aa be bd f1 3e cd 3d ce a2 c3 bd 8e d1 f4 3c
       -0.09309773 0.10021771 -0.09552537 0.02988508
0001e0 7d d3 f5 3d 17 13 63 bc 4b c8 e3 bd fb 38 1a 3e
       0.12003229 -0.013859532 -0.11122187 0.15060799
0001f0 6e d6 d7 3c cf 76 f1 3d 16 25 fe bd 6c 3b 4b be
       0.026347365 0.11790239 -0.12409417 -0.19846886
000200 68 7c da 3d 9b 17 08 3e 13 3e 05 be 64 1f 03 3e
       0.1066826 0.13290255 -0.1301196 0.12804943
000210 0c 02 6e bd 30 b3 67 38 26 d7 ca 3d 4e d4 f5 bd
       -0.05810742 5.5241573e-05 0.099043176 -0.120033845
000220 30 c4 8e 3d cd ca ba bd 7e 25 ae 3d 47 4a 31 3d
       0.069710135 -0.091207124 0.08503245 0.043283727
000230 c6 0a 3b 3d 7a ae 15 3d 70 23 cb bd 98 68 28 3d
       0.04566457 0.036543347 -0.099188685 0.041115373
000240 39 7e 5e 3d 34 5c f9 3d 7d 82 7b 3d e2 a8 e9 bc
       0.054319594 0.121757895 0.06140374 -0.028522912
000250 e3 70 70 bd 80 72 15 be b1 40 a6 bd 8f fa 91 3d
       -0.058701407 -0.1459446 -0.08117808 0.071278684
000260 d2 e0 b4 bd 4f 70 86 3d 56 f1 dd bb 1a 69 7d bd
       -0.088319436 0.0656439 -0.0067731543 -0.06186781
000270 ee 21 46 3c e0 f9 45 3c c0 29 c6 3d 0e 89 38 bd
       0.01209305 0.012083501 0.09675932 -0.04505258
000280 ba 5f b0 bb 3f 7c 31 3e 24 44 7c bd 67 30 1d 3e
       -0.0053825052 0.17332552 -0.06158842 0.15350495
000290 10 9d 81 bd 93 d9 89 bd 37 3c f3 bd f5 b5 09 be
       -0.063287854 -0.06730952 -0.118767194 -0.13448317
0002a0 9a c8 12 be df 60 ee 3c 94 d8 7d bd 20 b6 7d bd
       -0.14334336 0.029098926 -0.061974123 -0.061941266
0002b0 29 5f 02 3e e3 76 38 3d b5 9e f3 bd 92 e8 0d 3c
       0.12731613 0.045035254 -0.11895505 0.008661406
0002c0 bf 14 8b 3d 7c 6c e5 3d 31 39 6d bd 53 5b 0c be
       0.067910664 0.112023324 -0.05791587 -0.13706712
0002d0 53 6e 1d 3e ee 02 f4 bd ab 2c 14 3e 5a 1c a3 bc
       0.15374117 -0.11914621 0.14470164 -0.01991098
0002e0 88 48 08 3e de b3 18 bc 7e 8e e0 3d 55 1b ae 3d
       0.13308918 -0.009320227 0.10964678 0.08501307
0002f0 c1 0d 36 be da bd a5 bd 27 81 16 3e 43 79 ed 3d
       -0.17778684 -0.08092852 0.14697705 0.115953945
000300 20 09 f7 3d ee 8f ed 3d 43 00 24 3d 7c 83 06 be
       0.12062287 0.11599718 0.040039312 -0.13136095
000310 8f 30 f4 bd 24 e2 31 bb 7e ed cb 3d 77 b8 1e bd
       -0.11923324 -0.0027142847 0.099574074 -0.038750138
000320 7f b8 3b 3d b2 a7 29 3c 44 08 e2 bd f3 b3 db 3c
       0.045830246 0.010354923 -0.11036733 0.026819205
000330 fd 92 79 bd 5c e4 48 be ae 8c 1e be 2e 9f 92 bd
       -0.060931195 -0.19618362 -0.15483353 -0.07159267
000340 e5 e6 b1 3d 85 fb f5 3b f8 d0 05 3e ba 56 a5 bd
       0.08686618 0.00750679 0.13067997 -0.080731824
000350 35 c9 06 3e 1a 9e 5b 3c db 7f c0 bd 75 3f 4e bd
       0.13162692 0.013404394 -0.093993865 -0.050353486
000360 49 79 6f bd ef cd 09 3e 38 46 4f 3c fa 7c 99 3d
       -0.058465276 0.13457464 0.012651019 0.074945405
000370 c4 04 72 bd 48 e3 db 3d 8d db c4 3d 43 2d 0b 3e
       -0.059086576 0.1073671 0.096121885 0.13591485
000380 38 8a c5 bc e0 8d 29 3e 99 5c c8 bd 16 39 8e bd
       -0.02411376 0.16558027 -0.097832866 -0.06944482
000390 b8 d6 e1 bd 8b bd cf 3c ee 59 a4 bd 9a 73 81 bc
       -0.110272825 0.025358936 -0.08024965 -0.015802193
0003a0 fb f8 35 3d 16 ce bf bd d5 e5 ac 3d 23 fc 11 3d
       0.0444269 -0.0936548 0.084422745 0.035640847
0003b0 9e c6 2b be be c2 24 bd 97 b6 88 3d 31 ef 63 3d
       -0.16774985 -0.040224783 0.06675451 0.055648033
0003c0 d2 aa 3e bd 9f fd a9 bc bd f4 9b bd 0f 77 df 3d
       -0.046549626 -0.020750819 -0.076150395 0.109113805
0003d0 07 2f 21 3e 82 83 bf bc ea 80 4d 3d 80 8c f5 bc
       0.15740596 -0.023378137 0.05017177 -0.029974222
0003e0 cd c7 f8 3c 68 4e 22 3d 64 50 91 3d ed 6c 0e be
       0.03036871 0.039625555 0.070954114 -0.1390874
0003f0 3b 2d eb bd ff 9e ec 3d d9 22 f2 ba 5e b3 a9 bd
       -0.114832364 0.115537636 -0.001847352 -0.08286165

bias f4 [10]
000000 ac 58 d3 bd 58 cb a2 3c 36 97 c1 3d 01 e8 a4 3d
       -0.10319647 0.019872352 0.09452669 0.08052064
000010 32 eb d5 3c a5 c5 d1 3c 67 63 db 3b 35 34 9d 3d
       0.026113126 0.02560694 0.0066951993 0.07675973
000020 7c c0 12 3d 87 84 98 3b
       0.0358281 0.0046544704
