tudui_4.pth (torch, 587399 bytes, 10 tensors)

weight f4 [32, 3, 5, 5]
0.026633251 0.019742183 -0.044860616 -0.10486275 0.0024052546 0.108287506 0.0048863427 0.05574944
0.12661882 -0.020513413 -0.0018204941 -0.019248124 -0.016294533 0.06003666 -0.05999619 -0.074489586
0.07448734 -0.04667935 -0.088656224 -0.10350281 -0.11948745 -0.0074875606 -0.16627622 -0.16252297
-0.021764107 0.0078096273 0.0685896 0.0050320905 -0.10108208 0.02588817 0.014193874 -0.06971542
0.11186778 0.119297594 0.104361005 -0.08335528 0.08195491 0.07809378 0.10540879 -0.007300992
-0.08081895 0.08021226 0.04015808 -0.052391455 3.9022474e-05 0.022441467 -0.098514356 -0.0014070701
-0.07551591 -0.057008248 -0.009805707 -0.061551332 -0.07787055 -0.005721629 0.10774545 0.13822448
0.13353764 0.09584888 0.081637084 0.047448374 0.028474571 0.034740232 -0.02388223 -0.004666099
-0.030421142 0.06737767 0.105827235 0.0611112 0.05250703 0.107323 -0.1291379 -0.13994755
-0.047153197 -0.015861116 0.037761793 -0.1318038 -0.09701216 -0.13002574 -0.13647436 -0.11776854
-0.11941045 -0.012858846 -0.02861836 -0.0473489 -0.04655963 0.041513644 0.08552833 -0.0060817017
-0.09108729 -0.07305445 -0.10487625 0.009172079 0.009512749 -0.01981911 0.03769609 -0.0037579634
-0.015402703 -0.034021463 0.10662152 0.09223564 -0.09575567 -0.010929112 -0.11958915 -0.16501194
-0.13893427 -0.09630436 -0.14526914 -0.15967542 -0.03926325 0.050453328 0.023480956 0.0320338
0.022499472 0.0523226 -0.035185125 0.065058924 -0.052498214 -0.0203092 0.04877137 0.12340964
0.12817413 0.038601037 0.102034114 -0.0408079 -0.024909046 -0.06688227 0.04513482 -0.020292236
0.005589 -0.10012273 0.102263644 -0.105419874 0.010502689 0.063834585 -0.04630557 0.095924914
0.16253063 -0.020338738 0.12922071 -0.040075008 0.07432931 -0.010993498 0.17144082 0.039616372
0.1646613 0.029000964 0.1672131 0.1795684 0.03957005 0.09590511 0.008737623 -0.022470381
-0.14450501 0.010216009 -0.056063186 0.014349858 -0.051465146 -0.023078073 0.021382006 0.07565364
-0.13492428 -0.052681446 0.06627182 -0.026462024 0.109093785 -0.060560446 -0.08991838 0.043564163
-0.026093874 -0.041832026 -0.0102620525 -0.094395496 -0.093663864 0.09243668 -0.046464026 -0.09972617
-0.10688053 0.024575045 -0.056510285 -0.050700657 -0.07857668 0.1051209 -0.005107746 0.06533687
0.12923586 0.010436758 0.02161341 -0.06735229 0.05855107 0.07568306 0.03259953 -0.055842333
0.09237403 -0.10738843 -0.066399775 0.08052935 0.09009502 0.101826675 0.07950682 0.09409984
-0.006671822 -0.09453682 -0.09686009 -0.037781868 0.04762256 0.053865224 -0.06672023 0.069800414
-0.027321998 -0.08002528 -0.091575846 -0.071070686 0.07214902 0.116079316 0.1443995 -0.08766366
0.09763458 0.11169684 -0.08026072 -0.087153226 -0.021174774 0.043069594 0.03618398 0.09651243
0.04029878 -0.11409015 0.021580152 -0.056086272 -0.056669418 0.08085458 -0.087470755 -0.00032880658
-0.13160866 0.012704107 -0.12711918 0.08107105 -0.038642157 -0.08357013 -0.1257976 -0.09774729
-0.10901908 -0.11591103 -0.14158191 0.074712574 0.06622483 -0.098410696 0.049881276 0.094044834
-0.035037234 -0.10341952 -0.04074413 -0.0723893 -0.09747814 0.06318941 -0.08653731 -0.06511099
00000000: fa2d da3c 5cba a13c c4bf 37bd 48c2 d6bd
00000010: 7aa1 1d3b d7c5 dd3d 9d1d a03b 8659 643d
00000020: 5da8 013e bf0b a8bc a59d eeba 3eae 9dbc
00000030: 1d7c 85bc 00e9 753d 91be 75bd ff8d 98bd
00000040: d28c 983d d932 3fbd 6591 b5bd 48f9 d3bd
00000050: d6b5 f4bd 365a f5bb 5044 2abe 6c6c 26be
00000060: a44a b2bc e7e7 ff3b b478 8c3d 3ce4 a43b
00000070: 1f04 cfbd 6d13 d43c 6c8d 683c f5c6 8ebd
00000080: ef1a e53d 4c52 f43d 39bb d53d 2cb6 aabd
00000090: fad7 a73d a2ef 9f3d 90e0 d73d 293d efbb
000000a0: 6884 a5bd 5346 a43d cd7c 243d 6c98 56bd
000000b0: 10ac 2338 2bd7 b73c e5c1 c9bd 706d b8ba
000000c0: 16a8 9abd 7b81 69bd 1ea8 20bc 401d 7cbd
000000d0: 987a 9fbd 817c bbbb a6a9 dc3d b88a 0d3e
000000e0: 17be 083e 6b4c c43d 5831 a73d 3a59 423d
000000f0: 8143 e93c c64b 0e3d aba4 c3bc 13e6 98bb
00000100: c235 f9bc 4efd 893d f3bb d83d bd4f 7a3d
00000110: 9d11 573d 29cc db3d ba3c 04be 694e 0fbe
00000120: b623 41bd 2cef 81bc 1cac 1a3d 93f7 06be
00000130: 50ae c6bd 7825 05be efbf 0bbe a230 f1bd
00000140: 778d f4bd e9ad 52bc 0d71 eabc ecf0 41bd
00000150: 50b5 3ebd 360a 2a3d 7a29 af3d 0349 c7bb
00000160: f98b babd 929d 95bd 5cc9 d6bd 7d46 163c
00000170: 5cdb 1b3c b05b a2bc 3767 1a3d 2a48 76bb
00000180: 9e5b 7cbc 175a 0bbd 625c da3d 0ae6 bc3d
00000190: 8c1b c4bd 0510 33bc 28eb f4bd e4f8 28be
000001a0: c944 0ebe 383b c5bd 6fc1 14be f481 23be
000001b0: 80d2 20bd 26a8 4e3d 225b c03c e035 033d
000001c0: d050 b83c 3950 563d 471e 10bd 9d3d 853d
000001d0: 5e08 57bd 7b5f a6bc 7dc4 473d 31be fc3d
000001e0: 1440 033e 1f1c 1e3d 43f7 d03d 2f26 27bd
000001f0: 0e0e ccbc 92f9 88bd 4adf 383d e73b a6bc
00000200: ee23 b73b 250d cdbd 9a6f d13d 60e6 d7bd
00000210: 7813 2c3c b5bb 823d e9aa 3dbd 4874 c43d
00000220: 6e6e 263e 6d9d a6bc 6f52 043e b125 24bd
00000230: f739 983d 131e 34bc 2f8e 2f3e c744 223d
00000240: f99c 283e 6e93 ed3c e939 2b3e c7e0 373e
00000250: 3414 223d e669 c43d 3f28 0f3c ce13 b8bc
00000260: 1ff9 13be 0c61 273c 83a2 65bd ab1b 6b3c
00000270: 1ecd 52bd 3a0e bdbc 5129 af3c 4cf0 9a3d
00000280: 9729 0abe 80c8 57bd 85b9 873d e3c6 d8bc
00000290: 906c df3d 3b0e 78bd 2127 b8bd 5670 323d
000002a0: d2c2 d5bc 0f58 2bbd 2b22 28bc 6d52 c1bd
000002b0: d7d2 bfbd 714f bd3d 1051 3ebd 3c3d ccbd
000002c0: 2ee4 dabd 9b51 c93c 5477 67bd 7eab 4fbd
000002d0: cfec a0bd a049 d73d e15e a7bb 56cf 853d
000002e0: 6856 043e f0fe 2a3c 9b0e b13c ffef 89bd
000002f0: 3fd3 6f3d b8ff 9a3d 1687 053d eeba 64bd
00000300: 982e bd3d 77ee dbbd 9bfc 87bd 92ec a43d
00000310: bd83 b83d 818a d03d 79d4 a23d 6bb7 c03d
00000320: 4d9f dabb 859c c1bd 955e c6bd 29c1 1abd
00000330: e00f 433d c8a1 5c3d 9ea4 88bd 85f3 8e3d
00000340: 62d2 dfbc 4be4 a3bd 1e8c bbbd 828d 91bd
00000350: dec2 933d feba ed3d 76dd 133e 0189 b3bd
00000360: a4f4 c73d 50c1 e43d bb5f a4bd 647d b2bd
00000370: b876 adbc be69 303d a735 143d 4fa8 c53d
00000380: 5510 253d 19a8 e9bd dcc8 b03c b8ba 65bd
00000390: 311e 68bd 1697 a53d de23 b3bd ac63 acb9
000003a0: 6cc4 06be e324 503c 882b 02be 9408 a63d
000003b0: 3d47 1ebd d126 abbd 16d1 00be bb2f c8bd
000003c0: 6545 dfbd c362 edbd d9fa 10be e802 993d
000003d0: e2a0 873d 8c8b c9bd 4f50 4c3d 949a c03d
000003e0: 3483 0fbd 9dcd d3bd 51e3 26bd d740 94bd
000003f0: 9ea2 c7bd 7369 813d 793a b1bd e958 85bd

bias f4 [32]
0.0484562 -0.049445935 -0.09811798 0.050397083 0.13642989 -0.024389805 -0.023333864 0.07941243
-0.113892056 0.1762607 0.077986725 -0.116035864 0.099354774 -0.07663207 0.21341465 0.1427507
-0.16508852 -0.0006918554 0.15170935 -0.0069801197 0.009832393 -0.24837059 -0.097607985 -0.025096547
-0.21087259 0.11022482 0.0806434 -0.22087409 -0.16718207 -0.0925789 -0.18622041 0.11584055
00000000: 027a 463d d287 4abd 14f2 c8bd 2c6d 4e3d
00000010: 47b4 0b3e 21cd c7bc a926 bfbc fca2 a23d
00000020: 3d40 e9bd af7d 343e 81b7 9f3d 36a4 edbd
00000030: 847a cb3d 46f1 9cbd 5f89 5a3e 3d2d 123e
00000040: f70c 29be a15d 35ba b259 1b3e 7db9 e4bb
00000050: 0c18 213c dc54 7ebe b2e6 c7bd 4697 cdbc
00000060: fcee 57be 8dbd e13d 5e28 a53d d12c 62be
00000070: c731 2bbe 029a bdbd 90b0 3ebe cf3d ed3d

weight f4 [32, 32, 5, 5]
0.021098267 0.02726588 -0.0036792953 0.023889907 -0.03260698 -0.022950828 0.03562053 -0.018123984
0.022619644 0.03174265 0.01191803 0.024790145 -0.02954405 -0.03428588 -0.031137936 -0.035990126
0.031859875 0.0148251485 0.022498207 -0.008177549 0.001968443 0.0246932 -0.017210115 0.03454364
0.028876023 0.015240842 -0.009471374 -0.017650265 0.035598207 -0.021206573 -0.012564819 -0.0013776744
0.041873943 0.015335702 0.037772812 -0.010563128 -0.020869082 -0.0021788136 0.029111523 -0.0124155525
-0.02412448 0.021315856 0.028077262 0.03304717 -0.0034814016 0.009731359 0.012255677 0.018662238
-0.038643453 -0.028713645 -0.009974608 0.021214752 0.01413028 -0.005587511 -0.018346738 0.037223067
0.031583644 0.010997651 -0.017817773 -0.014069121 0.030432537 -0.01921962 -0.019697275 0.026057485
0.0033725286 -0.02970755 -0.030440897 -0.014351028 0.01436992 0.004916029 0.01751283 0.024993753
0.024487607 0.010520291 -0.031403914 -0.016691923 -0.01332513 0.0016445538 -0.026667401 0.014552006
-0.0051220017 -0.0049342327 0.009326235 0.015603153 -0.01595773 0.022557378 0.008880319 0.03372071
0.038631473 -0.025693975 -0.019528046 0.010606408 0.027017646 0.004234032 0.0035713913 -0.026473448
0.02337721 -0.033521328 -0.0249957 0.018113548 0.014143978 0.017968485 -0.013862779 -0.022055713
0.023052208 -0.024426432 0.008696355 -0.02860601 0.019866752 -0.021640155 0.01373737 -0.002418655
0.013104458 -0.0355113 -0.0043635457 0.027438996 0.02338247 0.030185701 -0.008792028 0.0019443897
0.013274042 0.0013868604 0.0034439377 0.0006648283 0.0098197805 -0.02776894 0.0050610392 0.003976732
-0.01954143 0.029520512 -0.0054279855 0.011132509 0.009362559 -0.0039677713 0.016844053 -0.032022104
0.0017351169 0.024657516 0.009166007 0.023246372 -0.0040514804 -0.015816873 0.03091935 -0.004890811
0.01735624 -0.02604079 -0.008515329 0.0063710413 0.02986888 0.040098168 -0.0055524386 -0.019297244
0.007709818 0.016024794 -0.012055161 0.015580594 0.008499403 0.015948875 -0.007550341 -0.019124659
0.026472198 0.03194679 0.01071037 0.029422866 0.022718899 -0.015801923 0.01019851 -0.025398454
0.003456656 -0.016951788 0.008919256 -0.0014719664 -0.009776235 0.013285364 -0.024455052 0.030674929
0.008824317 0.010324399 0.011940913 -0.038100302 -0.013165867 0.009945188 0.03042862 0.017389817
-0.039934132 0.019164301 0.028251132 -0.004736503 0.034289446 -0.017466545 0.026765175 -0.003495618
0.017163465 0.038254276 -0.02962954 -0.003953049 0.019299295 0.028745513 -0.014152262 -0.021698758
0.022376793 -0.0262865 -0.02981979 -0.023313453 -0.009330342 -0.024736289 0.027898664 -0.027700515
-0.006647237 0.022637293 -0.011174186 0.0114686685 0.0148955835 0.012988621 0.007691834 -0.024636328
-0.03130841 -0.016310267 0.034277976 0.02674716 -0.004285038 0.012802805 -0.025834924 0.007594033
-0.0103225885 -0.024025189 0.027490487 0.03028177 0.010481672 0.020879248 0.008272133 0.029211456
-0.032589667 -0.018137362 0.0137515515 0.0113921715 -0.010396706 0.01873909 -0.031817324 -0.0006203275
-0.027487619 -0.024301674 -0.016193023 0.017370226 -0.032252558 -0.0095591955 0.02851911 0.02214838
-0.0062019425 0.010585783 -0.0014000353 0.021084847 0.020562949 -0.010669055 -0.02114743 -0.0133025935
00000000: 46d6 ac3c b25c df3c 5520 71bb c4b4 c33c
00000010: e68e 05bd 6003 bcbc d5e6 113d c078 94bc
00000020: d54c b93c 9504 023d d743 433c b414 cb3c
00000030: 5d06 f2bc 5a6f 0cbd fc14 ffbc 626a 13bd
00000040: 807f 023d 2ee5 723c 294e b83c 20fb 05bc
00000050: fe00 013b 6549 ca3c 3afc 8cbc a27d 0d3d
00000060: 698d ec3c b9b4 793c d22d 1bbc 4a97 90bc
00000070: 6dcf 113d 68b9 adbc acdc 4dbc 1593 b4ba
00000080: 0384 2b3d 9942 7b3c aab7 1a3d f810 2dbc
00000090: a3f5 aabc 6dca 0ebb 4a7b ee3c 9a6a 4bbc
000000a0: b4a0 c5bc 979e ae3c 4902 e63c 785c 073d
000000b0: 3a28 64bb 4770 1f3c 09cc 483c 8de1 983c
000000c0: 9948 1ebd e138 ebbc 8a6c 23bc 8fca ad3c
000000d0: b182 673c 7117 b7bb e64b 96bc 3777 183d
000000e0: da5d 013d 7e2f 343c 94f6 91bc 2c82 66bc
000000f0: a84d f93c 7772 9dbc 2e5c a1bc 8276 d53c
00000100: a405 5d3b 3f5d f3bc 305f f9bc 9320 6bbc
00000110: d06f 6b3c a416 a13b 1177 8f3c b3bf cc3c
00000120: 3c9a c83c 4c5d 2c3c 64a1 00bd 80bd 88bc
00000130: a551 5abc 128e d73a 9875 dabc 896b 6e3c
00000140: 77d6 a7bb 58af a1bb 11cd 183c 5ea4 7f3c
00000150: c9b9 82bc 40ca b83c c27e 113c ba1e 0a3d
00000160: 093c 1e3d 2c7c d2bc 48f9 9fbc 80c6 2d3c
00000170: 1c54 dd3c a2bd 8a3b 010e 6a3b d8de d8bc
00000180: 9081 bf3c a94d 09bd c8c3 ccbc dd62 943c
00000190: 25bc 673c a532 933c b620 63bc 2fae b4bc
000001a0: fcd7 bc3c f119 c8bc 287b 0e3c 2757 eabc
000001b0: 99bf a23c b246 b1bc b512 613c 4c82 1ebb
000001c0: 15b4 563c 4c74 11bd 13fc 8ebb bfc7 e03c
000001d0: 988c bf3c 0148 f73c 700c 10bc e4da fe3a
000001e0: 5e7b 593c 50c7 b53a b0b3 613b df47 2e3a
000001f0: 25e3 203c b07b e3bc 13d7 a53b 3f4f 823b
00000200: 5915 a0bc 00d5 f13c 3edd b1bb 2165 363c
00000210: 6b65 193c 1404 82bb 8afc 893c 9c29 03bd
00000220: dd6c e33a 8ffe c93c 052d 163c 2d6f be3c
00000230: 48c2 84bb 6392 81bc 944a fd3c 1943 a0bb
00000240: ac2e 8e3c 7f53 d5bc e183 0bbc 2bc4 d03b
00000250: 95af f43c fa3d 243d 3bf1 b5bb 4115 9ebc
00000260: a4a2 fc3b 6e46 833c 0383 45bc bf45 7f3c
00000270: 1441 0b3c 37a7 823c da68 f7bb 51ab 9cbc
00000280: 39dc d83c a3da 023d 8c7a 2f3c 3908 f13c
00000290: fc1c ba3c 0973 81bc a717 273c 6b10 d0bc
000002a0: 1089 623b 7ade 8abc 1222 123c ffee c0ba
000002b0: 802c 20bc dbaa 593c f655 c8bc fd49 fb3c
000002c0: de93 103c ab27 293c d2a3 433c 100f 1cbd
000002d0: a6b5 57bc 24f1 223c 7145 f93c 1775 8e3c
000002e0: f991 23bd 74fe 9c3c eb6e e73c ab34 9bbb
000002f0: 1773 0c3d 0016 8fbc a442 db3c bd16 65bb
00000300: 659a 8c3c 84b0 1c3d a6b9 f2bc 9488 81bb
00000310: 8e19 9e3c b67b eb3c e4de 67bc 98c1 b1bc
00000320: 894f b73c c956 d7bc a248 f4bc dbfb bebc
00000330: 4ade 18bc c2a3 cabc bd8b e43c 31ec e2bc
00000340: 11d1 d9bb d871 b93c ef13 37bc 15e7 3b3c
00000350: 9b0c 743c 3ace 543c c80b fc3b 20d2 c9bc
00000360: 3f3d 00bd 1c9d 85bc 1067 0c3d dc1c db3c
00000370: 8169 8cbb dbc2 513c c3a3 d3bc 5ed7 f83b
00000380: 1320 29bc 79d0 c4bc bb33 e13c 7911 f83c
00000390: 52bb 2b3c f50a ab3c d787 073c dd4c ef3c
000003a0: be7c 05bd ce94 94bc 304e 613c 3ba6 3a3c
000003b0: f256 2abc b882 993c e252 02bd 799d 22ba
000003c0: b72d e1bc 4e14 c7bc 3ba7 84bc 014c 8e3c
000003d0: 421b 04bd 2c9e 1cbc e9a0 e93c 8570 b53c
000003e0: aa39 cbbb fe6f 2d3c 6481 b7ba 21ba ac3c
000003f0: a173 a83c 43cd 2ebc 603d adbc 1ff3 59bc

bias f4 [32]
-0.022371354 0.0012381332 -0.05439737 0.041881528 0.056815814 -0.04893842 -0.056102436 0.012266508
-0.00054887275 -0.061375663 -0.038008764 -0.07254441 -0.04064633 -0.012981544 0.044615645 0.00053982844
-0.025699861 -0.076246195 0.008677652 0.032276038 -0.05335657 -0.005730577 -0.060818665 -0.021964476
-0.023407646 -0.038993888 0.026266927 0.054581504 -0.011596829 -0.07444964 0.009284679 -0.03758756
00000000: 2144 b7bc db48 a23a c7cf 5ebd f78b 2b3d
00000010: b3b7 683d a773 48bd abcb 65bd 77f9 483c
00000020: 3ae2 0fba 0c65 7bbd 14af 1bbd 2a92 94bd
00000030: c47c 26bd 8bb0 54bc e5be 363d 4683 0d3a
00000040: 8488 d2bc f726 9cbd b62c 0e3c e133 043d
00000050: 6b8c 5abd 90c7 bbbb fe1c 79bd d8ee b3bc
00000060: 64c1 bfbc 0eb8 1fbd bd2d d73c db90 5f3d
00000070: a000 3ebc 0e79 98bd c41e 183c 6af5 19bd

weight f4 [64, 32, 5, 5]
0.03210412 -0.006105959 0.014034847 -0.025821077 -0.0107189985 -0.022779314 0.0017699914 -0.02615782
-0.026303537 0.014877744 -0.032006156 -0.006280723 0.021999875 0.012516746 -0.01672506 -0.010149301
-0.020088462 0.0055574733 -0.0038513206 -0.010445337 0.0062015303 0.004387396 -0.003721045 0.021130202
-0.039598253 0.0061231856 -0.034944642 -0.024471967 0.011729717 0.026899805 0.022181287 -0.016033573
-0.038187746 0.0034950299 0.024806088 0.02994373 -0.00765156 -0.016473237 0.019406142 -0.034095783
0.023575688 0.025681496 -0.016184023 -0.03885179 0.022645934 -0.030072127 0.013471312 -0.008860834
-0.013952033 0.019457726 0.028943585 -0.0034183403 0.032627605 -0.016506065 -0.018386535 0.035647426
-0.011808279 0.017634 -8.960563e-05 0.0120059345 0.014520673 -0.03216675 -0.029654242 0.0040817508
-0.020963578 -0.0047367364 0.017506182 0.00860065 -0.028810127 -0.010224841 0.022089764 0.011542077
-0.034206282 -0.0063039726 0.023501022 -0.02820044 -0.014460812 -0.03022109 -0.021536222 -0.011682672
0.024243606 0.014268625 0.024848463 -0.012097772 0.02101484 -0.024392875 0.04108106 0.040079832
-0.013309929 -0.038035356 -0.013356592 0.016219346 -0.0034638373 -0.015552559 0.010947624 -0.02671982
-0.031969327 -0.009868433 -0.015578287 0.007186569 -0.02552334 0.027430447 0.002820312 0.009724513
0.022559796 0.003976687 0.034926813 0.005524696 -0.014637369 -0.01035353 0.026221327 0.015787281
0.013439254 -0.025343083 -0.03656094 0.011287811 0.028601378 0.007829429 0.03503641 -0.03329194
0.023037326 -0.012411062 0.036409717 0.0018552549 -0.008958262 -0.031857688 -0.009918443 0.006751241
-0.014847701 -0.030465633 -0.020255746 -0.011198555 -0.008397914 0.022441108 0.012005394 -0.0012172937
-0.0038445021 0.014443677 0.04284026 0.030586194 -0.01321969 0.017786143 0.03046118 -0.016036075
-0.022136448 0.024618464 0.0025767763 0.017848298 0.02847974 -0.007937467 -0.011748583 -0.0049933163
-0.038398348 0.017514367 -0.036609884 -0.019843841 0.0070177694 -0.017985325 -0.005128941 -0.0021626342
0.015423474 -0.009361135 0.029937534 0.031031866 0.018972475 -0.029410446 0.0014095159 -0.0034041402
0.0024394812 -0.009046345 -0.023822531 -0.017941134 0.004379341 -0.014917135 0.010493344 -0.033985745
0.025381794 -0.010010361 0.02213473 -0.021474393 0.013378141 0.011902274 -0.03441208 0.025995472
-0.021444265 -0.0074677616 0.011801071 0.010169981 0.0061038295 -0.010100674 -0.013282553 -0.014010925
-0.029366348 -0.025445102 -0.03371519 -0.005201874 -0.03999056 -0.035750818 -0.043842264 -0.0019209591
0.023359071 0.002656713 0.0050716344 -0.035514425 -0.04603027 0.014946918 0.017768858 -0.03232718
-0.02732898 8.854014e-05 0.005693215 0.023086723 -0.018505165 -0.027692724 -0.016321938 -0.026392752
-0.027082387 0.008894488 -0.053875275 -0.0267895 0.0039688773 -0.0062331185 -0.034436163 -0.05792038
-0.05452415 0.016779358 0.03118727 -0.010310083 0.01215429 -0.0006147541 0.004583954 -0.037107863
-0.022423312 0.012852515 -0.019954527 0.0053392174 0.0019799985 -0.009919783 0.03741585 -0.012696245
-0.028982712 0.0017153226 -0.00573088 0.035708852 0.025252236 -0.012705124 -0.020624727 -0.019989857
-0.0054388586 0.04249225 -0.0055112075 -0.02540353 -0.023613736 -0.04564033 -0.020469533 -0.018671049
00000000: 9c7f 033d 7f14 c8bb 6af2 653c b986 d3bc
00000010: bd9e 2fbc af9b babc 0eff e73a ed48 d6bc
00000020: 847a d7bc c8c1 733c e318 03bd 86ce cdbb
00000030: 1539 b43c 0a13 4d3c fe02 89bc 4149 26bc
00000040: 8f90 a4bc 771b b63b 7066 7cbb eb22 2bbc
00000050: 3536 cb3b 25c4 8f3b c7dc 73bb 3f19 ad3c
00000060: c731 22bd 01a5 c83b 1d22 0fbd 6f79 c8bc
00000070: 002e 403c fb5c dc3c 88b5 b53c d758 83bc
00000080: c16a 1cbd df0c 653b 2336 cb3c 8e4c f53c
00000090: f0b9 fabb e2f2 86bc a1f9 9e3c 05a8 0bbd
000000a0: cd21 c13c 0062 d23c 5b94 84bc 0e23 1fbd
000000b0: f783 b93c d259 f6bc c7b6 5c3c 082d 11bc
000000c0: 1197 64bc cf65 9f3c 191b ed3c 3c06 60bb
000000d0: 86a4 053d ba37 87bc 5c9f 96bc 0903 123d
000000e0: 8377 41bc 2e75 903c a8ea bbb8 8ab4 443c
000000f0: 1ee8 6d3c 48c1 03bd 74ed f2bc 35c0 853b
00000100: cfbb abbc a036 9bbb 2069 8f3c bee9 0c3c
00000110: 3703 ecbc 1786 27bc 98f5 b43c fb1a 3d3c
00000120: e31b 0cbd 8e91 cebb 3785 c03c 9c04 e7bc
00000130: 0bed 6cbc 3892 f7bc bb6c b0bc ae68 3fbc
00000140: 879a c63c f3c6 693c 018f cb3c bc35 46bc
00000150: 5027 ac3c 91d3 c7bc 9d44 283d c02a 243d
00000160: e311 5abc f6ca 1bbd 9bd5 5abc 6fde 843c
00000170: 8c01 63bb 29d0 7ebc aa5d 333c 86e3 dabc
00000180: 45f2 02bd 35af 21bc 123c 7fbc 4f7d eb3b
00000190: 5316 d1bc d1b5 e03c fcd4 383b 9053 1f3c
000001a0: 52cf b83c de4e 823b 6b0f 0f3d 8208 b53b
000001b0: 93d1 6fbc daa1 29bc 1cce d63c 5454 813c
000001c0: 5130 5c3c 4c9c cfbc edc0 15bd 83f0 383c
000001d0: 704d ea3c 0147 003c 5782 0f3d 215d 08bd
000001e0: c6b8 bc3c c457 4bbc 5b22 153d 062c f33a
000001f0: adc5 12bc 357d 02bd f780 22bc 8439 dd3b
00000200: c643 73bc 1093 f9bc 61ef a5bc 257a 37bc
00000210: 6797 09bc 6ad6 b73c 46b2 443c 998d 9fba
00000220: 0bf4 7bbb 2ca5 6c3c 4579 2f3d e68f fa3c
00000230: 6697 58bc 3fb4 913c b989 f93c 165e 83bc
00000240: 7f57 b5bc a9ac c93c 22df 283b 9836 923c
00000250: 584e e93c 260c 02bc 217d 40bc f99e a3bb
00000260: 9647 1dbd 4a7a 8f3c 3ff4 15bd 8d8f a2bc
00000270: 51f5 e53b f655 93bc ad10 a8bb fbba 0dbb
00000280: bdb2 7c3c 725f 19bc 8f3f f53c 8a36 fe3c
00000290: 2a6c 9b3c 2dee f0bc 81bf b83a ff17 5fbb
000002a0: b4df 1f3b 1f37 14bc 7827 c3bc 49f9 92bc
000002b0: 9380 8f3b 0067 74bc 46ec 2b3c a334 0bbd
000002c0: 7bed cf3c 7f02 24bc e553 b53c 11eb afbc
000002d0: fe2f 5b3c c101 433c aef3 0cbd 75f4 d43c
000002e0: e2ab afbc 20b4 f4bb 4859 413c fe9f 263c
000002f0: a202 c83b 4c7d 25bc 119f 59bc 148e 65bc
00000300: b291 f0bc 3f72 d0bc f018 0abd 7b74 aabb
00000310: 24cd 23bd 736f 12bd f293 33bd b1c8 fbba
00000320: 865b bf3c 3f1c 2e3b f42f a63b 9377 11bd
00000330: 3d8a 3cbd ebe3 743c ff8f 913c 8169 04bd
00000340: 06e1 dfbc a0ae b938 268e ba3b 5e20 bd3c
00000350: 2598 97bc dadb e2bc 96b5 85bc 9d35 d8bc
00000360: e2db ddbc 30ba 113c 52ac 5cbd a775 dbbc
00000370: 5b0d 823b 303f ccbb ef0c 0dbd ec3d 6dbd
00000380: b754 5fbd dd74 893c 727c ff3c 9feb 28bc
00000390: ca22 473c 7327 21ba fe34 963b 6afe 17bd
000003a0: 18b1 b7bc 5b93 523c ad77 a3bc 9af4 ae3b
000003b0: ddc2 013b 9686 22bc 5d41 193d e903 50bc
000003c0: 276d edbc add4 e03a 1bca bbbb 7243 123d
000003d0: c7dd ce3c 2729 50bc 30f5 a8bc c5c1 a3bc
000003e0: 7438 b2bb 5b0c 2e3d 5c97 b4bb 101b d0bc
000003f0: 9871 c1bc 5bf1 3abd b9af a7bc 07f4 98bc

bias f4 [64]
-0.0024613054 0.0065365047 0.0080755595 0.022555634 -0.021418108 -0.028170142 -0.033270065 0.014500721
-0.022554304 -0.023752693 -0.008388623 -0.008203769 -0.02582101 -0.04801618 -0.027480353 -0.03481269
-0.044964574 -0.03686149 0.033086967 0.015620574 -0.03001099 0.044845622 -0.04634556 0.032894254
0.011403951 -0.06880092 -0.019989833 -0.07010783 0.016288735 -0.044032227 0.014078171 -0.03141925
0.015684519 -0.07989592 0.02724858 0.016540341 0.014275188 -0.034806877 0.011949094 -0.037540212
-0.029890334 -0.057821825 -0.004723273 -0.006526037 -0.032614984 -0.029998817 -0.029632699 0.033317607
-0.0033058652 -0.0035032989 0.009719356 -0.06368503 -0.044875246 0.023025109 0.015555227 -0.018938618
0.033401974 -0.041157864 0.010485893 -0.015178087 -0.06029249 -0.033155028 -0.048422024 -0.03945045
00000000: da4d 21bb 2d30 d63b 5a4f 043c 98c6 b83c
00000010: 0775 afbc 12c5 e6bc 3146 08bd 6f94 6d3c
00000020: cec3 b8bc 0295 c2bc 6f70 09bc 1a69 06bc
00000030: 9586 d3bc 9dac 44bd 7a1e e1bc c097 0ebd
00000040: c62c 38bd 13fc 16bd 3386 073d 70ed 7f3c
00000050: 9cd9 f5bc 0bb0 373d d8d4 3dbd 20bc 063d
00000060: a3d7 3a3c 7fe7 8cbd b8c1 a3bc b294 8fbd
00000070: f46f 853c 235b 34bd 21a8 663c 79b1 00bd
00000080: d27c 803c 79a0 a3bd 6a38 df3c 9c7f 873c
00000090: 7ae2 693c a891 0ebd 22c6 433c c4c3 19bd
000000a0: 93dc f4bc 94d6 6cbd b0c5 9abb 5ed8 d5bb
000000b0: 4a97 05bd 14c0 f5bc 46c0 f2bc 0b78 083d
000000c0: 37a7 58bb 9a97 65bb ef3d 1f3c 4c6d 82bd
000000d0: 1bcf 37bd 279f bc3c 5adb 7e3c 2925 9bbc
000000e0: 82d0 083d 2695 28bd 06cd 2b3c 83ad 78bc
000000f0: 42f5 76bd 91cd 07bd 2c56 46bd cc96 21bd

weight f4 [64, 1024]
-0.018042687 -0.013082795 -0.045591764 -0.006152902 0.0014950237 0.02511574 0.013238919 0.026423208
0.008776555 0.008360911 0.013233026 -0.021724079 -0.020412358 0.0033426704 -0.020397307 -0.009175442
0.009608019 -0.021481689 0.00093862216 -0.0031492352 0.033356115 0.02927654 -0.0017407518 -0.0014856517
0.0028839135 0.009533306 -0.02296893 0.021016516 -0.0026501464 0.019882249 -0.02986685 -0.008589989
-0.014924464 0.01318339 -0.0051007024 -0.015415101 -0.036487725 0.043428846 -0.01919403 0.015136813
0.012913614 0.036113273 0.011422341 -0.004291177 -0.017058462 0.0012109658 0.04118507 0.010315736
-0.013371568 0.040387936 -0.004978035 0.027141184 0.0036451346 0.018878967 0.031878762 -0.0013150929
0.032684278 -0.006725246 0.0031807455 -0.023100749 -0.034247495 -0.024670014 -0.01215214 -0.008639219
-0.021745505 0.023409273 -0.01417027 -0.00095813634 -0.017750839 -0.023979252 0.016934125 0.03653544
0.031484127 0.02269772 0.013036132 -0.009440381 -0.016457364 -0.009680346 0.008657024 0.001672177
-0.019271871 -0.01904319 -0.02264751 -0.01530953 0.03937784 0.029932791 0.01900464 0.010507304
-0.005575147 -0.0051833712 -0.0034555062 -0.006401561 0.017922582 0.02939239 -0.017029723 0.014198527
-0.012738677 0.019476393 0.022751154 -0.009513145 0.025852708 0.019497767 0.0090753045 0.01831096
0.0012735357 -0.004821192 0.019129237 -0.017301857 -0.011249602 0.014345104 -0.033125754 0.028830294
0.012351414 -0.007692245 0.040035963 0.009671595 -0.020603012 -0.015961025 0.02029392 -0.026573602
0.0054625017 0.0047511174 0.041646667 -0.013982464 -0.02458012 0.011326257 0.014414215 0.028485004
0.0073044864 0.028837295 0.036783107 0.011559131 0.012453244 0.026945923 -0.010523862 -0.026854651
0.0026245678 0.03480217 -0.02418496 -0.021590274 -0.027522754 0.037161555 0.009269068 -0.02996664
0.034827553 0.037044 -0.0070644724 0.00999198 0.017932858 -0.0034450996 -0.011886104 -0.028401392
0.019606806 0.034062278 0.023319669 0.0050838976 -0.024886407 0.0131150475 0.024406314 -0.01570062
0.017497888 0.0027718463 0.042509045 -0.006361228 -0.007146367 0.009444392 0.021008054 0.013074203
-0.025030088 0.008280417 -0.032773435 -0.018309375 0.015689509 -0.0076959077 -0.023181055 -0.03731255
0.027884796 0.013215272 0.011379955 -0.03158857 0.019014034 0.021790357 -0.0038419878 0.020969223
0.0057134028 -0.036706965 -0.020361198 0.01323838 -0.028805252 -0.012850143 0.010641558 0.024098976
-0.019845873 0.0028739066 -0.0077078985 -0.0056320126 -0.041146412 0.029737758 0.008834932 -0.017533459
-0.027824033 0.006387336 0.011111509 0.013521095 -0.0112845665 -0.0008836875 -0.019737605 0.011888405
0.011584891 -0.015260309 0.032423712 -0.016879965 -0.027556507 0.028993543 0.00038817787 0.00053728756
0.026628563 0.016284896 0.02429853 -0.010910643 0.022440558 -0.008827417 0.008474832 -0.025412526
0.029403657 0.0026400208 -0.029238306 -0.009704409 -0.015602883 0.039493617 -0.024605332 -0.020203002
0.030074198 -0.016614005 -0.0032424806 0.03079793 0.0048931744 0.013988969 0.011381449 0.0003767048
-0.010811621 -0.01416025 -0.028542021 -0.026315585 -0.0075485855 0.026755162 0.022542192 0.02811422
-0.0016661109 0.03281086 0.001001858 -0.0033383702 0.013653251 -0.0030063007 0.0036927385 0.028403526
00000000: 42ce 93bc 3859 56bc 6ebe 3abd 489e c9bb
00000010: acf4 c33a 86bf cd3c 0de8 583c 7c75 d83c
00000020: 8acb 0f3c 34fc 083c 55cf 583c b2f6 b1bc
00000030: d137 a7bc b410 5b3b 4118 a7bc 9854 16bc
00000040: f46a 1d3c 5efa afbc de0d 763a 6663 4ebb
00000050: 6ca0 083d 5bd5 ef3c f029 e4ba 33ba c2ba
00000060: 0a00 3d3b 9531 1c3c 5629 bcbc d42a ac3c
00000070: 14ae 2dbb 19e0 a23c 53ab f4bc 06bd 0cbc
00000080: bd85 74bc 25ff 573c cb23 a7bb 9f8f 7cbc
00000090: 2774 15bd 72e2 313d cc3c 9dbc 6500 783c
000000a0: 9f93 533c 83eb 133d c524 3b3c 009d 8cbb
000000b0: 30be 8bbc 45b9 9e3a adb1 283d 5503 293c
000000c0: 6c14 5bbc d26d 253d c91e a3bb 3057 de3c
000000d0: 36e3 6e3b 10a8 9a3c 4e93 023d 325f acba
000000e0: f3df 053d 745f dcbb 0e74 503b c83d bdbc
000000f0: 1a47 0cbd c518 cabc c519 47bc 838b 0dbc
00000100: a123 b2bc cec4 bf3c 6c2a 68bc 712b 7bba
00000110: 356a 91bc 2370 c4bc 6fb9 8a3c 2fa6 153d
00000120: 80f5 003d 92f0 b93c 8095 553c d4ab 1abc
00000130: 98d1 86bc 509a 1ebc 31d6 0d3c f32c db3a
00000140: 0be0 9dbc 7700 9cbc 4587 b9bc d3d4 7abc
00000150: a84a 213d 9d35 f53c 9eaf 9b3c d426 2c3c
00000160: b9af b6bb 45d9 a9bb c675 62bb 30c4 d1bb
00000170: 61d2 923c 4fc8 f03c eb81 8bbc f0a0 683c
00000180: e2b5 50bc f58c 9f3c a160 ba3c 06dd 1bbc
00000190: 0fc9 d33c c8b9 9f3c 96b0 143c de00 963c
000001a0: c4ec a63a 17fb 9dbb ebb4 9c3c a0bc 8dbc
000001b0: 4050 38bc ba07 6b3c dfae 07bd 822d ec3c
000001c0: 965d 4a3c 3a0f fcbb c0fc 233d 9c75 1e3c
000001d0: a6c7 a8bc b2c0 82bc 6f3f a63c e2b0 d9bc
000001e0: c9fe b23b 43af 9b3b b295 2a3d b416 65bc
000001f0: 3f5c c9bc c491 393c 9a29 6c3c 6259 e93c
00000200: 795a ef3b 313c ec3c e2a9 163d 8262 3d3c
00000210: b108 4c3c b2bd dc3c 476c 2cbc 49fe dbbc
00000220: f100 2c3b b88c 0e3d 8a1f c6bc 16de b0bc
00000230: 6677 e1bc b736 183d 4add 173c 997c f5bc
00000240: 56a7 0e3d 73bb 173d 177d e7bb 67b5 233c
00000250: eee7 923c 2ec7 61bb efbd 42bc 09aa e8bc
00000260: 749e a03c e384 0b3d e408 bf3c d396 a63b
00000270: 94de cbbc 7fe0 563c c0ef c73c 969e 80bc
00000280: bb57 8f3c dda7 353b f71d 2e3d d971 d0bb
00000290: 122c eabb a7bc 1a3c 1519 ac3c 2f35 563c
000002a0: e60b cdbc 96aa 073c 703d 06bd 8bfd 95bc
000002b0: 4987 803c f42d fcbb 32e6 bdbc 0bd5 18bd
000002c0: a86e e43c de84 583c fe72 3a3c 0463 01bd
000002d0: 52c3 9b3c b181 b23c dcc9 7bbb a6c7 ab3c
000002e0: 7f37 bb3b 0b5a 16bd 87cc a6bc cae5 583c
000002f0: fef8 ebbc 6889 52bc ee59 2e3c 376b c53c
00000300: d093 a2bc 2758 3c3b 8a92 fcbb bf8c b8bb
00000310: 2489 28bd 999c f33c 64c0 103c 54a2 8fbc
00000320: 3aef e3bc dc4c d13b 0c0d 363c 9587 5d3c
00000330: e7e2 38bc 44a7 67ba c2b0 a1bc 96c7 423c
00000340: 8ece 3d3c 6006 7abc bace 043d da47 8abc
00000350: 2fbe e1bc de83 ed3c 5a84 cb39 c2d8 0c3a
00000360: 2524 da3c e767 853c b60d c73c 8ec2 32bc
00000370: 43d5 b73c dfa0 10bc 06da 0a3c ee2d d0bc
00000380: f0df f03c 3304 2d3b 2c85 efbc 3eff 1ebc
00000390: 3ca3 7fbc 0fc4 213d 1f91 c9bc c480 a5bc
000003a0: 2a5e f63c 181a 88bc cc7f 54bb f14b fc3c
000003b0: ec56 a03b fd31 653c 4279 3a3c 7680 c539
000003c0: 3a23 31bc 6500 68bc f5d0 e9bc c893 d7bc
000003d0: 205a f7bb a42d db3c 67aa b83c cb4f e63c
000003e0: 6861 daba ae64 063d c750 833a 8fc8 5abb
000003f0: e3b1 5f3c 5b05 45bb df01 723b 83ae e83c

bias f4 [64]
-0.0035768603 0.0052290065 0.043568287 -0.026650844 -0.025576906 -0.017002935 -0.014904836 -0.008630718
0.021069026 -0.022094244 0.02584666 0.02572558 0.020895215 -0.026752353 -0.017973231 -0.04065182
0.0044708154 0.030412642 0.032988973 -0.031815812 -0.0052846055 0.0531617 -0.013632305 0.037197396
-0.051527303 0.04862765 0.0009683654 -0.0094747525 -0.018383257 0.03169983 0.03248039 0.004362473
0.023055492 -0.020907903 -0.02849939 0.0007101224 -0.023209559 0.0069092256 -0.022032319 0.023368334
0.0005159229 -0.0023483825 -0.012355793 0.022683742 -0.002410346 -0.062287282 -0.04009148 -0.030971916
0.032465547 0.019361673 -0.014207314 -0.0066972305 0.00043538844 -0.04901738 -0.016407436 -0.016163414
0.0035967734 0.056560636 0.007858472 -0.0009023574 -0.039526653 0.012483346 -0.023948222 -0.007568197
00000000: c269 6abb 1658 ab3b a974 323d df52 dabc
00000010: a986 d1bc bd49 8bbc 6a33 74bc db67 0dbc
00000020: f398 ac3c fdfe b4bc 60bc d33c 74be d23c
00000030: 712c ab3c c027 dbbc 993c 93bc 8682 26bd
00000040: eb7f 923b ef23 f93c 721f 073d 4c51 02bd
00000050: 7c2a adbb 15c0 593d 085a 5fbc 4c5c 183d
00000060: 4b0e 53bd c92d 473d e7d9 7d3a fe3b 1bbc
00000070: 7c98 96bc aed7 013d 280a 053d 13f3 8e3b
00000080: dfde bc3c 0d47 abbc 8e77 e9bc 8227 3a3a
00000090: f921 bebc c966 e23b 1f7d b4bc f36e bf3c
000000a0: 003f 073a 52e7 19bb f46f 4abc 41d3 b93c
000000b0: e5f6 1dbb f320 7fbd f736 24bd d1b8 fdbc
000000c0: 98fa 043d 5f9c 9e3c cbc5 68bc 7174 dbbb
000000d0: d944 e439 73c6 48bd e368 86bc 2369 84bc
000000e0: d8b7 6b3b 20ac 673d d2c0 003c 2e8c 6cba
000000f0: b3e6 21bd f386 4c3c 102f c4bc a3fe f7bb

weight f4 [10, 64]
0.00023359875 0.042656347 -0.08896741 -0.022953222 0.062225647 0.0131295435 0.08872248 0.17734897
-0.0059392564 0.014785151 0.011680409 0.031591836 0.07427028 0.18048413 0.13177902 0.08440411
-0.13547802 -0.13775368 -0.07485543 0.053558454 -0.0014981275 -0.17096093 0.05785903 0.00080404984
0.044488393 -0.11645531 -0.017053774 0.012903369 -0.07998771 -0.04395282 -0.09293166 -0.03769335
-0.036660906 -0.19235219 -0.03680208 -0.064858526 0.15085357 -0.14963165 0.024252376 -0.0693428
-0.08133608 0.027656918 0.067419 0.07267056 0.065100566 0.09657719 0.103038445 0.0738317
-0.10521129 0.11996996 0.15839203 0.085279286 0.026293736 0.096271425 0.06517718 -0.051137798
0.16760388 -0.13462318 -0.14659654 0.10423962 -0.10026713 -0.08114213 0.14466697 0.0678047
0.12631789 -0.25738695 -0.12754585 -0.06418565 0.17475943 -0.12821054 -0.16245753 -0.06759404
-0.05858344 -0.088210106 -0.26317358 -0.10639936 -0.013940008 0.22195336 0.26604685 0.10867187
-0.072583765 -0.1434605 -0.029067853 0.10326604 -0.12443061 0.07487186 -0.11606443 0.12719162
0.013893 0.1469781 0.037939087 -0.16670088 -0.17842795 -0.009247379 -0.08470715 -0.009234311
-0.12251008 -0.008258279 -0.060222894 -0.1949172 -0.1134381 0.008942886 -0.10927959 0.11842099
0.14120671 -0.08818309 -0.15162112 -0.14284936 0.009070553 -0.18535976 0.02133277 0.027560126
0.09501438 0.028982801 0.10683663 -0.009788925 -0.10738802 0.09918108 -0.11172385 0.037616413
0.12529592 -0.010532851 -0.118842274 0.16033566 0.033120617 0.12503046 -0.127956 -0.22559722
0.110579506 0.142559 -0.1361841 0.12820482 -0.06528531 0.0066620153 0.10491642 -0.12010724
0.07518513 -0.09390629 0.08863006 0.04405877 0.040615093 0.027564997 -0.10617783 0.043013476
0.056530807 0.119501665 0.060326435 -0.026841205 -0.06102668 -0.15094419 -0.07923401 0.069592446
-0.093581155 0.07079824 -0.0017727201 -0.060245764 0.013307477 0.015079236 0.10000927 -0.043677215
-0.009075067 0.18463646 -0.06023006 0.16572729 -0.06986018 -0.0663694 -0.119663395 -0.1387034
-0.14596437 0.028267497 -0.05846814 -0.06682769 0.1248848 0.051009018 -0.120412104 0.012581541
0.067567244 0.11307311 -0.06379086 -0.14068775 0.15946333 -0.12389727 0.1510517 -0.022192784
0.13719209 -0.005238215 0.11328718 0.089290425 -0.1785002 -0.0809424 0.14785455 0.12283749
0.12326615 0.123589754 0.040259674 -0.1336645 -0.12762411 0.0042795236 0.108823836 -0.03593634
0.04559373 0.010302572 -0.10843005 0.029884957 -0.058091614 -0.20714386 -0.1653624 -0.073855825
0.095197245 0.005656388 0.14042047 -0.08907855 0.1338804 0.0071506905 -0.09263628 -0.060262516
-0.06174739 0.13397852 0.012606921 0.07568999 -0.06050675 0.106685415 0.09884526 0.14105073
-0.024422867 0.1731244 -0.10503527 -0.06745143 -0.10951874 0.025060711 -0.091964096 -0.021220954
0.040136747 -0.09932531 0.09215042 0.035424393 -0.16626921 -0.039183203 0.07042081 0.056619246
-0.057753034 -0.022910958 -0.07335908 0.11129889 0.16823356 -0.01680262 0.05777061 -0.032139637
0.03571052 0.042426582 0.07483931 -0.13481298 -0.13178752 0.116718 0.000105635205 -0.07233014
00000000: 30f2 7439 6cb8 2e3d 8c34 b6bd 6508 bcbc
00000010: 52e0 7e3d 4c1d 573c 22b4 b53d f89a 353e
00000020: 189e c2bb 6b3d 723c 305f 3f3c 7166 013d
00000030: 041b 983d d5d0 383e 14f1 063e 10dc ac3d
00000040: c0ba 0abe 4d0f 0dbe ce4d 99bd 1c60 5b3d
00000050: d15c c4ba 6210 2fbe 97fd 6c3d dfc6 523a
00000060: 7639 363d 1f80 eebd 5bb4 8bbc a768 533c
00000070: 99d0 a3bd df07 34bd f452 bebd 5864 1abd
00000080: bf29 16bd f9f7 44be c7bd 16bd 8cd4 84bd
00000090: 5c79 1a3e 0a39 19be ebac c63c 9903 8ebd
000000a0: 8893 a6bd c390 e23c f912 8a3d 4dd4 943d
000000b0: 7253 853d 43ca c53d d205 d33d 1335 973d
000000c0: 0479 d7bd cfb2 f53d 8531 223e e8a6 ae3d
000000d0: f665 d73c f429 c53d 9d7b 853d de75 51bd
000000e0: 5aa0 2b3e a9da 09be 671d 16be 957b d53d
000000f0: da58 cdbd d82d a6bd 9423 143e 31dd 8a3d
00000100: 7a59 013e 39c8 83be 619b 02be c473 83bd
00000110: 23f4 323e a049 03be 445b 26be be6e 8abd
00000120: 30f5 6fbd 80a7 b4bd b0be 86be e8e7 d9bd
00000130: a264 64bc be47 633e 4b37 883e 5b8f de3d
00000140: cca6 94bd 4fe7 12be b51f eebc 257d d33d
00000150: 7ad5 febd 6b56 993d 30b3 edbd 853e 023e
00000160: 779f 633c 6d81 163e 0466 1b3d a3b3 2abe
00000170: d1b5 36be 5282 17bc f17a adbd 824b 17bc
00000180: 91e6 fabd bc4d 07bc 48ac 76bd 6098 47be
00000190: 3c52 e8bd 2f85 123c facd dfbd b486 f23d
000001a0: 7e98 103e 5699 b4bd 9142 1bbe 1a47 12be
000001b0: a89c 143c f3ce 3dbe 10c2 ae3c c6c5 e13c
000001c0: e696 c23d 576d ed3c 2acd da3d ba61 20bc
000001d0: 40ee dbbd 731f cb3d 79cf e4bd ab13 1a3d
000001e0: 934d 003e fb91 2cbc 9463 f3bd 082f 243e
000001f0: 7ca9 073d fc07 003e e606 03be f502 67be
00000200: 8277 e23d fdfa 113e d873 0bbe 2048 033e
00000210: 4eb4 85bd 094d da3b 6cde d63d c9fa f5bd
00000220: a9fa 993d f151 c0bd ad83 b53d f876 343d
00000230: 035c 263d fdcf e13c c373 d9bd e62e 303d
00000240: d98c 673d 4abd f43d da18 773d 16e2 dbbc
00000250: 1df7 79bd 1d91 1abe 7145 a2bd 7c86 8e3d
00000260: 7aa7 bfbd abfe 903d 9e5a e8ba 43c4 76bd
00000270: 9b07 5a3c e60e 773c a9d1 cc3d e1e6 32bd
00000280: 97af 14bc 5711 3d3e ccb3 76bd 6ab4 293e
00000290: db12 8fbd aeec 87bd 1512 f5bd 4408 0ebe
000002a0: af77 15be 3d91 e73c 4a7c 6fbd f5dc 88bd
000002b0: 9ac3 ff3d d5ee 503d 9f9a f6bd cf22 4e3c
000002c0: b260 8a3d e092 e73d c8a4 82bd 7310 10be
000002d0: 5b4a 233e dabd fdbd 4cad 1a3e a4cd b5bc
000002e0: 157c 0c3e 55a5 abbb 1c03 e83d e6dd b63d
000002f0: c2c8 36be 21c5 a5bd 2f67 173e 3992 fb3d
00000300: f772 fc3d a01c fd3d 54e7 243d 59df 08be
00000310: e5af 02be 3f3b 8c3b 08df de3d fc31 13bd
00000320: 7ec0 3a3d 1ecc 283c 9310 debd 4cd1 f43c
00000330: 79f1 6dbd 851d 54be c354 29be b941 97bd
00000340: c6f6 c23d 3959 b93b 62ca 0f3e d16e b6bd
00000350: f217 093e 5750 ea3b 17b8 bdbd d4d5 76bd
00000360: d5ea 7cbd aa31 093e 428d 4e3c 5a03 9b3d
00000370: edd5 77bd e27d da3d 626f ca3d 9a6f 103e
00000380: 7712 c8bc 8647 313e bb1c d7bd fa23 8abd
00000390: 5c4b e0bd 1f4c cd3c ac57 bcbd 91d7 adbc
000003a0: 6e66 243d 116b cbbd 5cb9 bc3d 2b19 113d
000003b0: 7a42 2abe 917e 20bd c938 903d 95e9 673d
000003c0: 728e 6cbd c3af bbbc 493d 96bd acf0 e33d
000003d0: 6b45 2c3e a6a5 89bc e0a0 6c3d daa4 03bd
000003e0: 3245 123d 7fc7 2d3d 5a45 993d 6a0c 0abe
000003f0: 4ff3 06be d909 ef3d 7888 dd38 d321 94bd

bias f4 [10]
-0.11497803 0.016003387 0.08357121 0.08768273 0.041761287 0.019687789 0.01202855 0.0748176
0.04639696 0.0004094384
00000000: 9a79 ebbd 8919 833c 6227 ab3d 0193 b33d
00000010: e20d 2b3d 4948 a13c 6513 453c f839 993d
00000020: bd0a 3e3d e4a9 d639
