tudui_1.pth (torch, 587399 bytes, 10 tensors)

weight f4 [32, 3, 5, 5]
00000000: 1009 1a3d 9cdf f93c 7c97 1abd 541f c7bd
00000010: a099 763c e4a1 d53d 55cb bf39 f9ea 343d
00000020: 1a23 e53d 562a d7bc 162b f7ba 1752 96bc
00000030: 4a0e 97bc 624f 5b3d ed48 6ebd 14bc 83bd
00000040: c5b2 b33d e4d7 efbc 938d 96bd 2122 b1bd
00000050: 17b3 c3bd 16ad d83c da21 04be 57da 07be
00000060: 3da1 8b3b f073 433c dcf3 923d ddf2 913b
00000070: 3510 cfbd a000 f53c 705f 2d3b 1dbe aabd
00000080: 0b50 b93d 226d c23d da1f b53d 1cca babd
00000090: 09f6 953d 2e70 863d 1852 b63d 67d0 7cbc
000000a0: c437 a4bd 21d1 a93d 5ec5 3b3d ef23 49bd
000000b0: 7939 b43b 1d12 183d c5d1 97bd 8d83 ca3c
000000c0: fd9e 6abd eac1 2bbd 3cfb 6bbb 97ed 67bd
000000d0: a483 9dbd fd9e 83bb fd91 e73d 3ba7 023e
000000e0: 4e06 f73d 4575 9c3d 87c3 763d 0f69 083d
000000f0: 125d a03c 5eb9 cc3c 1089 16bd b6fa a8bc
00000100: 4a02 20bd 3a77 843d d8af d53d abb0 7a3d
00000110: f80a 4d3d e0c7 dc3d eb07 efbd 5176 f5bd
00000120: d8a0 debc c3ea 67bb 8819 463d de9d c1bd
00000130: 1c11 1cbd 9562 8cbd 81bc b4bd 46bd a7bd
00000140: 5636 acbd 2d08 1a3d 1159 a83c 0f98 a2bb
00000150: 4661 85bc 4ac1 513d 82e5 cb3d 15fb fe3a
00000160: ccd5 9fbd e27a 67bd d7c7 d6bd 629b 033c
00000170: 46cb bfba bb9a 0bbd 1cbc 1e3d de8a a1bc
00000180: a4d0 f4bc d86a 58bd b2b7 a63d a58e a23d
00000190: 36c7 a7bd c014 cb3c 7484 a4bd d245 0bbe
000001a0: e1ba f5bd 4082 aebd 06d5 f2bd 8d3f 09be
000001b0: 00fd 99bc 9b14 7c3d 4e5f da3b 325e 9b3c
000001c0: da42 443b c9d1 1f3d 7f4e 2bbd 2cce 2f3d
000001d0: 7ef6 9dbd a445 5fbd 4093 683c 3508 db3d
000001e0: 78ee ce3d 31fe 323c 2291 913d 04df 96bd
000001f0: 4375 2fbd c2de 8bbd 4db0 7d3d 3976 23bb
00000200: 735b 8b3c 32ad c4bd da98 c73d e7cf c7bd
00000210: da87 7c3c ae3d 8a3d 0025 4cbd 2b12 843d
00000220: 70c7 073e ff87 6fbd db55 cd3d fa10 7bbd
00000230: 421b 263d b49d 49bd fbf1 f93d 1cf2 ecbb
00000240: 0aaf 0b3e 6fd5 60bb ce65 073e cdf1 0e3e
00000250: 90c7 e039 ee3b 933d b926 b53c 921d 3ebb
00000260: 35ea febd 0d31 d73c cc5d 4cbd 1144 f63c
00000270: fc21 14bd d347 88bc b8de a93c 9390 8a3d
00000280: f535 edbd 09a6 20bd c5f2 883d 2cea f8bc
00000290: d1b0 ca3d c710 38bd 0d82 a0bd d42d 493d
000002a0: 7367 82bc 9846 04bd f765 e5bb 66fd c3bd
000002b0: 3992 cdbd 68b1 b43d c677 47bd 30fb c2bd
000002c0: 9085 c6bd a2d1 053d 115a 55bd e7b9 62bd
000002d0: bf93 9cbd 0881 d83d 453f 72bc 5520 4a3d
000002e0: 002f dc3d b25a 523c dc57 8e3c 531e aebd
000002f0: e4f7 193d 61e5 4e3d bd32 013d 2bdd 7dbd
00000300: a129 a43d 5f1b e8bd d808 91bd af60 8e3d
00000310: b39c 973d 91a6 a43d 7225 7d3d 4e91 a43d
00000320: f8ba e8bb e16b b9bd 24db bfbd 9989 17bd
00000330: a977 263d 5e57 513d be83 92bd 640a 673d
00000340: 0010 3abd 80dc d1bd 84fd c0bd 9b12 a6bd
00000350: ba2e 4e3d adb5 bc3d f454 f03d e066 babd
00000360: 4abb b43d 542e c83d 0a51 b3bd 86f7 bdbd
00000370: 4ebe 02bd 5745 db3c 4aaf 813c 2bc4 a33d
00000380: d328 e03c ade4 dfbd 2be2 d43c 813d 5abd
00000390: b680 6dbd 5de0 913d 0a21 aabd 4fb1 193c
000003a0: d86b f0bd 00d1 de3c e550 f7bd 07c9 be3d
000003b0: 42cb 9abc ae85 72bd 1589 c7bd c1f6 9dbd
000003c0: 1a4f babd 62e4 c1bd 64fc fcbd 374a ba3d
000003d0: 746a 983d d4cd c0bd 94e1 603d 4a26 ca3d
000003e0: f3e9 fcbc e5ac d2bd 9c0e 43bd 548e a1bd
000003f0: 0954 dbbd 4884 4c3d ba79 d8bd 4ed5 a3bd
0.0376063 0.030502133 -0.037742123 -0.09722772 0.0150512755 0.10431269 0.00036581853 0.0441694
0.11188336 -0.026265305 -0.0018857445 -0.01834969 -0.01843943 0.053542502 -0.058175016 -0.064323574
0.08774332 -0.02927775 -0.07351222 -0.08649088 -0.09555643 0.026449721 -0.12903538 -0.13266884
0.0042611645 0.011929497 0.07175419 0.0044540004 -0.10110513 0.029907525 0.002645459 -0.083370425
0.0904847 0.09493472 0.08843966 -0.091205806 0.07322318 0.06564365 0.08902377 -0.015430546
-0.08018449 0.08291841 0.04584252 -0.049106535 0.0055000153 0.03712665 -0.07413057 0.024720931
-0.05728053 -0.041932978 -0.0036007902 -0.056623068 -0.07691124 -0.0040167556 0.11307142 0.12759106
0.120617494 0.07639555 0.060245063 0.033303317 0.01957563 0.024990734 -0.036751807 -0.02062736
-0.039064683 0.06468053 0.1043393 0.06120364 0.05005929 0.10780311 -0.11671432 -0.11985458
-0.027176306 -0.0035387732 0.048364192 -0.09453939 -0.038102254 -0.068547405 -0.08825017 -0.08190398
-0.08408801 0.037605453 0.020550283 -0.0049619745 -0.016281735 0.051209725 0.099558845 0.001945349
-0.078044504 -0.056513675 -0.10487335 0.008032652 -0.0014632724 -0.03408311 0.038753614 -0.019719537
-0.029884644 -0.05283627 0.08140506 0.079373635 -0.08192293 0.024790168 -0.08033076 -0.13600853
-0.11998535 -0.08520937 -0.11857037 -0.13403149 -0.018797398 0.06154309 0.0066641932 0.018965814
0.0029947073 0.039018426 -0.041822907 0.04292123 -0.0771303 -0.054509774 0.014195263 0.10694925
0.10104078 0.010924862 0.0710776 -0.073667556 -0.04283644 -0.06829597 0.06193571 -0.0024942292
0.01701138 -0.09603347 0.09745951 -0.09756451 0.015413249 0.06750046 -0.049839973 0.06448778
0.13259673 -0.058479305 0.10026141 -0.061295487 0.04055334 -0.049222663 0.12204357 -0.00723101
0.13640991 -0.0034306904 0.13222429 0.13959427 0.00042873295 0.07189165 0.022113191 -0.0029009324
-0.12447015 0.026268506 -0.04989414 0.030061753 -0.036165223 -0.016635811 0.020736083 0.067658566
-0.11582557 -0.039220843 0.066869296 -0.0303851 0.09897006 -0.044937875 -0.07837305 0.04911597
-0.015918469 -0.032293886 -0.0070006805 -0.09569816 -0.100376554 0.088229 -0.04869821 -0.095205665
-0.09693444 0.032670625 -0.052087847 -0.05535307 -0.07645368 0.10571486 -0.014785592 0.04934724
0.10751152 0.012839006 0.017375879 -0.08501878 0.037589923 0.05051172 0.03154253 -0.0619785
0.080157526 -0.113333456 -0.07081765 0.06952035 0.07402935 0.080395825 0.06180329 0.08035527
-0.0071023665 -0.090537794 -0.0936797 -0.036996458 0.04064146 0.05110871 -0.07154034 0.056406394
-0.045425415 -0.10247135 -0.09423354 -0.081090175 0.05033753 0.092143394 0.117349535 -0.09101653
0.08824785 0.097744614 -0.08755691 -0.09275727 -0.03191977 0.026766462 0.015830655 0.079964004
0.027363217 -0.10932288 0.025986752 -0.05328131 -0.057984076 0.07122872 -0.08307083 0.009380653
-0.117393196 0.027199268 -0.12075976 0.09315687 -0.018895749 -0.059209518 -0.09742943 -0.0771308
-0.09097119 -0.09467389 -0.12352827 0.090961866 0.07442179 -0.094142586 0.054902628 0.09870584
-0.030873274 -0.10286883 -0.047621354 -0.07888475 -0.10709388 0.04993084 -0.105700925 -0.07999669

bias f4 [32]
00000000: b6e6 7e3d 0094 c6bc fae0 babd b8cd d73c
00000010: ba48 f23d e713 32bd de07 b83b ee65 ad3d
00000020: 6ad9 9bbd c378 123e 8c4d 513d b06a 1dbd
00000030: 5117 913d 927f 8abd 3b9b 233e 1108 d83d
00000040: 0540 d5bd 1896 f53c aac8 e73d 792f 97bc
00000050: 1191 9ebb 75de 31be 7613 5cbd 1dbd 92bc
00000060: 1f21 15be 3e66 6a3d b223 a33d 6b6d f4bd
00000070: a31e a4bd 297f ab3a a2a1 d0bd 2dc8 373d
0.06223174 -0.024240494 -0.09124942 0.026343212 0.11830278 -0.04347601 0.005616172 0.08466707
-0.07609828 0.1430388 0.051099345 -0.038431823 0.070845254 -0.06762613 0.15977184 0.105484135
-0.104126014 0.029978797 0.113175705 -0.018455254 -0.0048390706 -0.17370017 -0.053729497 -0.017912442
-0.14563416 0.057226412 0.07965793 -0.11934932 -0.08013656 0.0013084161 -0.10187079 0.044868637

weight f4 [32, 32, 5, 5]
00000000: e951 af3c c33a e53c 1f7e 06bb c3f0 cc3c
00000010: 86ff fcbc 7688 dabc 4877 033d c0c8 b3bc
00000020: 24ed 9b3c 1e02 e93c ca7f 393c d636 cd3c
00000030: 5cee e9bc c084 09bd 5d4d ffbc 8486 08bd
00000040: b8db 073d 901e 823c 3fef c03c 64a7 e4bb
00000050: 34ab a3ba 8292 ad3c 1076 a5bc acde ff3c
00000060: 3782 d53c f4d4 503c 4e55 40bc 3ef6 a6bc
00000070: d6fe 023d 9e6e d3bc 945c 82bc 3486 cabb
00000080: a08f 153d 184f 1f3c 4cf9 063d 8c6f 30bc
00000090: c0cd b9bc 5914 bebb 660d c93c d5d6 7fbc
000000a0: 41c1 fcbc 1a79 653c d52f 9d3c 8ee1 be3c
000000b0: c478 3ebc ea76 413c 8f15 8d3c 2b3e c33c
000000c0: 1316 0dbd 7bbe cfbc 7716 3cbc ba7c a43c
000000d0: 2ef9 563c 918a 19bc 549e b1bc a790 0d3d
000000e0: fd1f f03c bc2e 0b3c be34 b6bc 340a 96bc
000000f0: c6f1 e53c abc8 abbc afb5 afbc 8105 b73c
00000100: 5cc5 58ba 71eb 0abd f901 0abd d5d5 8fbc
00000110: e132 243c 596b 903a 358e 6b3c 3c12 c53c
00000120: dd65 c03c 6008 1e3c f7c2 05bd 623f 9dbc
00000130: d20e 79bc ccf8 c0b9 4f7f ecbc b4cf 5a3c
00000140: bbda f6bb ed9e e1bb 51fe ce3b d593 3f3c
00000150: 884c 94bc aa16 993c 3a18 b43b 94ca f13c
00000160: 1c0c 093d c172 f4bc b68e a3bc 26f7 3f3c
00000170: c043 e33c c1f3 803b fbe7 333b ab28 c2bc
00000180: 302f da3c 6f99 f5bc 3485 afbc a44a ae3c
00000190: f3d0 713c 6ef9 923c 3f1a 69bc ca75 a5bc
000001a0: 8418 c63c 8d62 b7bc f2f9 1d3c e6a4 e4bc
000001b0: 954a b13c 6291 9cbc 4720 623c a74f 4abb
000001c0: f815 543c 5ae9 0ebd d10b 86bb c572 e03c
000001d0: 6eab b23c 46d7 ec3c 58ef 24bc 1842 1e3a
000001e0: d63c 183c 5b80 85bb 875a dab9 b9bf 4dbb
000001f0: 647b e03b be50 eabc c09b 823b 20c2 113b
00000200: e6b5 a6bc b2fc e63c e6ff c4bb d77a 263c
00000210: abef fe3b fca0 8dbb 9eff 7d3c 977d 0ebd
00000220: a199 d9ba 3a6b ab3c 5fb9 ea3b 5bbb ae3c
00000230: 8a67 ffbb a400 a7bc 342a d53c 2d6d 15bc
00000240: a6fe 603c 9a4b f8bc 0056 67bc cb5b 363a
00000250: eb0d c93c cee7 103d 82d4 67bb 308c 92bc
00000260: d319 0c3c 64eb 8f3c a9ff 15bc ee31 8c3c
00000270: cfd4 233c 8b45 8a3c f18f 0ebc bb31 a4bc
00000280: 64e9 bd3c 0173 ef3c 933a fe3b 2dc3 d03c
00000290: 43ed 843c 9497 32bc d594 643c 538c aebc
000002a0: fd56 e83b 6ef0 80bc 587d 0d3c 50b1 79bb
000002b0: 4382 48bc 692f 373c ff2d d8bc 7091 f93c
000002c0: 4889 f03b b0e4 2d3c 7ffc 863c d73c 15bd
000002d0: 36ec 4cbc d3cd 043c ef3a fa3c 36b5 a93c
000002e0: 87fa 0cbd f6c8 a03c 9b89 d83c ec1f c0bb
000002f0: a71d 0b3d ee1f 7cbc f764 c83c 4d44 febb
00000300: b579 633c 2a29 0d3d e43c 04bd dffb abbb
00000310: 290d 9a3c 804c f83c ec85 5bbc 389a aabc
00000320: f046 c63c e1ee c1bc 99fa dabc e25f cfbc
00000330: 0fe3 2cbc d9dc c1bc 6734 f83c f22c c9bc
00000340: 4d97 06bc f132 9a3c 3a63 51bc b840 413c
00000350: fab1 813c 0a10 303c 5512 0d3b 4024 d4bc
00000360: 6815 05bd 0194 85bc 4cf9 063d 19fc c13c
00000370: d728 bcbb fe61 4b3c 800e e3bc 8dd2 ad3b
00000380: 8631 62bc 5655 c2bc e118 d83c 2933 e83c
00000390: c91c 443c cb81 aa3c abfd 143c 6a67 ef3c
000003a0: 1fcb 06bd 6498 82bc 8fe4 7b3c e0d6 2f3c
000003b0: bc58 4bbc ca53 873c 68aa 04bd 1dbb 18ba
000003c0: 7a1d eebc 6a3c ddbc 5103 96bc 09af 803c
000003d0: 5581 09bd 97ef 3abc 04f1 c83c 4a9c a03c
000003e0: 6c4c 13bc 3454 013c 4c55 17bb 6f98 a03c
000003f0: b714 953c bd8f 51bc 627d b6bc 0b93 53bc
0.021401362 0.027982121 -0.0020521951 0.025017148 -0.030883562 -0.026676398 0.032096177 -0.021946311
0.019033976 0.028443392 0.011321971 0.025050562 -0.028556041 -0.033573866 -0.03116482 -0.03333141
0.033168525 0.015883714 0.023551581 -0.0069779623 -0.0012486936 0.021188024 -0.020197898 0.031234108
0.026063068 0.0127460845 -0.011739088 -0.02038109 0.03198131 -0.025809582 -0.015913285 -0.006180549
0.036513925 0.009723447 0.03295259 -0.010768782 -0.022681117 -0.0058007655 0.024542522 -0.015615185
-0.03085387 0.014005924 0.019187847 0.023300912 -0.011625472 0.0118081365 0.017222194 0.023833355
-0.03444488 -0.025359383 -0.011479965 0.020079006 0.0131209325 -0.009371416 -0.021681942 0.03456178
0.029312128 0.008495029 -0.022241946 -0.018315412 0.028069388 -0.02096971 -0.021448938 0.022341492
-0.0008269155 -0.03391594 -0.033693288 -0.017558018 0.010021896 0.001101832 0.0143771665 0.024056546
0.023486072 0.009645551 -0.032656636 -0.019195262 -0.015201287 -0.00036806462 -0.0288693 0.013355184
-0.007533399 -0.0068854005 0.006316938 0.011692961 -0.0181029 0.018687565 0.005496052 0.029515542
0.033458814 -0.029839875 -0.01996551 0.01171664 0.027742267 0.0039353077 0.0027451504 -0.023701033
0.026633829 -0.02998039 -0.02142582 0.021275826 0.01475929 0.017941203 -0.014227449 -0.020197768
0.024181612 -0.02238586 0.009642111 -0.027910661 0.021642009 -0.019112293 0.013801641 -0.003087023
0.012944691 -0.03489051 -0.004090764 0.027398476 0.02181026 0.028911244 -0.01006683 0.00060370704
0.009291848 -0.004074139 -0.00041647648 -0.0031394793 0.006850647 -0.028602954 0.003985852 0.0022240952
-0.020350408 0.028196666 -0.006011951 0.010161123 0.0077800355 -0.0043221693 0.015502838 -0.03478774
-0.0016601571 0.020925153 0.0071632112 0.021329572 -0.0077943252 -0.020386048 0.0260211 -0.009120268
0.013732588 -0.030309487 -0.014119625 0.0006956427 0.02454277 0.035377316 -0.0035374467 -0.017889112
0.008551079 0.017568298 -0.009155192 0.017113652 0.009999468 0.016878864 -0.0087013105 -0.020043245
0.023182578 0.029229643 0.0077584474 0.025483692 0.016226416 -0.010900397 0.0139515 -0.021307146
0.007090448 -0.015739646 0.008635841 -0.0038100071 -0.012238088 0.011180737 -0.02638912 0.030464858
0.007340584 0.010613605 0.016477821 -0.036434975 -0.012507489 0.008105713 0.03054568 0.02071629
-0.03441861 0.019627076 0.026432803 -0.0058631804 0.033963826 -0.015388472 0.024462206 -0.007759607
0.013883998 0.034463085 -0.032284632 -0.0052485312 0.018805103 0.030309916 -0.013398629 -0.02082549
0.024203748 -0.023673477 -0.026730822 -0.025314275 -0.010552182 -0.023664879 0.030298425 -0.024557564
-0.008214784 0.018823119 -0.012780005 0.011795215 0.015831936 0.0107460115 0.002152582 -0.025896192
-0.032491118 -0.016305925 0.03295259 0.02367978 -0.005742173 0.0124135 -0.027716875 0.0053046406
-0.013805753 -0.023722332 0.02637905 0.028344708 0.011969754 0.020813843 0.009093682 0.029224116
-0.032908555 -0.015941806 0.015374317 0.010732383 -0.012411293 0.016519446 -0.032389075 -0.0005826222
-0.02906679 -0.027006347 -0.018312128 0.015708463 -0.033570606 -0.011409662 0.024528988 0.019605774
-0.008990388 0.007893611 -0.0023091612 0.019603936 0.018198354 -0.0127906175 -0.022276584 -0.012913476

bias f4 [32]
00000000: 0568 13bc cab2 0e3c dc22 f9bc 10c9 a13c
00000010: 0ed9 2c3d 417b 92bc 2f6e 7fbc a335 bf3c
00000020: 74d0 b83c dddf 01bd 11d3 22bc 3f84 2cbd
00000030: e858 23bd 96f8 f93b 50cd d73c c2d0 443c
00000040: 2a6c 28bc d2bc 67bd 2667 e43c 75da 213c
00000050: ef7e 24bd 6603 293c 296e 4abd 48e7 37bc
00000060: aa57 31bc 57d1 70bc 73b1 8d3c 4bfb 783d
00000070: 50a9 b93c aa5d 65bd 8051 a63c 124d 54bc
-0.008996968 0.008709619 -0.03041213 0.019749194 0.042199187 -0.017881038 -0.015590235 0.023341006
0.022560336 -0.031707633 -0.009938017 -0.042118307 -0.03987971 0.0076285107 0.026343018 0.012012662
-0.010279695 -0.056576557 0.027881216 0.009878744 -0.040160116 0.010315752 -0.049421463 -0.011224575
-0.010824123 -0.014698348 0.017296528 0.060786527 0.022663742 -0.055997528 0.020302534 -0.012957828

weight f4 [64, 32, 5, 5]
00000000: 52f1 063d df48 a7bb 2be0 923c 1d4e adbc
00000010: 3baf efbb 8eff c7bc 0e06 853a 40ea c9bc
00000020: 7957 cfbc 3621 663c 4bef 07bd 8049 fbbb
00000030: 9879 ad3c 104b 4f3c 898e 9dbc 9acb 23bc
00000040: f026 a6bc 8e0b dc3b 0cfe c2ba 89c4 06bc
00000050: 8f28 003c cb9f b93b f428 58ba e390 d13c
00000060: 56c8 0cbd 4e2b f63b cd5c 09bd d509 a3bc
00000070: bc26 4d3c 0cc6 e23c 4423 ad3c 824c 83bc
00000080: 93a9 11bd 31e1 783b 5b92 c43c 39f5 ec3c
00000090: 6e20 0abc 0b5f 76bc a560 a63c 9320 11bd
000000a0: c39a c33c 8908 d53c 9e10 71bc 10c8 16bd
000000b0: b2d1 ba3c 5d3c e9bc 3abd 6f3c 6249 bcbb
000000c0: 4d0e 3fbc e8fe a93c 23c4 d23c 11e1 74bb
000000d0: 9628 ee3c b223 9cbc 49d6 36bc 27f1 0a3d
000000e0: 50d3 35bc a0be 943c 5785 77ba 5ff8 853c
000000f0: 3b18 703c c2e1 eebc 9823 ecbc 2a08 c939
00000100: b576 acbc 9945 85ba 66ed 933c e8b4 1b3c
00000110: d2d4 02bd fa3d 3fbc 7312 d53c 9c88 5e3c
00000120: a8c7 f0bc c3fa ffbb 1302 d73c 33b7 e3bc
00000130: 7444 83bc efdf f7bc 0bec 8bbc 2aa9 41bc
00000140: 509f b23c e6a8 3c3c 0d08 a73c 4375 5cbc
00000150: 751c 9d3c fcc7 febc 21dd 0c3d b795 f83c
00000160: 39b1 94bc f8c5 0cbd 2a96 3cbc 1790 a33c
00000170: 4c8b c3bb feb3 a0bc b8be 6d3c e974 c2bc
00000180: 5bc7 dabc a7b6 57bc 2acd b6bc e593 193b
00000190: ad4e c8bc d449 c63c 9731 e3ba 0f0a 643c
000001a0: d721 9f3c 4307 503b 9144 003d b8c1 dcba
000001b0: d49b 5abc 35cd 3fbc 177a cf3c e5b2 6b3c
000001c0: 313c bc3b b15e d7bc 4eec 0cbd eed8 1b3c
000001d0: 5a2c e33c 0451 ae3a d285 fd3c 99c3 05bd
000001e0: 4c03 c03c 2d3e 48bc 7ae0 fe3c 825f 9aba
000001f0: 846b 1abc d49e 06bd dee0 f4bb bde7 b73b
00000200: ec30 a9bc 2742 0bbd bcc8 d4bc 7d19 7ebc
00000210: c025 54bc 944f 953c 5611 8f3c cfe9 20bc
00000220: 7827 19bc 37fa cb3b 2d15 f13c 98f3 cd3c
00000230: 25a0 c7bb 7b97 d23c 8372 0a3d d93d 97bc
00000240: ad25 ddbc a367 ef3c ce60 903b ad31 9f3c
00000250: 1946 db3c 626b 5fbc 76bf 16bc bd7f 943a
00000260: 305f 0cbd d109 7d3c 2a32 0cbd 9d6f 8dbc
00000270: ff06 473c a1e2 64bc fa4c a8bb 4ece 2e3b
00000280: 0ff0 583c 8c95 1dbc 995e fe3c be46 e43c
00000290: 7fe9 863c b7d9 d8bc d477 6b3b a4f3 dcb8
000002a0: 6da3 223b eeab 44bc 5155 bbbc 56d2 96bc
000002b0: f0da 9c3b 33eb 6cbc 25e9 003c ff3e 08bd
000002c0: ea3a fb3c eee2 1fbc 748b ae3c a28b 80bc
000002d0: d77b 3e3c 8478 743c 2882 08bd 89fc d33c
000002e0: a84c 7ebc 905a 41bc f2ef 3f3c a9e5 263c
000002f0: 44d6 223b b6f2 00bc 49ac 67bc eea7 4cbc
00000300: 17b5 c0bc bebb c9bc 6059 09bd 49ba b6bb
00000310: ef2c 1ebd 42ea e9bc 5f87 24bd 9264 103a
00000320: 10f9 bb3c 6dde a93b edd9 5c3c 1353 e6bc
00000330: ff88 1fbd d556 573c 3b97 a73c 74a4 afbc
00000340: 91c0 96bc d0e9 ae3b 16a3 3c3b 2173 c43c
00000350: 94e6 2bbc 786b b3bc 334f 9abc 1835 ebbc
00000360: b6b2 d7bc 6cc7 613c de5c 3ebd 9870 bbbc
00000370: bd19 893b 508b b1bb 8603 cebc cea1 3ebd
00000380: e1a5 2cbd eaf1 873c b0b3 043d c424 45bc
00000390: 628c e03b 331c 99bb 5aea 733b 28e0 17bd
000003a0: 8433 d4bc 12b1 fd3b 0414 a6bc 3094 a03a
000003b0: eb0d 6fba d146 6abc 10cd f23c 3dd9 8dbc
000003c0: d3b7 c4bc 16e6 b93b 02b2 9abb 8c09 063d
000003d0: 85d4 af3c 78f6 1dbc c0bb a6bc eca1 a1bc
000003e0: f318 14bc d1b2 113d 4fcd 56bb 4041 acbc
000003f0: bddd 85bc cae7 17bd 304c 46bc 180a 92bc
0.032944985 -0.0051051225 0.017929157 -0.021155411 -0.0073145903 -0.02441385 0.0010148899 -0.024647832
-0.025310265 0.014046004 -0.033187192 -0.007668674 0.021176144 0.012652174 -0.019233005 -0.009997273
-0.020282239 0.0067152446 -0.0014876737 -0.008225569 0.00782217 0.0056648008 -0.00082458486 0.025581783
-0.034370743 0.0075124865 -0.033535767 -0.01990215 0.012521442 0.027682327 0.02113498 -0.016027693
-0.03556211 0.0037976021 0.023995569 0.028925525 -0.008430583 -0.015037308 0.020309756 -0.035431456
0.023877507 0.026005046 -0.0147134345 -0.03681189 0.022805069 -0.028471166 0.0146325175 -0.0057460526
-0.011661124 0.020751432 0.02572829 -0.0037365595 0.029072087 -0.01905999 -0.011159488 0.033921387
-0.011097744 0.018157303 -0.00094421714 0.016353784 0.0146542145 -0.029160384 -0.028825566 0.0003834379
-0.021052698 -0.0010167836 0.018057536 0.009503581 -0.031941243 -0.011672491 0.026009774 0.013582375
-0.029392079 -0.0078118755 0.026246106 -0.027797317 -0.016023852 -0.030258147 -0.017080327 -0.011820117
0.021804482 0.011514878 0.020389581 -0.013455692 0.019178608 -0.03110122 0.034390572 0.030344827
-0.018150913 -0.034368485 -0.011510411 0.019966168 -0.005967533 -0.019617077 0.014510803 -0.023737388
-0.026706388 -0.013166106 -0.022314627 0.00234341 -0.024451578 0.024205126 -0.0017333505 0.013918414
0.019425316 0.003174261 0.03131539 -0.0016842401 -0.013342816 -0.01170664 0.025326772 0.0143859135
0.00574448 -0.02629027 -0.034405045 0.009512169 0.02773111 0.0013299291 0.0309476 -0.03265724
0.023439072 -0.012221855 0.031112898 -0.0011777731 -0.009425048 -0.032866314 -0.0074730953 0.005612342
-0.02065321 -0.033998635 -0.025974624 -0.015509007 -0.012948453 0.018226422 0.017464321 -0.009821369
-0.009347789 0.0062248963 0.029429043 0.025140569 -0.0060920888 0.025706997 0.033800613 -0.018462108
-0.026995504 0.029224223 0.0044060713 0.019432867 0.026766824 -0.013636442 -0.009200921 0.0011329573
-0.034270465 0.015444235 -0.034227528 -0.017265135 0.012147664 -0.013970048 -0.0051361294 0.002667326
0.013240828 -0.009618174 0.031050967 0.027865764 0.016468761 -0.026471002 0.0035929577 -0.00010535799
0.0024816648 -0.012003882 -0.02286783 -0.018410843 0.0047868416 -0.014460373 0.007868086 -0.033263203
0.03066774 -0.009758694 0.02130673 -0.015691582 0.011626205 0.014921311 -0.03332725 0.025877254
-0.015521206 -0.011801377 0.011714922 0.010186591 0.002484695 -0.007870367 -0.014140197 -0.012491209
-0.02352385 -0.024625655 -0.0335325 -0.005576406 -0.03861707 -0.028554086 -0.040168162 0.000550815
0.02294591 0.005183986 0.013479692 -0.028115785 -0.03894901 0.013143261 0.020457854 -0.021440722
-0.01840237 0.005337931 0.002878373 0.023980679 -0.010491986 -0.021901831 -0.018836593 -0.02871184
-0.026330333 0.013780456 -0.046475284 -0.022880837 0.0041839764 -0.0054182187 -0.025148164 -0.046541028
-0.042150382 0.016594846 0.032397926 -0.012032691 0.0068526724 -0.004672551 0.0037218542 -0.037079006
-0.02590347 0.0077420557 -0.020273216 0.0012251195 -0.00091192004 -0.0142991105 0.029638797 -0.017315501
-0.024013435 0.0056731803 -0.004720927 0.03272395 0.021463642 -0.009641282 -0.020353198 -0.01973053
-0.0090391515 0.035570923 -0.0032776182 -0.021027207 -0.016341085 -0.037086286 -0.012103125 -0.017827079

bias f4 [64]
00000000: f77f 00bc 82ac 2c3c 08f0 d23c 1699 bd3c
00000010: c0fc 92bc ec84 95bc f7fd 86bc 3bef 723c
00000020: b8e4 8dbc 4b75 b6bc 4730 9d3b 3d14 caba
00000030: be22 e0bc 4231 fcbc ef45 b1bc 34de ecbc
00000040: 1e12 1ebd ae44 19bd d7c1 293d 0884 e23c
00000050: 0a98 8bbc 74aa 563d 6f97 f4bc ac98 113d
00000060: 6d35 573c 9eb9 79bd 4a25 31bc 0e84 4dbd
00000070: ef8a e03c 8f10 2dbd 1bb5 643c d7fb eabc
00000080: b389 d43c 9063 70bd b099 d83c d183 db3c
00000090: f9cc a33b c5e4 08bd 5087 aa3c 2218 fbbc
000000a0: d89d 7dbc 4d37 39bd 3044 d03b bc90 053a
000000b0: 56b6 febc ee10 fdbc 9249 afbc fef4 103d
000000c0: 7c0a 243c 4ec2 fe3a e457 873c 1b50 35bd
000000d0: b7cd f5bc 57bc ae3c b510 083d e4ec 2bbc
000000e0: 3cd9 fe3c ea7b 03bd a694 9a3c 5b85 a0ba
000000f0: 6790 3cbd c392 18bd fee3 06bd 36c8 d9bc
-0.007843009 0.010539176 0.025749221 0.023144286 -0.017942786 -0.018251859 -0.016478522 0.014827545
-0.017320976 -0.022272727 0.004797015 -0.0015417408 -0.027360316 -0.030785207 -0.021639792 -0.028914548
-0.038591497 -0.037419014 0.041444626 0.027650848 -0.017040271 0.05240865 -0.029857365 0.03554599
0.013135296 -0.060968034 -0.010812113 -0.050174765 0.027409999 -0.04225212 0.0139591945 -0.02868454
0.025944566 -0.0586887 0.026440471 0.026796253 0.0049988 -0.033421297 0.020816475 -0.030651156
-0.015479527 -0.045218755 0.006355785 0.00050951145 -0.031092804 -0.030891862 -0.021397386 0.035389893
0.010012265 0.001943657 0.016521402 -0.044265848 -0.030005319 0.021330042 0.033219058 -0.010493491
0.031109445 -0.032100596 0.01886971 -0.0012246774 -0.04603615 -0.037249338 -0.032932274 -0.026584726

weight f4 [64, 1024]
00000000: 3911 6ebc 7952 99bc 707f 0ebd 7123 e9bb
00000010: fa7b f7bb db8e 1f3c 0f8a a63b 4c0a b23c
00000020: 8204 0c3c e38c 803b 74ac 2b3c d6c8 babc
00000030: ce09 95bc 278e cb3a 9349 a9bc 4e1c c5bb
00000040: e82d df3b cc91 8dbc a8f4 f3b8 cdb0 f6bb
00000050: dfd0 0e3d 7036 093d 745a b3bb fe16 cbbb
00000060: f001 65bb 0b60 3b3c f4c6 3bbc b663 d53c
00000070: 30a9 efbb 5159 bb3c 81e7 9abc 1a3a 25bc
00000080: 5d83 5bbc dcd1 463c f6a2 87bc 63ed 8dbc
00000090: 330b fbbc b8dd 1f3d aa5c dabc a2df 453c
000000a0: e656 5f3c 7d42 f63c 8e18 80bb b80b 20bc
000000b0: 9300 67bc cf41 edba cd33 103d 7e82 393c
000000c0: 05b1 89bc 20f2 cf3c b1c8 95bc 9014 b23c
000000d0: 14e9 8abb 5b5e 4c3c 9717 e33c d51a 0dbc
000000e0: 6b9a 073d 1ae1 98bb f1a8 023c f513 bcbc
000000f0: 2832 f6bc ee64 c1bc 68cb 6dbc 459f 4fbc
00000100: b780 c9bc 560d 933c 59c8 9bbc d99c 16bc
00000110: 1e0d a4bc 8541 f2bc 47c1 983b 80b0 d43c
00000120: 0b33 ef3c 2f57 033c 9240 acb9 e5b3 80bc
00000130: c5f4 5cbc 984f 65bc 32be 863b 6b5a 5c3a
00000140: b036 a7bc 8e62 bebc b571 d9bc 7b76 7fbc
00000150: 6198 f73c c393 9b3c fe36 873b 1530 1d3c
00000160: bb4c a4bb 1f3e e3bb 14ef 3dbc 4565 a0b7
00000170: cc2b 823c 4586 cd3c dbec 27bc 0503 ae3c
00000180: 6010 79bc 7d96 0b3c ed61 8f3c 0dae 33bc
00000190: c16e 0d3d d1b6 203c f423 d03b e665 013d
000001a0: b9b5 193c c56e 34bc 348f 9d3c 4a2c aabb
000001b0: 6151 94bc c06c a93c 2331 c6bc 97f3 b33c
000001c0: 1e1d 243c 178d 68bc af53 0b3d b104 323c
000001d0: 988a 9abc 111e 4ebc 5cc0 6c3c 1b2b 9ebc
000001e0: 0e1e 133b 7ed7 9a3b bbc8 f13c b7b3 97bc
000001f0: 1503 cabc 6220 323c 1c13 5b3c d9e0 d33c
00000200: d373 a93b 879b b13c 17bd c13c 9f72 103c
00000210: 766e 823a 03b3 813c 7658 8ebc 9c17 f4bc
00000220: e0e4 85bb 9e72 eb3c 4a5d b8bc cde2 8fbc
00000230: 569d e1bc b4cd 083d 0373 603c 2c92 a2bc
00000240: ffc9 0b3d e726 013d 765a b6bb 4160 283c
00000250: a702 f63c 272e 50bb 38a3 21bb 6833 e5bc
00000260: 173a a83c 9426 f43c e3d2 cc3c c939 433b
00000270: 1e4a 85bc 5670 ad3c 3948 c33c 92d5 65bc
00000280: 1fde 713c 52fb 27bc 56af 0d3d 5807 cfb9
00000290: cc39 3ebb b5d8 6b3b 7590 db3c 9dbf aa3c
000002a0: 6b72 babc 4685 e43b e268 c0bc 63d3 33bc
000002b0: 494b b43c 7321 0ebc fc33 9ebc e340 e8bc
000002c0: b3ad 073d f00c e63b aabf 513c 9cda e8bc
000002d0: 4f0a b53c 23d9 713c d324 413c 5caf d23c
000002e0: ae88 1a3c 3e2d d3bc 5ea5 c5bc e653 7d3c
000002f0: cd67 dcbc eb6a 40bc 62d7 0c3c f261 9c3c
00000300: 66ea 0cbc 4a0d df3b f93c bdbb 1dd7 c7bb
00000310: 7c04 e1bc 97a2 213d 366f 163c f8b6 3dbc
00000320: 5ad6 e3bc a458 943c db61 353c a406 393c
00000330: a0f2 c9bb f13c 2a3b 245a 5bbc 2145 8e3c
00000340: e65e 4d3c 5c71 91bc aefa 083d 43cf 3ebc
00000350: 9555 abbc 5268 b73c 61d3 de3b 580e 86bb
00000360: 7edb ed3c 09e8 903c d4ce d93c 8613 22bc
00000370: 33c6 a93c 48e1 72bc d317 fe3b bca1 c6bc
00000380: 489a e83c b416 8bbb c1fe fabc fa7c 52bc
00000390: dab9 38bc 9c5a f93c bbea afbc df29 d5bc
000003a0: 7afb d03c fdfb adbc 372c 0bbc 1577 f03c
000003b0: e4e6 803b 6b65 533c e6dd fe3b 9e25 b0bb
000003c0: 20da 1dbc 0fc2 72bc de50 ddbc 12e2 acbc
000003d0: ffe7 4ebc fbf2 af3c eff4 8f3c 3b7c be3c
000003e0: dfe6 b6bb 46b6 b03c fdb3 d1bb 4204 00bb
000003f0: 852a a13c 22fa 25bb 0c7c 0eba 7640 ed3c
-0.014530473 -0.018716084 -0.034789503 -0.0071148206 -0.007552621 0.009738649 0.005082376 0.021733426
0.008545997 0.003923045 0.010478128 -0.022800844 -0.018193152 0.0015530036 -0.020664966 -0.006015337
0.0068108924 -0.017281435 -0.00011632714 -0.0075284005 0.034867164 0.03349918 -0.0054734293 -0.0061978092
-0.0034943782 0.011436473 -0.011461008 0.026048522 -0.00731387 0.022869738 -0.018909218 -0.010084653
-0.013398019 0.012134995 -0.016557198 -0.017325109 -0.030644989 0.039029807 -0.026655514 0.012077244
0.013631558 0.030061001 -0.003909177 -0.009768419 -0.014099258 -0.0018101278 0.03520565 0.011322616
-0.016808042 0.025384009 -0.018284174 0.02173832 -0.004239211 0.012473668 0.02772121 -0.008612354
0.03310625 -0.004665506 0.007974849 -0.022958735 -0.030053213 -0.023607697 -0.014513828 -0.01267225
-0.024597509 0.017950695 -0.019016432 -0.009192669 -0.020025786 -0.029572258 0.0046617123 0.025963068
0.029199144 0.008016392 -0.00032854505 -0.01571078 -0.013486092 -0.013996027 0.0041120285 0.00084058073
-0.02041182 -0.023240354 -0.026543478 -0.015592213 0.030224027 0.018991357 0.0041264286 0.009593983
-0.00501403 -0.0069348956 -0.011592645 -1.9120644e-05 0.015890025 0.025088439 -0.010249342 0.021241674
-0.015201658 0.008519766 0.01750275 -0.01096679 0.03452945 0.009809212 0.006351942 0.03159132
0.009381705 -0.011012738 0.019233324 -0.005193268 -0.01810521 0.020681739 -0.024193352 0.021966739
0.010016708 -0.014193795 0.034015354 0.010865376 -0.018864915 -0.012580411 0.014450159 -0.019307664
0.0022448334 0.0047253957 0.029514661 -0.018518312 -0.024659673 0.0108719785 0.013371255 0.025864052
0.005171278 0.021680607 0.023649735 0.00881639 0.0009951133 0.01583243 -0.017376166 -0.029796414
-0.004086122 0.028741177 -0.022505421 -0.017564202 -0.027540844 0.0333993 0.013699296 -0.01984509
0.034128185 0.03153124 -0.005564983 0.010276855 0.030030562 -0.003176579 -0.0024663936 -0.027978614
0.020535512 0.029803552 0.025002902 0.0029789081 -0.016270693 0.02117173 0.02383815 -0.01402797
0.01476243 -0.0102527905 0.03459104 -0.00039487588 -0.002902615 0.0035987322 0.02680228 0.020843321
-0.022759637 0.0069738952 -0.023487512 -0.0109756915 0.022008555 -0.008674967 -0.019311897 -0.028351253
0.033124637 0.0070205852 0.012802044 -0.028424554 0.022099642 0.014761242 0.011788565 0.025718383
0.009432001 -0.02577841 -0.024126705 0.0154618975 -0.026904965 -0.011744241 0.008596273 0.019089673
-0.008600807 0.006807004 -0.005775091 -0.0060986415 -0.027467959 0.0394617 0.009181788 -0.011579268
-0.027812172 0.018108673 0.011070694 0.011293087 -0.0061629564 0.0025976265 -0.01338819 0.017366948
0.012534833 -0.01775425 0.03344219 -0.011646095 -0.020914832 0.022388611 0.0068001007 -0.0040910654
0.029035326 0.017688768 0.026587881 -0.00989235 0.020724392 -0.014824219 0.007754305 -0.024247043
0.02839388 -0.00424465 -0.030639054 -0.01284718 -0.011274779 0.030438714 -0.021474233 -0.026020942
0.025510538 -0.021238321 -0.008494428 0.029353658 0.0039337743 0.012902598 0.007777917 -0.005375578
-0.009634525 -0.014816775 -0.0270161 -0.021103892 -0.012628554 0.021478167 0.017572848 0.023252597
-0.005581721 0.02157129 -0.00639963 -0.0019533788 0.019673595 -0.0025326093 -0.00054353545 0.028961401

bias f4 [64]
00000000: 95b6 363c 0275 9db9 25a7 1c3d abf4 a7bc
00000010: 89fa c8bc c69d b4bb 4cd6 72bc e095 3cbc
00000020: 35fc 9f3c a829 6fbc 9440 c83c 77f8 0b3d
00000030: fe88 b63c 4627 c4bc 1d55 bcbb e10c 11bd
00000040: 68b4 fa3b 5f01 823c f4b4 ec3c cb38 c2bc
00000050: a1ea f3bb d5bd 373d 3e42 1dbb 14c9 fd3c
00000060: 90b8 1bbd f7df 243d 6c03 753c e232 87bc
00000070: 2950 6abc f0ab fd3c a4d2 153d 19b1 1d3c
00000080: f90a 213c 5b1b 47bc 42e0 debc e95f 113c
00000090: f656 84bc 7453 7bbb 056a 9fbc c7a4 393c
000000a0: db24 823a 4c2d 8539 8e72 4ebc 4c38 c83b
000000b0: a402 7a39 fcee 5cbd 59e0 c8bc b858 dabc
000000c0: 78c3 fd3c 6a37 b83c 2072 39bc 5b9c 91bc
000000d0: 8587 743b 22d0 20bd 4ce5 22bc 4767 87bc
000000e0: d9be 4f3b 335a 463d 2c57 e13b 4bbd 253c
000000f0: dfe0 0ebd 4739 823b 6ee3 eebc 8ee4 1d3c
0.011151929 -0.0003003255 0.03824534 -0.020502409 -0.024533527 -0.005511972 -0.0148216 -0.011510342
0.019529441 -0.014597334 0.024444856 0.0341725 0.02228212 -0.023944508 -0.005747451 -0.035412673
0.0076509006 0.015869794 0.028894879 -0.023708722 -0.0074437414 0.044858772 -0.0023995782 0.03097967
-0.03801781 0.040252652 0.014954429 -0.016503755 -0.014301338 0.030965775 0.036577836 0.009624743
0.009829276 -0.012152518 -0.027206544 0.008872964 -0.016154747 -0.0038349302 -0.019459734 0.01133079
0.0009929197 0.00025401486 -0.012600554 0.0061102267 0.00023842842 -0.05393885 -0.02452104 -0.026653633
0.030976996 0.022487361 -0.011318713 -0.017774751 0.0037312221 -0.03926099 -0.009942364 -0.016528739
0.0031699447 0.048425864 0.006876847 0.010115932 -0.034882423 0.003974113 -0.029161181 0.009637011

weight f4 [10, 64]
00000000: 1ac5 9b3b 2b70 2d3d 5467 b7bd 182a b8bc
00000010: 72d7 263d 504f cb3c 7f2e cb3d 9ada 063e
00000020: fda9 b8bc e495 cc3c 2f4d 1a3c 00a0 df3c
00000030: 38bf 7e3d fc9d 033e d527 dc3d 7c84 983d
00000040: 3dd0 c9bd cb91 f2bd acd2 92bd 5536 1f3d
00000050: fe36 933c ebbf 09be f739 7a3d 105d 95bc
00000060: fabf 553d d3e2 cebd 8b1c 49bb 52ba 793c
00000070: e022 4abd c34d 51bc d8fb 90bd 6492 d2bc
00000080: 207c 22bd 95c2 04be b16b f2bc 1f9f 0ebd
00000090: 75c0 053e 2a78 04be ac7e a93c 4f32 8cbd
000000a0: a369 75bd 4ef8 103d cacf 9f3d 3380 863d
000000b0: 4ff1 f13c 52bd cf3d c8be 9c3d 1325 743d
000000c0: de34 9abd f741 c43d f79f 003e cd25 a73d
000000d0: 6854 553d 9da0 b13d 42f5 6c3d 33bc 1cbd
000000e0: fc60 ef3d 0b16 e0bd b1f2 eebd dca9 a13d
000000f0: 2396 a4bd 79b8 9ebd fa4c 013e 60a8 9a3d
00000100: e6d9 003e 6cd4 45be 2204 a6bd c943 1dbd
00000110: e524 c53d d129 a5bd 7e47 dfbd 47a7 c0bd
00000120: fab3 2cbd 6eb0 9cbd 6fb4 47be 814c 46bd
00000130: 2681 59bb 310a 163e fca1 373e 8244 9c3d
00000140: c88f 5539 6ee0 b6bd 66a2 ab3a 411d 9a3d
00000150: 9ee7 a7bd adf8 aa3d 7355 e4bd e982 bc3d
00000160: 4927 3a3b 5f6c 0b3e 1d40 403d 6be8 e8bd
00000170: 05fb 06be 31fe ea3b 0124 4dbd a008 b83c
00000180: 225c dabd 0f8d 683d 6288 2bbd 1ce6 11be
00000190: ee78 d1bd 4b6a 843b 4536 c6bd e78e 8a3d
000001a0: a9ac f73d dac8 91bd efdf f8bd aba7 ebbd
000001b0: 62bb 9239 059d 1cbe ef41 ea3c 27a2 253d
000001c0: 0b74 b33d 608b ca3c f153 2f3d 0858 b9bc
000001d0: 464a 83bd 8565 a53d 9cff a0bd 31b0 8d3c
000001e0: eeca bc3d 6e13 88bb b256 cabd 56ff d63d
000001f0: d00b ac3c 2eb9 d03d e484 08be cd72 17be
00000200: 5e7a 9f3d 2dc2 d23d 61cf e1bd c91d 093e
00000210: 4629 c8bc 5948 6ebc 0fef 9b3d ae80 cbbd
00000220: 0e6c 833d 78dc a0bd 72dd a13d 7eae 053d
00000230: 0f9e 2d3d cbd3 753d ad14 95bd 06b8 103d
00000240: 766e fa3c 04da fd3d 3dba 453d dd52 afbc
00000250: 10f4 6abd 6c8a 00be 45cb a6bd a5fb a13d
00000260: e27f 94bd d305 403d 852f eabc 1596 7abd
00000270: 254e c83a 0c12 753c 5737 9e3d 40d8 81bd
00000280: 6880 9a3a 9836 fa3d 6a0e 4dbd ec9d f43d
00000290: affd 41bd 5585 8abd 4871 c2bd 8fe5 e9bd
000002a0: bdd1 06be ca0b 1a3d c9b4 89bd ba80 15bd
000002b0: ab42 f73d 543b d73c 6463 e2bd 3b69 a0bb
000002c0: ba61 9a3d 8ca6 e43d 1307 2fbd 1264 edbd
000002d0: 3303 ed3d ad53 c8bd b4e6 083e 69dc 78bc
000002e0: c794 da3d 369d ccbc 20c7 c83d 7559 8e3d
000002f0: b320 21be 66e5 9fbd a292 0c3e 17bb b93d
00000300: e2c6 fa3d f88e ca3d 75ff 123d b6a1 f8bd
00000310: 18f0 b8bd bbca e6bb 5ea2 ac3d 8a53 68bc
00000320: 4146 243d dc2a 493c 1a91 e7bd d39f 833c
00000330: 5241 52bd 9f97 0cbe 5d3e e4bd b42b 7dbd
00000340: 79e0 653d 0f41 dc3b 3bd7 e93d dd5c 64bd
00000350: fb8c fd3d 634d 8a3b cbfb c9bd b614 1ebd
00000360: 71f6 11bd e2da f73d 5474 543c 8648 583d
00000370: c763 75bd aae7 b23d c1c0 923d 496f e03d
00000380: dbe1 21bd a37b fc3d 13ad babd a282 a4bd
00000390: 3414 a9bd 0a7e ad3c b9b3 80bd 5e7c 5abc
000003a0: 20fb 1b3d a1c2 acbd 7abc 853d 9375 b83c
000003b0: f2da 10be dff4 0abd 3fe7 8e3d 3783 4c3d
000003c0: 570b 2abd b08b b03a e629 4fbd 5042 f03d
000003d0: 1d25 093e 2de9 dcbb 977e 2d3d 0a9b 0dbd
000003e0: ea46 213d 1c97 f13b 2eac 873d 5661 f5bd
000003f0: cb24 c0bd 63f6 d73d 0305 5b3c d9e2 d5bd
0.004753721 0.0423433 -0.08955255 -0.02248101 0.04073281 0.024818093 0.09920978 0.13169327
-0.022541994 0.024973817 0.009417816 0.027297974 0.06219408 0.12853235 0.10749785 0.074471444
-0.098541714 -0.11844214 -0.07169089 0.038870174 0.017970558 -0.13452117 0.061090436 -0.018232852
0.052185036 -0.10101857 -0.003068718 0.015242176 -0.049349666 -0.0127748875 -0.070792854 -0.02570457
-0.039669156 -0.12964852 -0.029592367 -0.03481972 0.13061698 -0.12936464 0.020690285 -0.06845533
-0.059915196 0.03539305 0.078033045 0.06567421 0.02953401 0.10143532 0.07653576 0.05960567
-0.07529615 0.09582894 0.12561022 0.08161507 0.05208245 0.08673213 0.057851084 -0.03826542
0.1168842 -0.10941704 -0.116673835 0.07893726 -0.08036449 -0.07750029 0.1262702 0.07551646
0.12583122 -0.19319314 -0.08106257 -0.038394723 0.09626178 -0.080646165 -0.10902308 -0.094069056
-0.042163827 -0.07650839 -0.19502424 -0.048412804 -0.003318855 0.14652325 0.17932886 0.07630254
0.00020366826 -0.08929525 0.0013094663 0.07525111 -0.08198474 0.083482124 -0.11149111 0.09204657
0.0028404763 0.13615559 0.046936143 -0.11372455 -0.13181694 0.0071714153 -0.050083164 0.02246505
-0.10662104 0.05677515 -0.04187811 -0.14247936 -0.10228144 0.0040409914 -0.0967832 0.06765538
0.12093479 -0.071183875 -0.12152087 -0.115065895 0.000279869 -0.15294273 0.028595893 0.040437844
0.08762368 0.024724662 0.042804662 -0.022624984 -0.06410651 0.08076004 -0.078612536 0.017295929
0.09218393 -0.004152707 -0.09879817 0.1049792 0.021001726 0.1019157 -0.13331944 -0.14789887
0.077870116 0.10290942 -0.110258825 0.13390268 -0.024433743 -0.014543616 0.07613956 -0.09936653
0.06417094 -0.07854551 0.079035655 0.03263711 0.042387065 0.060016435 -0.07279334 0.03533175
0.03057025 0.12395099 0.048273314 -0.021401817 -0.057361662 -0.12552804 -0.08144239 0.079093255
-0.07250954 0.046880554 -0.028587112 -0.061178286 0.0015282078 0.014957916 0.07725399 -0.063400745
0.0011787536 0.12217444 -0.050062574 0.11944184 -0.047361072 -0.06763712 -0.09494263 -0.11420738
-0.13165946 0.0376089 -0.06723935 -0.036499716 0.12073263 0.026273407 -0.110541135 -0.004895357
0.07538171 0.11164579 -0.042731356 -0.115913525 0.11572876 -0.09781585 0.13369256 -0.015189269
0.10672908 -0.024977308 0.09803605 0.06950656 -0.1573513 -0.07807426 0.13727811 0.09068888
0.12244965 0.098905504 0.035888154 -0.12140219 -0.09030169 -0.0070432103 0.084294066 -0.0141800735
0.04010606 0.012278285 -0.11306973 0.016067421 -0.051331826 -0.13729714 -0.11144707 -0.061809257
0.056122277 0.006721623 0.11418005 -0.055752624 0.123804055 0.004220651 -0.09862479 -0.03859397
-0.035635415 0.121022955 0.012967188 0.05280354 -0.05990961 0.08735593 0.07165671 0.10958726
-0.039522033 0.12328269 -0.091150425 -0.08032729 -0.082558066 0.021178264 -0.062842794 -0.0133353155
0.03808129 -0.0843556 0.0653009 0.022517001 -0.14146021 -0.033924934 0.069777004 0.049929824
-0.04151472 0.0013469364 -0.050577067 0.11731398 0.13393064 -0.006741664 0.042357054 -0.034571685
0.03937427 0.00737275 0.066246375 -0.11981456 -0.09382018 0.105450414 0.013367894 -0.104436584

bias f4 [10]
00000000: 10e6 a1bd c2a4 923c 5d1f b43d bf68 8f3d
00000010: ba3f 06bc cfb2 733d c581 91bc 0729 d43d
00000020: 8e6a d83c 3d8b e53b
-0.07905209 0.017900828 0.087950446 0.070024006 -0.0081939045 0.059496697 -0.017762074 0.10359388
0.026417997 0.007005124
